…
 They are not counted as submodules in calflops and not to be printed out. However they make up the difference between a parent's MACs and the sum of its submodules'.
2. Number of floating-point operations is a theoretical estimation, thus FLOPS computed using that could be larger than the maximum system throughput.

DeepseekVLV2ForCausalLM(
  3.37 B = 100% Params, 4.59 TMACs = 100% MACs, 9.31 TFLOPS = 100% FLOPs
  (vision): VisionTransformer(
    428.23 M = 12.7051% Params, 2.7 TMACs = 58.8271% MACs, 5.41 TFLOPS = 58.0821% FLOPs
    (patch_embed): PatchEmbed(
      678.53 K = 0.0201% Params, 4.44 GMACs = 0.0968% MACs, 8.9 GFLOPS = 0.0956% FLOPs
      (proj): Conv2d(678.53 K = 0.0201% Params, 4.44 GMACs = 0.0968% MACs, 8.9 GFLOPS = 0.0956% FLOPs, 3, 1152, kernel_size=(14, 14), stride=(14, 14))
      (norm): Identity(0 = 0% Params, 0 MACs = 0% MACs, 0 FLOPS = 0% FLOPs)
    )
    (pos_drop): Dropout(0 = 0% Params, 0 MACs = 0% MACs, 0 FLOPS = 0% FLOPs, p=0.0, inplace=False)
    (patch_drop): Identity(0 = 0% Params, 0 MACs = 0% MACs, 0 FLOPS = 0% FLOPs)
    (norm_pre): Identity(0 = 0% Params, 0 MACs = 0% MACs, 0 FLOPS = 0% FLOPs)
    (blocks): Sequential(
      411.47 M = 12.2079% Params, 2.7 TMACs = 58.7303% MACs, 5.4 TFLOPS = 57.986% FLOPs
      (0): Block(
        15.24 M = 0.4521% Params, 99.89 GMACs = 2.1752% MACs, 199.9 GFLOPS = 2.1476% FLOPs
        (norm1): LayerNorm(2.3 K = 0.0001% Params, 0 MACs = 0% MACs, 37.79 MFLOPS = 0.0004% FLOPs, (1152,), eps=1e-06, elementwise_affine=True)
        (attn): Attention(
          5.31 M = 0.1576% Params, 34.83 GMACs = 0.7584% MACs, 69.66 GFLOPS = 0.7484% FLOPs
          (qkv): Linear(3.98 M = 0.1182% Params, 26.12 GMACs = 0.5688% MACs, 52.24 GFLOPS = 0.5613% FLOPs, in_features=1152, out_features=3456, bias=True)
          (q_norm): Identity(0 = 0% Params, 0 MACs = 0% MACs, 0 FLOPS = 0% FLOPs)
          (k_norm): Identity(0 = 0% Params, 0 MACs = 0% MACs, 0 FLOPS = 0% FLOPs)
          (attn_drop): Dropout(0 = 0% Params, 0 MACs = 0% MACs, 0 FLOPS = 0% FLOPs, p=0.0, inplace=False)
          (proj): Linear(1.33 M = 0.0394% Params, 8.71 GMACs = 0.1896% MACs, 17.41 GFLOPS = 0.1871% FLOPs, in_features=1152, out_features=1152, bias=True)
          (proj_drop): Identity(0 = 0% Params, 0 MACs = 0% MACs, 0 FLOPS = 0% FLOPs)
        )
        (ls1): Identity(0 = 0% Params, 0 MACs = 0% MACs, 0 FLOPS = 0% FLOPs)
        (drop_path1): Identity(0 = 0% Params, 0 MACs = 0% MACs, 0 FLOPS = 0% FLOPs)
        (norm2): LayerNorm(2.3 K = 0.0001% Params, 0 MACs = 0% MACs, 37.79 MFLOPS = 0.0004% FLOPs, (1152,), eps=1e-06, elementwise_affine=True)
        (mlp): Mlp(
          9.92 M = 0.2944% Params, 65.06 GMACs = 1.4168% MACs, 130.15 GFLOPS = 1.3983% FLOPs
          (fc1): Linear(4.96 M = 0.1472% Params, 32.53 GMACs = 0.7084% MACs, 65.06 GFLOPS = 0.699% FLOPs, in_features=1152, out_features=4304, bias=True)
          (act): GELU(0 = 0% Params, 0 MACs = 0% MACs, 28.24 MFLOPS = 0.0003% FLOPs, approximate='tanh')
          (drop1): Dropout(0 = 0% Params, 0 MACs = 0% MACs, 0 FLOPS = 0% FLOPs, p=0.0, inplace=False)
          (norm): Identity(0 = 0% Params, 0 MACs = 0% MACs, 0 FLOPS = 0% FLOPs)
          (fc2): Linear(4.96 M = 0.1471% Params, 32.53 GMACs = 0.7084% MACs, 65.06 GFLOPS = 0.699% FLOPs, in_features=4304, out_features=1152, bias=True)
          (drop2): Dropout(0 = 0% Params, 0 MACs = 0% MACs, 0 FLOPS = 0% FLOPs, p=0.0, inplace=False)
        )
        (ls2): Identity(0 = 0% Params, 0 MACs = 0% MACs, 0 FLOPS = 0% FLOPs)
        (drop_path2): Identity(0 = 0% Params, 0 MACs = 0% MACs, 0 FLOPS = 0% FLOPs)
      )
      (1): Block(
        15.24 M = 0.4521% Params, 99.89 GMACs = 2.1752% MACs, 199.9 GFLOPS = 2.1476% FLOPs
        (norm1): LayerNorm(2.3 K = 0.0001% Params, 0 MACs = 0% MACs, 37.79 MFLOPS = 0.0004% FLOPs, (1152,), eps=1e-06, elementwise_affine=True)
        (attn): Attention(
          5.31 M = 0.1576% Params, 34.83 GMACs = 0.7584% MACs, 69.66 GFLOPS = 0.7484% FLOPs
          (qkv): Linear(3.98 M = 0.1182% Params, 26.12 GMACs = 0.5688% MACs, 52.24 GFLOPS = 0.5613% FLOPs, in_features=1152, out_features=3456, bias=True)
          (q_norm): Identity(0 = 0% Params, 0 MACs = 0% MACs, 0 FLOPS = 0% FLOPs)
          (k_norm): Identity(0 = 0% Params, 0 MACs = 0% MACs, 0 FLOPS = 0% FLOPs)
          (attn_drop): Dropout(0 = 0% Params, 0 MACs = 0% MACs, 0 FLOPS = 0% FLOPs, p=0.0, inplace=False)
          (proj): Linear(1.33 M = 0.0394% Params, 8.71 GMACs = 0.1896% MACs, 17.41 GFLOPS = 0.1871% FLOPs, in_features=1152, out_features=1152, bias=True)
          (proj_drop): Identity(0 = 0% Params, 0 MACs = 0% MACs, 0 FLOPS = 0% FLOPs)
        )
        (ls1): Identity(0 = 0% Params, 0 MACs = 0% MACs, 0 FLOPS = 0% FLOPs)
        (drop_path1): Identity(0 = 0% Params, 0 MACs = 0% MACs, 0 FLOPS = 0% FLOPs)
        (norm2): LayerNorm(2.3 K = 0.0001% Params, 0 MACs = 0% MACs, 37.79 MFLOPS = 0.0004% FLOPs, (1152,), eps=1e-06, elementwise_affine=True)
        (mlp): Mlp(
          9.92 M = 0.2944% Params, 65.06 GMACs = 1.4168% MACs, 130.15 GFLOPS = 1.3983% FLOPs
          (fc1): Linear(4.96 M = 0.1472% Params, 32.53 GMACs = 0.7084% MACs, 65.06 GFLOPS = 0.699% FLOPs, in_features=1152, out_features=4304, bias=True)
          (act): GELU(0 = 0% Params, 0 MACs = 0% MACs, 28.24 MFLOPS = 0.0003% FLOPs, approximate='tanh')
          (drop1): Dropout(0 = 0% Params, 0 MACs = 0% MACs, 0 FLOPS = 0% FLOPs, p=0.0, inplace=False)
          (norm): Identity(0 = 0% Params, 0 MACs = 0% MACs, 0 FLOPS = 0% FLOPs)
          (fc2): Linear(4.96 M = 0.1471% Params, 32.53 GMACs = 0.7084% MACs, 65.06 GFLOPS = 0.699% FLOPs, in_features=4304, out_features=1152, bias=True)
          (drop2): Dropout(0 = 0% Params, 0 MACs = 0% MACs, 0 FLOPS = 0% FLOPs, p=0.0, inplace=False)
        )
        (ls2): Identity(0 = 0% Params, 0 MACs = 0% MACs, 0 FLOPS = 0% FLOPs)
        (drop_path2): Identity(0 = 0% Params, 0 MACs = 0% MACs, 0 FLOPS = 0% FLOPs)
      )
      (2): Block(
        15.24 M = 0.4521% Params, 99.89 GMACs = 2.1752% MACs, 199.9 GFLOPS = 2.1476% FLOPs
        (norm1): LayerNorm(2.3 K = 0.0001% Params, 0 MACs = 0% MACs, 37.79 MFLOPS = 0.0004% FLOPs, (1152,), eps=1e-06, elementwise_affine=True)
        (attn): Attention(
          5.31 M = 0.1576% Params, 34.83 GMACs = 0.7584% MACs, 69.66 GFLOPS = 0.7484% FLOPs
          (qkv): Linear(3.98 M = 0.1182% Params, 26.12 GMACs = 0.5688% MACs, 52.24 GFLOPS = 0.5613% FLOPs, in_features=1152, out_features=3456, bias=True)
          (q_norm): Identity(0 = 0% Params, 0 MACs = 0% MACs, 0 FLOPS = 0% FLOPs)
          (k_norm): Identity(0 = 0% Params, 0 MACs = 0% MACs, 0 FLOPS = 0% FLOPs)
          (attn_drop): Dropout(0 = 0% Params, 0 MACs = 0% MACs, 0 FLOPS = 0% FLOPs, p=0.0, inplace=False)
          (proj): Linear(1.33 M = 0.0394% Params, 8.71 GMACs = 0.1896% MACs, 17.41 GFLOPS = 0.1871% FLOPs, in_features=1152, out_features=1152, bias=True)
          (proj_drop): Identity(0 = 0% Params, 0 MACs = 0% MACs, 0 FLOPS = 0% FLOPs)
        )
        (ls1): Identity(0 = 0% Params, 0 MACs = 0% MACs, 0 FLOPS = 0% FLOPs)
        (drop_path1): Identity(0 = 0% Params, 0 MACs = 0% MACs, 0 FLOPS = 0% FLOPs)
        (norm2): LayerNorm(2.3 K = 0.0001% Params, 0 MACs = 0% MACs, 37.79 MFLOPS = 0.0004% FLOPs, (1152,), eps=1e-06, elementwise_affine=True)
        (mlp): Mlp(
          9.92 M = 0.2944% Params, 65.06 GMACs = 1.4168% MACs, 130.15 GFLOPS = 1.3983% FLOPs
          (fc1): Linear(4.96 M = 0.1472% Params, 32.53 GMACs = 0.7084% MACs, 65.06 GFLOPS = 0.699% FLOPs, in_features=1152, out_features=4304, bias=True)
          (act): GELU(0 = 0% Params, 0 MACs = 0% MACs, 28.24 MFLOPS = 0.0003% FLOPs, approximate='tanh')
          (drop1): Dropout(0 = 0% Params, 0 MACs = 0% MACs, 0 FLOPS = 0% FLOPs, p=0.0, inplace=False)
          (norm): Identity(0 = 0% Params, 0 MACs = 0% MACs, 0 FLOPS = 0% FLOPs)
          (fc2): Linear(4.96 M = 0.1471% Params, 32.53 GMACs = 0.7084% MACs, 65.06 GFLOPS = 0.699% FLOPs, in_features=4304, out_features=1152, bias=True)
          (drop2): Dropout(0 = 0% Params, 0 MACs = 0% MACs, 0 FLOPS = 0% FLOPs, p=0.0, inplace=False)
        )
        (ls2): Identity(0 = 0% Params, 0 MACs = 0% MACs, 0 FLOPS = 0% FLOPs)
        (drop_path2): Identity(0 = 0% Params, 0 MACs = 0% MACs, 0 FLOPS = 0% FLOPs)
      )
      (3): Block(
        15.24 M = 0.4521% Params, 99.89 GMACs = 2.1752% MACs, 199.9 GFLOPS = 2.1476% FLOPs
        (norm1): LayerNorm(2.3 K = 0.0001% Params, 0 MACs = 0% MACs, 37.79 MFLOPS = 0.0004% FLOPs, (1152,), eps=1e-06, elementwise_affine=True)
        (attn): Attention(
          5.31 M = 0.1576% Params, 34.83 GMACs = 0.7584% MACs, 69.66 GFLOPS = 0.7484% FLOPs
          (qkv): Linear(3.98 M = 0.1182% Params, 26.12 GMACs = 0.5688% MACs, 52.24 GFLOPS = 0.5613% FLOPs, in_features=1152, out_features=3456, bias=True)
          (q_norm): Identity(0 = 0% Params, 0 MACs = 0% MACs, 0 FLOPS = 0% FLOPs)
          (k_norm): Identity(0 = 0% Params, 0 MACs = 0% MACs, 0 FLOPS = 0% FLOPs)
          (attn_drop): Dropout(0 = 0% Params, 0 MACs = 0% MACs, 0 FLOPS = 0% FLOPs, p=0.0, inplace=False)
          (proj): Linear(1.33 M = 0.0394% Params, 8.71 GMACs = 0.1896% MACs, 17.41 GFLOPS = 0.1871% FLOPs, in_features=1152, out_features=1152, bias=True)
          (proj_drop): Identity(0 = 0% Params, 0 MACs = 0% MACs, 0 FLOPS = 0% FLOPs)
        )
        (ls1): Identity(0 = 0% Params, 0 MACs = 0% MACs, 0 FLOPS = 0% FLOPs)
        (drop_path1): Identity(0 = 0% Params, 0 MACs = 0% MACs, 0 FLOPS = 0% FLOPs)
        (norm2): LayerNorm(2.3 K = 0.0001% Params, 0 MACs = 0% MACs, 37.79 MFLOPS = 0.0004% FLOPs, (1152,), eps=1e-06, elementwise_affine=True)
        (mlp): Mlp(
          9.92 M = 0.2944% Params, 65.06 GMACs = 1.4168% MACs, 130.15 GFLOPS = 1.3983% FLOPs
          (fc1): Linear(4.96 M = 0.1472% Params, 32.53 GMACs = 0.7084% MACs, 65.06 GFLOPS = 0.699% FLOPs, in_features=1152, out_features=4304, bias=True)
          (act): GELU(0 = 0% Params, 0 MACs = 0% MACs, 28.24 MFLOPS = 0.0003% FLOPs, approximate='tanh')
          (drop1): Dropout(0 = 0% Params, 0 MACs = 0% MACs, 0 FLOPS = 0% FLOPs, p=0.0, inplace=False)
          (norm): Identity(0 = 0% Params, 0 MACs = 0% MACs, 0 FLOPS = 0% FLOPs)
          (fc2): Linear(4.96 M = 0.1471% Params, 32.53 GMACs = 0.7084% MACs, 65.06 GFLOPS = 0.699% FLOPs, in_features=4304, out_features=1152, bias=True)
          (drop2): Dropout(0 = 0% Params, 0 MACs = 0% MACs, 0 FLOPS = 0% FLOPs, p=0.0, inplace=False)
        )
        (ls2): Identity(0 = 0% Params, 0 MACs = 0% MACs, 0 FLOPS = 0% FLOPs)
        (drop_path2): Identity(0 = 0% Params, 0 MACs = 0% MACs, 0 FLOPS = 0% FLOPs)
      )
      (4): Block(
        15.24 M = 0.4521% Params, 99.89 GMACs = 2.1752% MACs, 199.9 GFLOPS = 2.1476% FLOPs
        (norm1): LayerNorm(2.3 K = 0.0001% Params, 0 MACs = 0% MACs, 37.79 MFLOPS = 0.0004% FLOPs, (1152,), eps=1e-06, elementwise_affine=True)
        (attn): Attention(
          5.31 M = 0.1576% Params, 34.83 GMACs = 0.7584% MACs, 69.66 GFLOPS = 0.7484% FLOPs
          (qkv): Linear(3.98 M = 0.1182% Params, 26.12 GMACs = 0.5688% MACs, 52.24 GFLOPS = 0.5613% FLOPs, in_features=1152, out_features=3456, bias=True)
          (q_norm): Identity(0 = 0% Params, 0 MACs = 0% MACs, 0 FLOPS = 0% FLOPs)
          (k_norm): Identity(0 = 0% Params, 0 MACs = 0% MACs, 0 FLOPS = 0% FLOPs)
          (attn_drop): Dropout(0 = 0% Params, 0 MACs = 0% MACs, 0 FLOPS = 0% FLOPs, p=0.0, inplace=False)
          (proj): Linear(1.33 M = 0.0394% Params, 8.71 GMACs = 0.1896% MACs, 17.41 GFLOPS = 0.1871% FLOPs, in_features=1152, out_features=1152, bias=True)
          (proj_drop): Identity(0 = 0% Params, 0 MACs = 0% MACs, 0 FLOPS = 0% FLOPs)
        )
        (ls1): Identity(0 = 0% Params, 0 MACs = 0% MACs, 0 FLOPS = 0% FLOPs)
        (drop_path1): Identity(0 = 0% Params, 0 MACs = 0% MACs, 0 FLOPS = 0% FLOPs)
        (norm2): LayerNorm(2.3 K = 0.0001% Params, 0 MACs = 0% MACs, 37.79 MFLOPS = 0.0004% FLOPs, (1152,), eps=1e-06, elementwise_affine=True)
        (mlp): Mlp(
          9.92 M = 0.2944% Params, 65.06 GMACs = 1.4168% MACs, 130.15 GFLOPS = 1.3983% FLOPs
          (fc1): Linear(4.96 M = 0.1472% Params, 32.53 GMACs = 0.7084% MACs, 65.06 GFLOPS = 0.699% FLOPs, in_features=1152, out_features=4304, bias=True)
          (act): GELU(0 = 0% Params, 0 MACs = 0% MACs, 28.24 MFLOPS = 0.0003% FLOPs, approximate='tanh')
          (drop1): Dropout(0 = 0% Params, 0 MACs = 0% MACs, 0 FLOPS = 0% FLOPs, p=0.0, inplace=False)
          (norm): Identity(0 = 0% Params, 0 MACs = 0% MACs, 0 FLOPS = 0% FLOPs)
          (fc2): Linear(4.96 M = 0.1471% Params, 32.53 GMACs = 0.7084% MACs, 65.06 GFLOPS = 0.699% FLOPs, in_features=4304, out_features=1152, bias=True)
          (drop2): Dropout(0 = 0% Params, 0 MACs = 0% MACs, 0 FLOPS = 0% FLOPs, p=0.0, inplace=False)
        )
        (ls2): Identity(0 = 0% Params, 0 MACs = 0% MACs, 0 FLOPS = 0% FLOPs)
        (drop_path2): Identity(0 = 0% Params, 0 MACs = 0% MACs, 0 FLOPS = 0% FLOPs)
      )
      (5): Block(
        15.24 M = 0.4521% Params, 99.89 GMACs = 2.1752% MACs, 199.9 GFLOPS = 2.1476% FLOPs
        (norm1): LayerNorm(2.3 K = 0.0001% Params, 0 MACs = 0% MACs, 37.79 MFLOPS = 0.0004% FLOPs, (1152,), eps=1e-06, elementwise_affine=True)
        (attn): Attention(
          5.31 M = 0.1576% Params, 34.83 GMACs = 0.7584% MACs, 69.66 GFLOPS = 0.7484% FLOPs
          (qkv): Linear(3.98 M = 0.1182% Params, 26.12 GMACs = 0.5688% MACs, 52.24 GFLOPS = 0.5613% FLOPs, in_features=1152, out_features=3456, bias=True)
          (q_norm): Identity(0 = 0% Params, 0 MACs = 0% MACs, 0 FLOPS = 0% FLOPs)
          (k_norm): Identity(0 = 0% Params, 0 MACs = 0% MACs, 0 FLOPS = 0% FLOPs)
          (attn_drop): Dropout(0 = 0% Params, 0 MACs = 0% MACs, 0 FLOPS = 0% FLOPs, p=0.0, inplace=False)
          (proj): Linear(1.33 M = 0.0394% Params, 8.71 GMACs = 0.1896% MACs, 17.41 GFLOPS = 0.1871% FLOPs, in_features=1152, out_features=1152, bias=True)
          (proj_drop): Identity(0 = 0% Params, 0 MACs = 0% MACs, 0 FLOPS = 0% FLOPs)
        )
        (ls1): Identity(0 = 0% Params, 0 MACs = 0% MACs, 0 FLOPS = 0% FLOPs)
        (drop_path1): Identity(0 = 0% Params, 0 MACs = 0% MACs, 0 FLOPS = 0% FLOPs)
        (norm2): LayerNorm(2.3 K = 0.0001% Params, 0 MACs = 0% MACs, 37.79 MFLOPS = 0.0004% FLOPs, (1152,), eps=1e-06, elementwise_affine=True)
        (mlp): Mlp(
          9.92 M = 0.2944% Params, 65.06 GMACs = 1.4168% MACs, 130.15 GFLOPS = 1.3983% FLOPs
          (fc1): Linear(4.96 M = 0.1472% Params, 32.53 GMACs = 0.7084% MACs, 65.06 GFLOPS = 0.699% FLOPs, in_features=1152, out_features=4304, bias=True)
          (act): GELU(0 = 0% Params, 0 MACs = 0% MACs, 28.24 MFLOPS = 0.0003% FLOPs, approximate='tanh')
          (drop1): Dropout(0 = 0% Params, 0 MACs = 0% MACs, 0 FLOPS = 0% FLOPs, p=0.0, inplace=False)
          (norm): Identity(0 = 0% Params, 0 MACs = 0% MACs, 0 FLOPS = 0% FLOPs)
          (fc2): Linear(4.96 M = 0.1471% Params, 32.53 GMACs = 0.7084% MACs, 65.06 GFLOPS = 0.699% FLOPs, in_features=4304, out_features=1152, bias=True)
          (drop2): Dropout(0 = 0% Params, 0 MACs = 0% MACs, 0 FLOPS = 0% FLOPs, p=0.0, inplace=False)
        )
        (ls2): Identity(0 = 0% Params, 0 MACs = 0% MACs, 0 FLOPS = 0% FLOPs)
        (drop_path2): Identity(0 = 0% Params, 0 MACs = 0% MACs, 0 FLOPS = 0% FLOPs)
      )
      (6): Block(
        15.24 M = 0.4521% Params, 99.89 GMACs = 2.1752% MACs, 199.9 GFLOPS = 2.1476% FLOPs
        (norm1): LayerNorm(2.3 K = 0.0001% Params, 0 MACs = 0% MACs, 37.79 MFLOPS = 0.0004% FLOPs, (1152,), eps=1e-06, elementwise_affine=True)
        (attn): Attention(
          5.31 M = 0.1576% Params, 34.83 GMACs = 0.7584% MACs, 69.66 GFLOPS = 0.7484% FLOPs
          (qkv): Linear(3.98 M = 0.1182% Params, 26.12 GMACs = 0.5688% MACs, 52.24 GFLOPS = 0.5613% FLOPs, in_features=1152, out_features=3456, bias=True)
          (q_norm): Identity(0 = 0% Params, 0 MACs = 0% MACs, 0 FLOPS = 0% FLOPs)
          (k_norm): Identity(0 = 0% Params, 0 MACs = 0% MACs, 0 FLOPS = 0% FLOPs)
          (attn_drop): Dropout(0 = 0% Params, 0 MACs = 0% MACs, 0 FLOPS = 0% FLOPs, p=0.0, inplace=False)
          (proj): Linear(1.33 M = 0.0394% Params, 8.71 GMACs = 0.1896% MACs, 17.41 GFLOPS = 0.1871% FLOPs, in_features=1152, out_features=1152, bias=True)
          (proj_drop): Identity(0 = 0% Params, 0 MACs = 0% MACs, 0 FLOPS = 0% FLOPs)
        )
        (ls1): Identity(0 = 0% Params, 0 MACs = 0% MACs, 0 FLOPS = 0% FLOPs)
        (drop_path1): Identity(0 = 0% Params, 0 MACs = 0% MACs, 0 FLOPS = 0% FLOPs)
        (norm2): LayerNorm(2.3 K = 0.0001% Params, 0 MACs = 0% MACs, 37.79 MFLOPS = 0.0004% FLOPs, (1152,), eps=1e-06, elementwise_affine=True)
        (mlp): Mlp(
          9.92 M = 0.2944% Params, 65.06 GMACs = 1.4168% MACs, 130.15 GFLOPS = 1.3983% FLOPs
          (fc1): Linear(4.96 M = 0.1472% Params, 32.53 GMACs = 0.7084% MACs, 65.06 GFLOPS = 0.699% FLOPs, in_features=1152, out_features=4304, bias=True)
          (act): GELU(0 = 0% Params, 0 MACs = 0% MACs, 28.24 MFLOPS = 0.0003% FLOPs, approximate='tanh')
          (drop1): Dropout(0 = 0% Params, 0 MACs = 0% MACs, 0 FLOPS = 0% FLOPs, p=0.0, inplace=False)
          (norm): Identity(0 = 0% Params, 0 MACs = 0% MACs, 0 FLOPS = 0% FLOPs)
          (fc2): Linear(4.96 M = 0.1471% Params, 32.53 GMACs = 0.7084% MACs, 65.06 GFLOPS = 0.699% FLOPs, in_features=4304, out_features=1152, bias=True)
          (drop2): Dropout(0 = 0% Params, 0 MACs = 0% MACs, 0 FLOPS = 0% FLOPs, p=0.0, inplace=False)
        )
        (ls2): Identity(0 = 0% Params, 0 MACs = 0% MACs, 0 FLOPS = 0% FLOPs)
        (drop_path2): Identity(0 = 0% Params, 0 MACs = 0% MACs, 0 FLOPS = 0% FLOPs)
      )
      (7): Block(
        15.24 M = 0.4521% Params, 99.89 GMACs = 2.1752% MACs, 199.9 GFLOPS = 2.1476% FLOPs
        (norm1): LayerNorm(2.3 K = 0.0001% Params, 0 MACs = 0% MACs, 37.79 MFLOPS = 0.0004% FLOPs, (1152,), eps=1e-06, elementwise_affine=True)
        (attn): Attention(
          5.31 M = 0.1576% Params, 34.83 GMACs = 0.7584% MACs, 69.66 GFLOPS = 0.7484% FLOPs
          (qkv): Linear(3.98 M = 0.1182% Params, 26.12 GMACs = 0.5688% MACs, 52.24 GFLOPS = 0.5613% FLOPs, in_features=1152, out_features=3456, bias=True)
          (q_norm): Identity(0 = 0% Params, 0 MACs = 0% MACs, 0 FLOPS = 0% FLOPs)
          (k_norm): Identity(0 = 0% Params, 0 MACs = 0% MACs, 0 FLOPS = 0% FLOPs)
          (attn_drop): Dropout(0 = 0% Params, 0 MACs = 0% MACs, 0 FLOPS = 0% FLOPs, p=0.0, inplace=False)
          (proj): Linear(1.33 M = 0.0394% Params, 8.71 GMACs = 0.1896% MACs, 17.41 GFLOPS = 0.1871% FLOPs, in_features=1152, out_features=1152, bias=True)
          (proj_drop): Identity(0 = 0% Params, 0 MACs = 0% MACs, 0 FLOPS = 0% FLOPs)
        )
        (ls1): Identity(0 = 0% Params, 0 MACs = 0% MACs, 0 FLOPS = 0% FLOPs)
        (drop_path1): Identity(0 = 0% Params, 0 MACs = 0% MACs, 0 FLOPS = 0% FLOPs)
        (norm2): LayerNorm(2.3 K = 0.0001% Params, 0 MACs = 0% MACs, 37.79 MFLOPS = 0.0004% FLOPs, (1152,), eps=1e-06, elementwise_affine=True)
        (mlp): Mlp(
          9.92 M = 0.2944% Params, 65.06 GMACs = 1.4168% MACs, 130.15 GFLOPS = 1.3983% FLOPs
          (fc1): Linear(4.96 M = 0.1472% Params, 32.53 GMACs = 0.7084% MACs, 65.06 GFLOPS = 0.699% FLOPs, in_features=1152, out_features=4304, bias=True)
          (act): GELU(0 = 0% Params, 0 MACs = 0% MACs, 28.24 MFLOPS = 0.0003% FLOPs, approximate='tanh')
          (drop1): Dropout(0 = 0% Params, 0 MACs = 0% MACs, 0 FLOPS = 0% FLOPs, p=0.0, inplace=False)
          (norm): Identity(0 = 0% Params, 0 MACs = 0% MACs, 0 FLOPS = 0% FLOPs)
          (fc2): Linear(4.96 M = 0.1471% Params, 32.53 GMACs = 0.7084% MACs, 65.06 GFLOPS = 0.699% FLOPs, in_features=4304, out_features=1152, bias=True)
          (drop2): Dropout(0 = 0% Params, 0 MACs = 0% MACs, 0 FLOPS = 0% FLOPs, p=0.0, inplace=False)
        )
        (ls2): Identity(0 = 0% Params, 0 MACs = 0% MACs, 0 FLOPS = 0% FLOPs)
        (drop_path2): Identity(0 = 0% Params, 0 MACs = 0% MACs, 0 FLOPS = 0% FLOPs)
      )
      (8): Block(
        15.24 M = 0.4521% Params, 99.89 GMACs = 2.1752% MACs, 199.9 GFLOPS = 2.1476% FLOPs
        (norm1): LayerNorm(2.3 K = 0.0001% Params, 0 MACs = 0% MACs, 37.79 MFLOPS = 0.0004% FLOPs, (1152,), eps=1e-06, elementwise_affine=True)
        (attn): Attention(
          5.31 M = 0.1576% Params, 34.83 GMACs = 0.7584% MACs, 69.66 GFLOPS = 0.7484% FLOPs
          (qkv): Linear(3.98 M = 0.1182% Params, 26.12 GMACs = 0.5688% MACs, 52.24 GFLOPS = 0.5613% FLOPs, in_features=1152, out_features=3456, bias=True)
          (q_norm): Identity(0 = 0% Params, 0 MACs = 0% MACs, 0 FLOPS = 0% FLOPs)
          (k_norm): Identity(0 = 0% Params, 0 MACs = 0% MACs, 0 FLOPS = 0% FLOPs)
          (attn_drop): Dropout(0 = 0% Params, 0 MACs = 0% MACs, 0 FLOPS = 0% FLOPs, p=0.0, inplace=False)
          (proj): Linear(1.33 M = 0.0394% Params, 8.71 GMACs = 0.1896% MACs, 17.41 GFLOPS = 0.1871% FLOPs, in_features=1152, out_features=1152, bias=True)
          (proj_drop): Identity(0 = 0% Params, 0 MACs = 0% MACs, 0 FLOPS = 0% FLOPs)
        )
        (ls1): Identity(0 = 0% Params, 0 MACs = 0% MACs, 0 FLOPS = 0% FLOPs)
        (drop_path1): Identity(0 = 0% Params, 0 MACs = 0% MACs, 0 FLOPS = 0% FLOPs)
        (norm2): LayerNorm(2.3 K = 0.0001% Params, 0 MACs = 0% MACs, 37.79 MFLOPS = 0.0004% FLOPs, (1152,), eps=1e-06, elementwise_affine=True)
        (mlp): Mlp(
          9.92 M = 0.2944% Params, 65.06 GMACs = 1.4168% MACs, 130.15 GFLOPS = 1.3983% FLOPs
          (fc1): Linear(4.96 M = 0.1472% Params, 32.53 GMACs = 0.7084% MACs, 65.06 GFLOPS = 0.699% FLOPs, in_features=1152, out_features=4304, bias=True)
          (act): GELU(0 = 0% Params, 0 MACs = 0% MACs, 28.24 MFLOPS = 0.0003% FLOPs, approximate='tanh')
          (drop1): Dropout(0 = 0% Params, 0 MACs = 0% MACs, 0 FLOPS = 0% FLOPs, p=0.0, inplace=False)
          (norm): Identity(0 = 0% Params, 0 MACs = 0% MACs, 0 FLOPS = 0% FLOPs)
          (fc2): Linear(4.96 M = 0.1471% Params, 32.53 GMACs = 0.7084% MACs, 65.06 GFLOPS = 0.699% FLOPs, in_features=4304, out_features=1152, bias=True)
          (drop2): Dropout(0 = 0% Params, 0 MACs = 0% MACs, 0 FLOPS = 0% FLOPs, p=0.0, inplace=False)
        )
        (ls2): Identity(0 = 0% Params, 0 MACs = 0% MACs, 0 FLOPS = 0% FLOPs)
        (drop_path2): Identity(0 = 0% Params, 0 MACs = 0% MACs, 0 FLOPS = 0% FLOPs)
      )
      (9): Block(
        15.24 M = 0.4521% Params, 99.89 GMACs = 2.1752% MACs, 199.9 GFLOPS = 2.1476% FLOPs
        (norm1): LayerNorm(2.3 K = 0.0001% Params, 0 MACs = 0% MACs, 37.79 MFLOPS = 0.0004% FLOPs, (1152,), eps=1e-06, elementwise_affine=True)
        (attn): Attention(
          5.31 M = 0.1576% Params, 34.83 GMACs = 0.7584% MACs, 69.66 GFLOPS = 0.7484% FLOPs
          (qkv): Linear(3.98 M = 0.1182% Params, 26.12 GMACs = 0.5688% MACs, 52.24 GFLOPS = 0.5613% FLOPs, in_features=1152, out_features=3456, bias=True)
          (q_norm): Identity(0 = 0% Params, 0 MACs = 0% MACs, 0 FLOPS = 0% FLOPs)
          (k_norm): Identity(0 = 0% Params, 0 MACs = 0% MACs, 0 FLOPS = 0% FLOPs)
          (attn_drop): Dropout(0 = 0% Params, 0 MACs = 0% MACs, 0 FLOPS = 0% FLOPs, p=0.0, inplace=False)
          (proj): Linear(1.33 M = 0.0394% Params, 8.71 GMACs = 0.1896% MACs, 17.41 GFLOPS = 0.1871% FLOPs, in_features=1152, out_features=1152, bias=True)
          (proj_drop): Identity(0 = 0% Params, 0 MACs = 0% MACs, 0 FLOPS = 0% FLOPs)
        )
        (ls1): Identity(0 = 0% Params, 0 MACs = 0% MACs, 0 FLOPS = 0% FLOPs)
        (drop_path1): Identity(0 = 0% Params, 0 MACs = 0% MACs, 0 FLOPS = 0% FLOPs)
        (norm2): LayerNorm(2.3 K = 0.0001% Params, 0 MACs = 0% MACs, 37.79 MFLOPS = 0.0004% FLOPs, (1152,), eps=1e-06, elementwise_affine=True)
        (mlp): Mlp(
          9.92 M = 0.2944% Params, 65.06 GMACs = 1.4168% MACs, 130.15 GFLOPS = 1.3983% FLOPs
          (fc1): Linear(4.96 M = 0.1472% Params, 32.53 GMACs = 0.7084% MACs, 65.06 GFLOPS = 0.699% FLOPs, in_features=1152, out_features=4304, bias=True)
          (act): GELU(0 = 0% Params, 0 MACs = 0% MACs, 28.24 MFLOPS = 0.0003% FLOPs, approximate='tanh')
          (drop1): Dropout(0 = 0% Params, 0 MACs = 0% MACs, 0 FLOPS = 0% FLOPs, p=0.0, inplace=False)
          (norm): Identity(0 = 0% Params, 0 MACs = 0% MACs, 0 FLOPS = 0% FLOPs)
          (fc2): Linear(4.96 M = 0.1471% Params, 32.53 GMACs = 0.7084% MACs, 65.06 GFLOPS = 0.699% FLOPs, in_features=4304, out_features=1152, bias=True)
          (drop2): Dropout(0 = 0% Params, 0 MACs = 0% MACs, 0 FLOPS = 0% FLOPs, p=0.0, inplace=False)
        )
        (ls2): Identity(0 = 0% Params, 0 MACs = 0% MACs, 0 FLOPS = 0% FLOPs)
        (drop_path2): Identity(0 = 0% Params, 0 MACs = 0% MACs, 0 FLOPS = 0% FLOPs)
      )
      (10): Block(
        15.24 M = 0.4521% Params, 99.89 GMACs = 2.1752% MACs, 199.9 GFLOPS = 2.1476% FLOPs
        (norm1): LayerNorm(2.3 K = 0.0001% Params, 0 MACs = 0% MACs, 37.79 MFLOPS = 0.0004% FLOPs, (1152,), eps=1e-06, elementwise_affine=True)
        (attn): Attention(
          5.31 M = 0.1576% Params, 34.83 GMACs = 0.7584% MACs, 69.66 GFLOPS = 0.7484% FLOPs
          (qkv): Linear(3.98 M = 0.1182% Params, 26.12 GMACs = 0.5688% MACs, 52.24 GFLOPS = 0.5613% FLOPs, in_features=1152, out_features=3456, bias=True)
          (q_norm): Identity(0 = 0% Params, 0 MACs = 0% MACs, 0 FLOPS = 0% FLOPs)
          (k_norm): Identity(0 = 0% Params, 0 MACs = 0% MACs, 0 FLOPS = 0% FLOPs)
          (attn_drop): Dropout(0 = 0% Params, 0 MACs = 0% MACs, 0 FLOPS = 0% FLOPs, p=0.0, inplace=False)
          (proj): Linear(1.33 M = 0.0394% Params, 8.71 GMACs = 0.1896% MACs, 17.41 GFLOPS = 0.1871% FLOPs, in_features=1152, out_features=1152, bias=True)
          (proj_drop): Identity(0 = 0% Params, 0 MACs = 0% MACs, 0 FLOPS = 0% FLOPs)
        )
        (ls1): Identity(0 = 0% Params, 0 MACs = 0% MACs, 0 FLOPS = 0% FLOPs)
        (drop_path1): Identity(0 = 0% Params, 0 MACs = 0% MACs, 0 FLOPS = 0% FLOPs)
        (norm2): LayerNorm(2.3 K = 0.0001% Params, 0 MACs = 0% MACs, 37.79 MFLOPS = 0.0004% FLOPs, (1152,), eps=1e-06, elementwise_affine=True)
        (mlp): Mlp(
          9.92 M = 0.2944% Params, 65.06 GMACs = 1.4168% MACs, 130.15 GFLOPS = 1.3983% FLOPs
          (fc1): Linear(4.96 M = 0.1472% Params, 32.53 GMACs = 0.7084% MACs, 65.06 GFLOPS = 0.699% FLOPs, in_features=1152, out_features=4304, bias=True)
          (act): GELU(0 = 0% Params, 0 MACs = 0% MACs, 28.24 MFLOPS = 0.0003% FLOPs, approximate='tanh')
          (drop1): Dropout(0 = 0% Params, 0 MACs = 0% MACs, 0 FLOPS = 0% FLOPs, p=0.0, inplace=False)
          (norm): Identity(0 = 0% Params, 0 MACs = 0% MACs, 0 FLOPS = 0% FLOPs)
          (fc2): Linear(4.96 M = 0.1471% Params, 32.53 GMACs = 0.7084% MACs, 65.06 GFLOPS = 0.699% FLOPs, in_features=4304, out_features=1152, bias=True)
          (drop2): Dropout(0 = 0% Params, 0 MACs = 0% MACs, 0 FLOPS = 0% FLOPs, p=0.0, inplace=False)
        )
        (ls2): Identity(0 = 0% Params, 0 MACs = 0% MACs, 0 FLOPS = 0% FLOPs)
        (drop_path2): Identity(0 = 0% Params, 0 MACs = 0% MACs, 0 FLOPS = 0% FLOPs)
      )
      (11): Block(
        15.24 M = 0.4521% Params, 99.89 GMACs = 2.1752% MACs, 199.9 GFLOPS = 2.1476% FLOPs
        (norm1): LayerNorm(2.3 K = 0.0001% Params, 0 MACs = 0% MACs, 37.79 MFLOPS = 0.0004% FLOPs, (1152,), eps=1e-06, elementwise_affine=True)
        (attn): Attention(
          5.31 M = 0.1576% Params, 34.83 GMACs = 0.7584% MACs, 69.66 GFLOPS = 0.7484% FLOPs
          (qkv): Linear(3.98 M = 0.1182% Params, 26.12 GMACs = 0.5688% MACs, 52.24 GFLOPS = 0.5613% FLOPs, in_features=1152, out_features=3456, bias=True)
          (q_norm): Identity(0 = 0% Params, 0 MACs = 0% MACs, 0 FLOPS = 0% FLOPs)
          (k_norm): Identity(0 = 0% Params, 0 MACs = 0% MACs, 0 FLOPS = 0% FLOPs)
          (attn_drop): Dropout(0 = 0% Params, 0 MACs = 0% MACs, 0 FLOPS = 0% FLOPs, p=0.0, inplace=False)
          (proj): Linear(1.33 M = 0.0394% Params, 8.71 GMACs = 0.1896% MACs, 17.41 GFLOPS = 0.1871% FLOPs, in_features=1152, out_features=1152, bias=True)
          (proj_drop): Identity(0 = 0% Params, 0 MACs = 0% MACs, 0 FLOPS = 0% FLOPs)
        )
        (ls1): Identity(0 = 0% Params, 0 MACs = 0% MACs, 0 FLOPS = 0% FLOPs)
        (drop_path1): Identity(0 = 0% Params, 0 MACs = 0% MACs, 0 FLOPS = 0% FLOPs)
        (norm2): LayerNorm(2.3 K = 0.0001% Params, 0 MACs = 0% MACs, 37.79 MFLOPS = 0.0004% FLOPs, (1152,), eps=1e-06, elementwise_affine=True)
        (mlp): Mlp(
          9.92 M = 0.2944% Params, 65.06 GMACs = 1.4168% MACs, 130.15 GFLOPS = 1.3983% FLOPs
          (fc1): Linear(4.96 M = 0.1472% Params, 32.53 GMACs = 0.7084% MACs, 65.06 GFLOPS = 0.699% FLOPs, in_features=1152, out_features=4304, bias=True)
          (act): GELU(0 = 0% Params, 0 MACs = 0% MACs, 28.24 MFLOPS = 0.0003% FLOPs, approximate='tanh')
          (drop1): Dropout(0 = 0% Params, 0 MACs = 0% MACs, 0 FLOPS = 0% FLOPs, p=0.0, inplace=False)
          (norm): Identity(0 = 0% Params, 0 MACs = 0% MACs, 0 FLOPS = 0% FLOPs)
          (fc2): Linear(4.96 M = 0.1471% Params, 32.53 GMACs = 0.7084% MACs, 65.06 GFLOPS = 0.699% FLOPs, in_features=4304, out_features=1152, bias=True)
          (drop2): Dropout(0 = 0% Params, 0 MACs = 0% MACs, 0 FLOPS = 0% FLOPs, p=0.0, inplace=False)
        )
        (ls2): Identity(0 = 0% Params, 0 MACs = 0% MACs, 0 FLOPS = 0% FLOPs)
        (drop_path2): Identity(0 = 0% Params, 0 MACs = 0% MACs, 0 FLOPS = 0% FLOPs)
      )
      (12): Block(
        15.24 M = 0.4521% Params, 99.89 GMACs = 2.1752% MACs, 199.9 GFLOPS = 2.1476% FLOPs
        (norm1): LayerNorm(2.3 K = 0.0001% Params, 0 MACs = 0% MACs, 37.79 MFLOPS = 0.0004% FLOPs, (1152,), eps=1e-06, elementwise_affine=True)
        (attn): Attention(
          5.31 M = 0.1576% Params, 34.83 GMACs = 0.7584% MACs, 69.66 GFLOPS = 0.7484% FLOPs
          (qkv): Linear(3.98 M = 0.1182% Params, 26.12 GMACs = 0.5688% MACs, 52.24 GFLOPS = 0.5613% FLOPs, in_features=1152, out_features=3456, bias=True)
          (q_norm): Identity(0 = 0% Params, 0 MACs = 0% MACs, 0 FLOPS = 0% FLOPs)
          (k_norm): Identity(0 = 0% Params, 0 MACs = 0% MACs, 0 FLOPS = 0% FLOPs)
          (attn_drop): Dropout(0 = 0% Params, 0 MACs = 0% MACs, 0 FLOPS = 0% FLOPs, p=0.0, inplace=False)
          (proj): Linear(1.33 M = 0.0394% Params, 8.71 GMACs = 0.1896% MACs, 17.41 GFLOPS = 0.1871% FLOPs, in_features=1152, out_features=1152, bias=True)
          (proj_drop): Identity(0 = 0% Params, 0 MACs = 0% MACs, 0 FLOPS = 0% FLOPs)
        )
        (ls1): Identity(0 = 0% Params, 0 MACs = 0% MACs, 0 FLOPS = 0% FLOPs)
        (drop_path1): Identity(0 = 0% Params, 0 MACs = 0% MACs, 0 FLOPS = 0% FLOPs)
        (norm2): LayerNorm(2.3 K = 0.0001% Params, 0 MACs = 0% MACs, 37.79 MFLOPS = 0.0004% FLOPs, (1152,), eps=1e-06, elementwise_affine=True)
        (mlp): Mlp(
          9.92 M = 0.2944% Params, 65.06 GMACs = 1.4168% MACs, 130.15 GFLOPS = 1.3983% FLOPs
          (fc1): Linear(4.96 M = 0.1472% Params, 32.53 GMACs = 0.7084% MACs, 65.06 GFLOPS = 0.699% FLOPs, in_features=1152, out_features=4304, bias=True)
          (act): GELU(0 = 0% Params, 0 MACs = 0% MACs, 28.24 MFLOPS = 0.0003% FLOPs, approximate='tanh')
          (drop1): Dropout(0 = 0% Params, 0 MACs = 0% MACs, 0 FLOPS = 0% FLOPs, p=0.0, inplace=False)
          (norm): Identity(0 = 0% Params, 0 MACs = 0% MACs, 0 FLOPS = 0% FLOPs)
          (fc2): Linear(4.96 M = 0.1471% Params, 32.53 GMACs = 0.7084% MACs, 65.06 GFLOPS = 0.699% FLOPs, in_features=4304, out_features=1152, bias=True)
          (drop2): Dropout(0 = 0% Params, 0 MACs = 0% MACs, 0 FLOPS = 0% FLOPs, p=0.0, inplace=False)
        )
        (ls2): Identity(0 = 0% Params, 0 MACs = 0% MACs, 0 FLOPS = 0% FLOPs)
        (drop_path2): Identity(0 = 0% Params, 0 MACs = 0% MACs, 0 FLOPS = 0% FLOPs)
      )
      (13): Block(
        15.24 M = 0.4521% Params, 99.89 GMACs = 2.1752% MACs, 199.9 GFLOPS = 2.1476% FLOPs
        (norm1): LayerNorm(2.3 K = 0.0001% Params, 0 MACs = 0% MACs, 37.79 MFLOPS = 0.0004% FLOPs, (1152,), eps=1e-06, elementwise_affine=True)
        (attn): Attention(
          5.31 M = 0.1576% Params, 34.83 GMACs = 0.7584% MACs, 69.66 GFLOPS = 0.7484% FLOPs
          (qkv): Linear(3.98 M = 0.1182% Params, 26.12 GMACs = 0.5688% MACs, 52.24 GFLOPS = 0.5613% FLOPs, in_features=1152, out_features=3456, bias=True)
          (q_norm): Identity(0 = 0% Params, 0 MACs = 0% MACs, 0 FLOPS = 0% FLOPs)
          (k_norm): Identity(0 = 0% Params, 0 MACs = 0% MACs, 0 FLOPS = 0% FLOPs)
          (attn_drop): Dropout(0 = 0% Params, 0 MACs = 0% MACs, 0 FLOPS = 0% FLOPs, p=0.0, inplace=False)
          (proj): Linear(1.33 M = 0.0394% Params, 8.71 GMACs = 0.1896% MACs, 17.41 GFLOPS = 0.1871% FLOPs, in_features=1152, out_features=1152, bias=True)
          (proj_drop): Identity(0 = 0% Params, 0 MACs = 0% MACs, 0 FLOPS = 0% FLOPs)
        )
        (ls1): Identity(0 = 0% Params, 0 MACs = 0% MACs, 0 FLOPS = 0% FLOPs)
        (drop_path1): Identity(0 = 0% Params, 0 MACs = 0% MACs, 0 FLOPS = 0% FLOPs)
        (norm2): LayerNorm(2.3 K = 0.0001% Params, 0 MACs = 0% MACs, 37.79 MFLOPS = 0.0004% FLOPs, (1152,), eps=1e-06, elementwise_affine=True)
        (mlp): Mlp(
          9.92 M = 0.2944% Params, 65.06 GMACs = 1.4168% MACs, 130.15 GFLOPS = 1.3983% FLOPs
          (fc1): Linear(4.96 M = 0.1472% Params, 32.53 GMACs = 0.7084% MACs, 65.06 GFLOPS = 0.699% FLOPs, in_features=1152, out_features=4304, bias=True)
          (act): GELU(0 = 0% Params, 0 MACs = 0% MACs, 28.24 MFLOPS = 0.0003% FLOPs, approximate='tanh')
          (drop1): Dropout(0 = 0% Params, 0 MACs = 0% MACs, 0 FLOPS = 0% FLOPs, p=0.0, inplace=False)
          (norm): Identity(0 = 0% Params, 0 MACs = 0% MACs, 0 FLOPS = 0% FLOPs)
          (fc2): Linear(4.96 M = 0.1471% Params, 32.53 GMACs = 0.7084% MACs, 65.06 GFLOPS = 0.699% FLOPs, in_features=4304, out_features=1152, bias=True)
          (drop2): Dropout(0 = 0% Params, 0 MACs = 0% MACs, 0 FLOPS = 0% FLOPs, p=0.0, inplace=False)
        )
        (ls2): Identity(0 = 0% Params, 0 MACs = 0% MACs, 0 FLOPS = 0% FLOPs)
        (drop_path2): Identity(0 = 0% Params, 0 MACs = 0% MACs, 0 FLOPS = 0% FLOPs)
      )
      (14): Block(
        15.24 M = 0.4521% Params, 99.89 GMACs = 2.1752% MACs, 199.9 GFLOPS = 2.1476% FLOPs
        (norm1): LayerNorm(2.3 K = 0.0001% Params, 0 MACs = 0% MACs, 37.79 MFLOPS = 0.0004% FLOPs, (1152,), eps=1e-06, elementwise_affine=True)
        (attn): Attention(
          5.31 M = 0.1576% Params, 34.83 GMACs = 0.7584% MACs, 69.66 GFLOPS = 0.7484% FLOPs
          (qkv): Linear(3.98 M = 0.1182% Params, 26.12 GMACs = 0.5688% MACs, 52.24 GFLOPS = 0.5613% FLOPs, in_features=1152, out_features=3456, bias=True)
          (q_norm): Identity(0 = 0% Params, 0 MACs = 0% MACs, 0 FLOPS = 0% FLOPs)
          (k_norm): Identity(0 = 0% Params, 0 MACs = 0% MACs, 0 FLOPS = 0% FLOPs)
          (attn_drop): Dropout(0 = 0% Params, 0 MACs = 0% MACs, 0 FLOPS = 0% FLOPs, p=0.0, inplace=False)
          (proj): Linear(1.33 M = 0.0394% Params, 8.71 GMACs = 0.1896% MACs, 17.41 GFLOPS = 0.1871% FLOPs, in_features=1152, out_features=1152, bias=True)
          (proj_drop): Identity(0 = 0% Params, 0 MACs = 0% MACs, 0 FLOPS = 0% FLOPs)
        )
        (ls1): Identity(0 = 0% Params, 0 MACs = 0% MACs, 0 FLOPS = 0% FLOPs)
        (drop_path1): Identity(0 = 0% Params, 0 MACs = 0% MACs, 0 FLOPS = 0% FLOPs)
        (norm2): LayerNorm(2.3 K = 0.0001% Params, 0 MACs = 0% MACs, 37.79 MFLOPS = 0.0004% FLOPs, (1152,), eps=1e-06, elementwise_affine=True)
        (mlp): Mlp(
          9.92 M = 0.2944% Params, 65.06 GMACs = 1.4168% MACs, 130.15 GFLOPS = 1.3983% FLOPs
          (fc1): Linear(4.96 M = 0.1472% Params, 32.53 GMACs = 0.7084% MACs, 65.06 GFLOPS = 0.699% FLOPs, in_features=1152, out_features=4304, bias=True)
          (act): GELU(0 = 0% Params, 0 MACs = 0% MACs, 28.24 MFLOPS = 0.0003% FLOPs, approximate='tanh')
          (drop1): Dropout(0 = 0% Params, 0 MACs = 0% MACs, 0 FLOPS = 0% FLOPs, p=0.0, inplace=False)
          (norm): Identity(0 = 0% Params, 0 MACs = 0% MACs, 0 FLOPS = 0% FLOPs)
          (fc2): Linear(4.96 M = 0.1471% Params, 32.53 GMACs = 0.7084% MACs, 65.06 GFLOPS = 0.699% FLOPs, in_features=4304, out_features=1152, bias=True)
          (drop2): Dropout(0 = 0% Params, 0 MACs = 0% MACs, 0 FLOPS = 0% FLOPs, p=0.0, inplace=False)
        )
        (ls2): Identity(0 = 0% Params, 0 MACs = 0% MACs, 0 FLOPS = 0% FLOPs)
        (drop_path2): Identity(0 = 0% Params, 0 MACs = 0% MACs, 0 FLOPS = 0% FLOPs)
      )
      (15): Block(
        15.24 M = 0.4521% Params, 99.89 GMACs = 2.1752% MACs, 199.9 GFLOPS = 2.1476% FLOPs
        (norm1): LayerNorm(2.3 K = 0.0001% Params, 0 MACs = 0% MACs, 37.79 MFLOPS = 0.0004% FLOPs, (1152,), eps=1e-06, elementwise_affine=True)
        (attn): Attention(
          5.31 M = 0.1576% Params, 34.83 GMACs = 0.7584% MACs, 69.66 GFLOPS = 0.7484% FLOPs
          (qkv): Linear(3.98 M = 0.1182% Params, 26.12 GMACs = 0.5688% MACs, 52.24 GFLOPS = 0.5613% FLOPs, in_features=1152, out_features=3456, bias=True)
          (q_norm): Identity(0 = 0% Params, 0 MACs = 0% MACs, 0 FLOPS = 0% FLOPs)
          (k_norm): Identity(0 = 0% Params, 0 MACs = 0% MACs, 0 FLOPS = 0% FLOPs)
          (attn_drop): Dropout(0 = 0% Params, 0 MACs = 0% MACs, 0 FLOPS = 0% FLOPs, p=0.0, inplace=False)
          (proj): Linear(1.33 M = 0.0394% Params, 8.71 GMACs = 0.1896% MACs, 17.41 GFLOPS = 0.1871% FLOPs, in_features=1152, out_features=1152, bias=True)
          (proj_drop): Identity(0 = 0% Params, 0 MACs = 0% MACs, 0 FLOPS = 0% FLOPs)
        )
        (ls1): Identity(0 = 0% Params, 0 MACs = 0% MACs, 0 FLOPS = 0% FLOPs)
        (drop_path1): Identity(0 = 0% Params, 0 MACs = 0% MACs, 0 FLOPS = 0% FLOPs)
        (norm2): LayerNorm(2.3 K = 0.0001% Params, 0 MACs = 0% MACs, 37.79 MFLOPS = 0.0004% FLOPs, (1152,), eps=1e-06, elementwise_affine=True)
        (mlp): Mlp(
          9.92 M = 0.2944% Params, 65.06 GMACs = 1.4168% MACs, 130.15 GFLOPS = 1.3983% FLOPs
          (fc1): Linear(4.96 M = 0.1472% Params, 32.53 GMACs = 0.7084% MACs, 65.06 GFLOPS = 0.699% FLOPs, in_features=1152, out_features=4304, bias=True)
          (act): GELU(0 = 0% Params, 0 MACs = 0% MACs, 28.24 MFLOPS = 0.0003% FLOPs, approximate='tanh')
          (drop1): Dropout(0 = 0% Params, 0 MACs = 0% MACs, 0 FLOPS = 0% FLOPs, p=0.0, inplace=False)
          (norm): Identity(0 = 0% Params, 0 MACs = 0% MACs, 0 FLOPS = 0% FLOPs)
          (fc2): Linear(4.96 M = 0.1471% Params, 32.53 GMACs = 0.7084% MACs, 65.06 GFLOPS = 0.699% FLOPs, in_features=4304, out_features=1152, bias=True)
          (drop2): Dropout(0 = 0% Params, 0 MACs = 0% MACs, 0 FLOPS = 0% FLOPs, p=0.0, inplace=False)
        )
        (ls2): Identity(0 = 0% Params, 0 MACs = 0% MACs, 0 FLOPS = 0% FLOPs)
        (drop_path2): Identity(0 = 0% Params, 0 MACs = 0% MACs, 0 FLOPS = 0% FLOPs)
      )
      (16): Block(
        15.24 M = 0.4521% Params, 99.89 GMACs = 2.1752% MACs, 199.9 GFLOPS = 2.1476% FLOPs
        (norm1): LayerNorm(2.3 K = 0.0001% Params, 0 MACs = 0% MACs, 37.79 MFLOPS = 0.0004% FLOPs, (1152,), eps=1e-06, elementwise_affine=True)
        (attn): Attention(
          5.31 M = 0.1576% Params, 34.83 GMACs = 0.7584% MACs, 69.66 GFLOPS = 0.7484% FLOPs
          (qkv): Linear(3.98 M = 0.1182% Params, 26.12 GMACs = 0.5688% MACs, 52.24 GFLOPS = 0.5613% FLOPs, in_features=1152, out_features=3456, bias=True)
          (q_norm): Identity(0 = 0% Params, 0 MACs = 0% MACs, 0 FLOPS = 0% FLOPs)
          (k_norm): Identity(0 = 0% Params, 0 MACs = 0% MACs, 0 FLOPS = 0% FLOPs)
          (attn_drop): Dropout(0 = 0% Params, 0 MACs = 0% MACs, 0 FLOPS = 0% FLOPs, p=0.0, inplace=False)
          (proj): Linear(1.33 M = 0.0394% Params, 8.71 GMACs = 0.1896% MACs, 17.41 GFLOPS = 0.1871% FLOPs, in_features=1152, out_features=1152, bias=True)
          (proj_drop): Identity(0 = 0% Params, 0 MACs = 0% MACs, 0 FLOPS = 0% FLOPs)
        )
        (ls1): Identity(0 = 0% Params, 0 MACs = 0% MACs, 0 FLOPS = 0% FLOPs)
        (drop_path1): Identity(0 = 0% Params, 0 MACs = 0% MACs, 0 FLOPS = 0% FLOPs)
        (norm2): LayerNorm(2.3 K = 0.0001% Params, 0 MACs = 0% MACs, 37.79 MFLOPS = 0.0004% FLOPs, (1152,), eps=1e-06, elementwise_affine=True)
        (mlp): Mlp(
          9.92 M = 0.2944% Params, 65.06 GMACs = 1.4168% MACs, 130.15 GFLOPS = 1.3983% FLOPs
          (fc1): Linear(4.96 M = 0.1472% Params, 32.53 GMACs = 0.7084% MACs, 65.06 GFLOPS = 0.699% FLOPs, in_features=1152, out_features=4304, bias=True)
          (act): GELU(0 = 0% Params, 0 MACs = 0% MACs, 28.24 MFLOPS = 0.0003% FLOPs, approximate='tanh')
          (drop1): Dropout(0 = 0% Params, 0 MACs = 0% MACs, 0 FLOPS = 0% FLOPs, p=0.0, inplace=False)
          (norm): Identity(0 = 0% Params, 0 MACs = 0% MACs, 0 FLOPS = 0% FLOPs)
          (fc2): Linear(4.96 M = 0.1471% Params, 32.53 GMACs = 0.7084% MACs, 65.06 GFLOPS = 0.699% FLOPs, in_features=4304, out_features=1152, bias=True)
          (drop2): Dropout(0 = 0% Params, 0 MACs = 0% MACs, 0 FLOPS = 0% FLOPs, p=0.0, inplace=False)
        )
        (ls2): Identity(0 = 0% Params, 0 MACs = 0% MACs, 0 FLOPS = 0% FLOPs)
        (drop_path2): Identity(0 = 0% Params, 0 MACs = 0% MACs, 0 FLOPS = 0% FLOPs)
      )
      (17): Block(
        15.24 M = 0.4521% Params, 99.89 GMACs = 2.1752% MACs, 199.9 GFLOPS = 2.1476% FLOPs
        (norm1): LayerNorm(2.3 K = 0.0001% Params, 0 MACs = 0% MACs, 37.79 MFLOPS = 0.0004% FLOPs, (1152,), eps=1e-06, elementwise_affine=True)
        (attn): Attention(
          5.31 M = 0.1576% Params, 34.83 GMACs = 0.7584% MACs, 69.66 GFLOPS = 0.7484% FLOPs
          (qkv): Linear(3.98 M = 0.1182% Params, 26.12 GMACs = 0.5688% MACs, 52.24 GFLOPS = 0.5613% FLOPs, in_features=1152, out_features=3456, bias=True)
          (q_norm): Identity(0 = 0% Params, 0 MACs = 0% MACs, 0 FLOPS = 0% FLOPs)
          (k_norm): Identity(0 = 0% Params, 0 MACs = 0% MACs, 0 FLOPS = 0% FLOPs)
          (attn_drop): Dropout(0 = 0% Params, 0 MACs = 0% MACs, 0 FLOPS = 0% FLOPs, p=0.0, inplace=False)
          (proj): Linear(1.33 M = 0.0394% Params, 8.71 GMACs = 0.1896% MACs, 17.41 GFLOPS = 0.1871% FLOPs, in_features=1152, out_features=1152, bias=True)
          (proj_drop): Identity(0 = 0% Params, 0 MACs = 0% MACs, 0 FLOPS = 0% FLOPs)
        )
        (ls1): Identity(0 = 0% Params, 0 MACs = 0% MACs, 0 FLOPS = 0% FLOPs)
        (drop_path1): Identity(0 = 0% Params, 0 MACs = 0% MACs, 0 FLOPS = 0% FLOPs)
        (norm2): LayerNorm(2.3 K = 0.0001% Params, 0 MACs = 0% MACs, 37.79 MFLOPS = 0.0004% FLOPs, (1152,), eps=1e-06, elementwise_affine=True)
        (mlp): Mlp(
          9.92 M = 0.2944% Params, 65.06 GMACs = 1.4168% MACs, 130.15 GFLOPS = 1.3983% FLOPs
          (fc1): Linear(4.96 M = 0.1472% Params, 32.53 GMACs = 0.7084% MACs, 65.06 GFLOPS = 0.699% FLOPs, in_features=1152, out_features=4304, bias=True)
          (act): GELU(0 = 0% Params, 0 MACs = 0% MACs, 28.24 MFLOPS = 0.0003% FLOPs, approximate='tanh')
          (drop1): Dropout(0 = 0% Params, 0 MACs = 0% MACs, 0 FLOPS = 0% FLOPs, p=0.0, inplace=False)
          (norm): Identity(0 = 0% Params, 0 MACs = 0% MACs, 0 FLOPS = 0% FLOPs)
          (fc2): Linear(4.96 M = 0.1471% Params, 32.53 GMACs = 0.7084% MACs, 65.06 GFLOPS = 0.699% FLOPs, in_features=4304, out_features=1152, bias=True)
          (drop2): Dropout(0 = 0% Params, 0 MACs = 0% MACs, 0 FLOPS = 0% FLOPs, p=0.0, inplace=False)
        )
        (ls2): Identity(0 = 0% Params, 0 MACs = 0% MACs, 0 FLOPS = 0% FLOPs)
        (drop_path2): Identity(0 = 0% Params, 0 MACs = 0% MACs, 0 FLOPS = 0% FLOPs)
      )
      (18): Block(
        15.24 M = 0.4521% Params, 99.89 GMACs = 2.1752% MACs, 199.9 GFLOPS = 2.1476% FLOPs
        (norm1): LayerNorm(2.3 K = 0.0001% Params, 0 MACs = 0% MACs, 37.79 MFLOPS = 0.0004% FLOPs, (1152,), eps=1e-06, elementwise_affine=True)
        (attn): Attention(
          5.31 M = 0.1576% Params, 34.83 GMACs = 0.7584% MACs, 69.66 GFLOPS = 0.7484% FLOPs
          (qkv): Linear(3.98 M = 0.1182% Params, 26.12 GMACs = 0.5688% MACs, 52.24 GFLOPS = 0.5613% FLOPs, in_features=1152, out_features=3456, bias=True)
          (q_norm): Identity(0 = 0% Params, 0 MACs = 0% MACs, 0 FLOPS = 0% FLOPs)
          (k_norm): Identity(0 = 0% Params, 0 MACs = 0% MACs, 0 FLOPS = 0% FLOPs)
          (attn_drop): Dropout(0 = 0% Params, 0 MACs = 0% MACs, 0 FLOPS = 0% FLOPs, p=0.0, inplace=False)
          (proj): Linear(1.33 M = 0.0394% Params, 8.71 GMACs = 0.1896% MACs, 17.41 GFLOPS = 0.1871% FLOPs, in_features=1152, out_features=1152, bias=True)
          (proj_drop): Identity(0 = 0% Params, 0 MACs = 0% MACs, 0 FLOPS = 0% FLOPs)
        )
        (ls1): Identity(0 = 0% Params, 0 MACs = 0% MACs, 0 FLOPS = 0% FLOPs)
        (drop_path1): Identity(0 = 0% Params, 0 MACs = 0% MACs, 0 FLOPS = 0% FLOPs)
        (norm2): LayerNorm(2.3 K = 0.0001% Params, 0 MACs = 0% MACs, 37.79 MFLOPS = 0.0004% FLOPs, (1152,), eps=1e-06, elementwise_affine=True)
        (mlp): Mlp(
          9.92 M = 0.2944% Params, 65.06 GMACs = 1.4168% MACs, 130.15 GFLOPS = 1.3983% FLOPs
          (fc1): Linear(4.96 M = 0.1472% Params, 32.53 GMACs = 0.7084% MACs, 65.06 GFLOPS = 0.699% FLOPs, in_features=1152, out_features=4304, bias=True)
          (act): GELU(0 = 0% Params, 0 MACs = 0% MACs, 28.24 MFLOPS = 0.0003% FLOPs, approximate='tanh')
          (drop1): Dropout(0 = 0% Params, 0 MACs = 0% MACs, 0 FLOPS = 0% FLOPs, p=0.0, inplace=False)
          (norm): Identity(0 = 0% Params, 0 MACs = 0% MACs, 0 FLOPS = 0% FLOPs)
          (fc2): Linear(4.96 M = 0.1471% Params, 32.53 GMACs = 0.7084% MACs, 65.06 GFLOPS = 0.699% FLOPs, in_features=4304, out_features=1152, bias=True)
          (drop2): Dropout(0 = 0% Params, 0 MACs = 0% MACs, 0 FLOPS = 0% FLOPs, p=0.0, inplace=False)
        )
        (ls2): Identity(0 = 0% Params, 0 MACs = 0% MACs, 0 FLOPS = 0% FLOPs)
        (drop_path2): Identity(0 = 0% Params, 0 MACs = 0% MACs, 0 FLOPS = 0% FLOPs)
      )
      (19): Block(
        15.24 M = 0.4521% Params, 99.89 GMACs = 2.1752% MACs, 199.9 GFLOPS = 2.1476% FLOPs
        (norm1): LayerNorm(2.3 K = 0.0001% Params, 0 MACs = 0% MACs, 37.79 MFLOPS = 0.0004% FLOPs, (1152,), eps=1e-06, elementwise_affine=True)
        (attn): Attention(
          5.31 M = 0.1576% Params, 34.83 GMACs = 0.7584% MACs, 69.66 GFLOPS = 0.7484% FLOPs
          (qkv): Linear(3.98 M = 0.1182% Params, 26.12 GMACs = 0.5688% MACs, 52.24 GFLOPS = 0.5613% FLOPs, in_features=1152, out_features=3456, bias=True)
          (q_norm): Identity(0 = 0% Params, 0 MACs = 0% MACs, 0 FLOPS = 0% FLOPs)
          (k_norm): Identity(0 = 0% Params, 0 MACs = 0% MACs, 0 FLOPS = 0% FLOPs)
          (attn_drop): Dropout(0 = 0% Params, 0 MACs = 0% MACs, 0 FLOPS = 0% FLOPs, p=0.0, inplace=False)
          (proj): Linear(1.33 M = 0.0394% Params, 8.71 GMACs = 0.1896% MACs, 17.41 GFLOPS = 0.1871% FLOPs, in_features=1152, out_features=1152, bias=True)
          (proj_drop): Identity(0 = 0% Params, 0 MACs = 0% MACs, 0 FLOPS = 0% FLOPs)
        )
        (ls1): Identity(0 = 0% Params, 0 MACs = 0% MACs, 0 FLOPS = 0% FLOPs)
        (drop_path1): Identity(0 = 0% Params, 0 MACs = 0% MACs, 0 FLOPS = 0% FLOPs)
        (norm2): LayerNorm(2.3 K = 0.0001% Params, 0 MACs = 0% MACs, 37.79 MFLOPS = 0.0004% FLOPs, (1152,), eps=1e-06, elementwise_affine=True)
        (mlp): Mlp(
          9.92 M = 0.2944% Params, 65.06 GMACs = 1.4168% MACs, 130.15 GFLOPS = 1.3983% FLOPs
          (fc1): Linear(4.96 M = 0.1472% Params, 32.53 GMACs = 0.7084% MACs, 65.06 GFLOPS = 0.699% FLOPs, in_features=1152, out_features=4304, bias=True)
          (act): GELU(0 = 0% Params, 0 MACs = 0% MACs, 28.24 MFLOPS = 0.0003% FLOPs, approximate='tanh')
          (drop1): Dropout(0 = 0% Params, 0 MACs = 0% MACs, 0 FLOPS = 0% FLOPs, p=0.0, inplace=False)
          (norm): Identity(0 = 0% Params, 0 MACs = 0% MACs, 0 FLOPS = 0% FLOPs)
          (fc2): Linear(4.96 M = 0.1471% Params, 32.53 GMACs = 0.7084% MACs, 65.06 GFLOPS = 0.699% FLOPs, in_features=4304, out_features=1152, bias=True)
          (drop2): Dropout(0 = 0% Params, 0 MACs = 0% MACs, 0 FLOPS = 0% FLOPs, p=0.0, inplace=False)
        )
        (ls2): Identity(0 = 0% Params, 0 MACs = 0% MACs, 0 FLOPS = 0% FLOPs)
        (drop_path2): Identity(0 = 0% Params, 0 MACs = 0% MACs, 0 FLOPS = 0% FLOPs)
      )
      (20): Block(
        15.24 M = 0.4521% Params, 99.89 GMACs = 2.1752% MACs, 199.9 GFLOPS = 2.1476% FLOPs
        (norm1): LayerNorm(2.3 K = 0.0001% Params, 0 MACs = 0% MACs, 37.79 MFLOPS = 0.0004% FLOPs, (1152,), eps=1e-06, elementwise_affine=True)
        (attn): Attention(
          5.31 M = 0.1576% Params, 34.83 GMACs = 0.7584% MACs, 69.66 GFLOPS = 0.7484% FLOPs
          (qkv): Linear(3.98 M = 0.1182% Params, 26.12 GMACs = 0.5688% MACs, 52.24 GFLOPS = 0.5613% FLOPs, in_features=1152, out_features=3456, bias=True)
          (q_norm): Identity(0 = 0% Params, 0 MACs = 0% MACs, 0 FLOPS = 0% FLOPs)
          (k_norm): Identity(0 = 0% Params, 0 MACs = 0% MACs, 0 FLOPS = 0% FLOPs)
          (attn_drop): Dropout(0 = 0% Params, 0 MACs = 0% MACs, 0 FLOPS = 0% FLOPs, p=0.0, inplace=False)
          (proj): Linear(1.33 M = 0.0394% Params, 8.71 GMACs = 0.1896% MACs, 17.41 GFLOPS = 0.1871% FLOPs, in_features=1152, out_features=1152, bias=True)
          (proj_drop): Identity(0 = 0% Params, 0 MACs = 0% MACs, 0 FLOPS = 0% FLOPs)
        )
        (ls1): Identity(0 = 0% Params, 0 MACs = 0% MACs, 0 FLOPS = 0% FLOPs)
        (drop_path1): Identity(0 = 0% Params, 0 MACs = 0% MACs, 0 FLOPS = 0% FLOPs)
        (norm2): LayerNorm(2.3 K = 0.0001% Params, 0 MACs = 0% MACs, 37.79 MFLOPS = 0.0004% FLOPs, (1152,), eps=1e-06, elementwise_affine=True)
        (mlp): Mlp(
          9.92 M = 0.2944% Params, 65.06 GMACs = 1.4168% MACs, 130.15 GFLOPS = 1.3983% FLOPs
          (fc1): Linear(4.96 M = 0.1472% Params, 32.53 GMACs = 0.7084% MACs, 65.06 GFLOPS = 0.699% FLOPs, in_features=1152, out_features=4304, bias=True)
          (act): GELU(0 = 0% Params, 0 MACs = 0% MACs, 28.24 MFLOPS = 0.0003% FLOPs, approximate='tanh')
          (drop1): Dropout(0 = 0% Params, 0 MACs = 0% MACs, 0 FLOPS = 0% FLOPs, p=0.0, inplace=False)
          (norm): Identity(0 = 0% Params, 0 MACs = 0% MACs, 0 FLOPS = 0% FLOPs)
          (fc2): Linear(4.96 M = 0.1471% Params, 32.53 GMACs = 0.7084% MACs, 65.06 GFLOPS = 0.699% FLOPs, in_features=4304, out_features=1152, bias=True)
          (drop2): Dropout(0 = 0% Params, 0 MACs = 0% MACs, 0 FLOPS = 0% FLOPs, p=0.0, inplace=False)
        )
        (ls2): Identity(0 = 0% Params, 0 MACs = 0% MACs, 0 FLOPS = 0% FLOPs)
        (drop_path2): Identity(0 = 0% Params, 0 MACs = 0% MACs, 0 FLOPS = 0% FLOPs)
      )
      (21): Block(
        15.24 M = 0.4521% Params, 99.89 GMACs = 2.1752% MACs, 199.9 GFLOPS = 2.1476% FLOPs
        (norm1): LayerNorm(2.3 K = 0.0001% Params, 0 MACs = 0% MACs, 37.79 MFLOPS = 0.0004% FLOPs, (1152,), eps=1e-06, elementwise_affine=True)
        (attn): Attention(
          5.31 M = 0.1576% Params, 34.83 GMACs = 0.7584% MACs, 69.66 GFLOPS = 0.7484% FLOPs
          (qkv): Linear(3.98 M = 0.1182% Params, 26.12 GMACs = 0.5688% MACs, 52.24 GFLOPS = 0.5613% FLOPs, in_features=1152, out_features=3456, bias=True)
          (q_norm): Identity(0 = 0% Params, 0 MACs = 0% MACs, 0 FLOPS = 0% FLOPs)
          (k_norm): Identity(0 = 0% Params, 0 MACs = 0% MACs, 0 FLOPS = 0% FLOPs)
          (attn_drop): Dropout(0 = 0% Params, 0 MACs = 0% MACs, 0 FLOPS = 0% FLOPs, p=0.0, inplace=False)
          (proj): Linear(1.33 M = 0.0394% Params, 8.71 GMACs = 0.1896% MACs, 17.41 GFLOPS = 0.1871% FLOPs, in_features=1152, out_features=1152, bias=True)
          (proj_drop): Identity(0 = 0% Params, 0 MACs = 0% MACs, 0 FLOPS = 0% FLOPs)
        )
        (ls1): Identity(0 = 0% Params, 0 MACs = 0% MACs, 0 FLOPS = 0% FLOPs)
        (drop_path1): Identity(0 = 0% Params, 0 MACs = 0% MACs, 0 FLOPS = 0% FLOPs)
        (norm2): LayerNorm(2.3 K = 0.0001% Params, 0 MACs = 0% MACs, 37.79 MFLOPS = 0.0004% FLOPs, (1152,), eps=1e-06, elementwise_affine=True)
        (mlp): Mlp(
          9.92 M = 0.2944% Params, 65.06 GMACs = 1.4168% MACs, 130.15 GFLOPS = 1.3983% FLOPs
          (fc1): Linear(4.96 M = 0.1472% Params, 32.53 GMACs = 0.7084% MACs, 65.06 GFLOPS = 0.699% FLOPs, in_features=1152, out_features=4304, bias=True)
          (act): GELU(0 = 0% Params, 0 MACs = 0% MACs, 28.24 MFLOPS = 0.0003% FLOPs, approximate='tanh')
          (drop1): Dropout(0 = 0% Params, 0 MACs = 0% MACs, 0 FLOPS = 0% FLOPs, p=0.0, inplace=False)
          (norm): Identity(0 = 0% Params, 0 MACs = 0% MACs, 0 FLOPS = 0% FLOPs)
          (fc2): Linear(4.96 M = 0.1471% Params, 32.53 GMACs = 0.7084% MACs, 65.06 GFLOPS = 0.699% FLOPs, in_features=4304, out_features=1152, bias=True)
          (drop2): Dropout(0 = 0% Params, 0 MACs = 0% MACs, 0 FLOPS = 0% FLOPs, p=0.0, inplace=False)
        )
        (ls2): Identity(0 = 0% Params, 0 MACs = 0% MACs, 0 FLOPS = 0% FLOPs)
        (drop_path2): Identity(0 = 0% Params, 0 MACs = 0% MACs, 0 FLOPS = 0% FLOPs)
      )
      (22): Block(
        15.24 M = 0.4521% Params, 99.89 GMACs = 2.1752% MACs, 199.9 GFLOPS = 2.1476% FLOPs
        (norm1): LayerNorm(2.3 K = 0.0001% Params, 0 MACs = 0% MACs, 37.79 MFLOPS = 0.0004% FLOPs, (1152,), eps=1e-06, elementwise_affine=True)
        (attn): Attention(
          5.31 M = 0.1576% Params, 34.83 GMACs = 0.7584% MACs, 69.66 GFLOPS = 0.7484% FLOPs
          (qkv): Linear(3.98 M = 0.1182% Params, 26.12 GMACs = 0.5688% MACs, 52.24 GFLOPS = 0.5613% FLOPs, in_features=1152, out_features=3456, bias=True)
          (q_norm): Identity(0 = 0% Params, 0 MACs = 0% MACs, 0 FLOPS = 0% FLOPs)
          (k_norm): Identity(0 = 0% Params, 0 MACs = 0% MACs, 0 FLOPS = 0% FLOPs)
          (attn_drop): Dropout(0 = 0% Params, 0 MACs = 0% MACs, 0 FLOPS = 0% FLOPs, p=0.0, inplace=False)
          (proj): Linear(1.33 M = 0.0394% Params, 8.71 GMACs = 0.1896% MACs, 17.41 GFLOPS = 0.1871% FLOPs, in_features=1152, out_features=1152, bias=True)
          (proj_drop): Identity(0 = 0% Params, 0 MACs = 0% MACs, 0 FLOPS = 0% FLOPs)
        )
        (ls1): Identity(0 = 0% Params, 0 MACs = 0% MACs, 0 FLOPS = 0% FLOPs)
        (drop_path1): Identity(0 = 0% Params, 0 MACs = 0% MACs, 0 FLOPS = 0% FLOPs)
        (norm2): LayerNorm(2.3 K = 0.0001% Params, 0 MACs = 0% MACs, 37.79 MFLOPS = 0.0004% FLOPs, (1152,), eps=1e-06, elementwise_affine=True)
        (mlp): Mlp(
          9.92 M = 0.2944% Params, 65.06 GMACs = 1.4168% MACs, 130.15 GFLOPS = 1.3983% FLOPs
          (fc1): Linear(4.96 M = 0.1472% Params, 32.53 GMACs = 0.7084% MACs, 65.06 GFLOPS = 0.699% FLOPs, in_features=1152, out_features=4304, bias=True)
          (act): GELU(0 = 0% Params, 0 MACs = 0% MACs, 28.24 MFLOPS = 0.0003% FLOPs, approximate='tanh')
          (drop1): Dropout(0 = 0% Params, 0 MACs = 0% MACs, 0 FLOPS = 0% FLOPs, p=0.0, inplace=False)
          (norm): Identity(0 = 0% Params, 0 MACs = 0% MACs, 0 FLOPS = 0% FLOPs)
          (fc2): Linear(4.96 M = 0.1471% Params, 32.53 GMACs = 0.7084% MACs, 65.06 GFLOPS = 0.699% FLOPs, in_features=4304, out_features=1152, bias=True)
          (drop2): Dropout(0 = 0% Params, 0 MACs = 0% MACs, 0 FLOPS = 0% FLOPs, p=0.0, inplace=False)
        )
        (ls2): Identity(0 = 0% Params, 0 MACs = 0% MACs, 0 FLOPS = 0% FLOPs)
        (drop_path2): Identity(0 = 0% Params, 0 MACs = 0% MACs, 0 FLOPS = 0% FLOPs)
      )
      (23): Block(
        15.24 M = 0.4521% Params, 99.89 GMACs = 2.1752% MACs, 199.9 GFLOPS = 2.1476% FLOPs
        (norm1): LayerNorm(2.3 K = 0.0001% Params, 0 MACs = 0% MACs, 37.79 MFLOPS = 0.0004% FLOPs, (1152,), eps=1e-06, elementwise_affine=True)
        (attn): Attention(
          5.31 M = 0.1576% Params, 34.83 GMACs = 0.7584% MACs, 69.66 GFLOPS = 0.7484% FLOPs
          (qkv): Linear(3.98 M = 0.1182% Params, 26.12 GMACs = 0.5688% MACs, 52.24 GFLOPS = 0.5613% FLOPs, in_features=1152, out_features=3456, bias=True)
          (q_norm): Identity(0 = 0% Params, 0 MACs = 0% MACs, 0 FLOPS = 0% FLOPs)
          (k_norm): Identity(0 = 0% Params, 0 MACs = 0% MACs, 0 FLOPS = 0% FLOPs)
          (attn_drop): Dropout(0 = 0% Params, 0 MACs = 0% MACs, 0 FLOPS = 0% FLOPs, p=0.0, inplace=False)
          (proj): Linear(1.33 M = 0.0394% Params, 8.71 GMACs = 0.1896% MACs, 17.41 GFLOPS = 0.1871% FLOPs, in_features=1152, out_features=1152, bias=True)
          (proj_drop): Identity(0 = 0% Params, 0 MACs = 0% MACs, 0 FLOPS = 0% FLOPs)
        )
        (ls1): Identity(0 = 0% Params, 0 MACs = 0% MACs, 0 FLOPS = 0% FLOPs)
        (drop_path1): Identity(0 = 0% Params, 0 MACs = 0% MACs, 0 FLOPS = 0% FLOPs)
        (norm2): LayerNorm(2.3 K = 0.0001% Params, 0 MACs = 0% MACs, 37.79 MFLOPS = 0.0004% FLOPs, (1152,), eps=1e-06, elementwise_affine=True)
        (mlp): Mlp(
          9.92 M = 0.2944% Params, 65.06 GMACs = 1.4168% MACs, 130.15 GFLOPS = 1.3983% FLOPs
          (fc1): Linear(4.96 M = 0.1472% Params, 32.53 GMACs = 0.7084% MACs, 65.06 GFLOPS = 0.699% FLOPs, in_features=1152, out_features=4304, bias=True)
          (act): GELU(0 = 0% Params, 0 MACs = 0% MACs, 28.24 MFLOPS = 0.0003% FLOPs, approximate='tanh')
          (drop1): Dropout(0 = 0% Params, 0 MACs = 0% MACs, 0 FLOPS = 0% FLOPs, p=0.0, inplace=False)
          (norm): Identity(0 = 0% Params, 0 MACs = 0% MACs, 0 FLOPS = 0% FLOPs)
          (fc2): Linear(4.96 M = 0.1471% Params, 32.53 GMACs = 0.7084% MACs, 65.06 GFLOPS = 0.699% FLOPs, in_features=4304, out_features=1152, bias=True)
          (drop2): Dropout(0 = 0% Params, 0 MACs = 0% MACs, 0 FLOPS = 0% FLOPs, p=0.0, inplace=False)
        )
        (ls2): Identity(0 = 0% Params, 0 MACs = 0% MACs, 0 FLOPS = 0% FLOPs)
        (drop_path2): Identity(0 = 0% Params, 0 MACs = 0% MACs, 0 FLOPS = 0% FLOPs)
      )
      (24): Block(
        15.24 M = 0.4521% Params, 99.89 GMACs = 2.1752% MACs, 199.9 GFLOPS = 2.1476% FLOPs
        (norm1): LayerNorm(2.3 K = 0.0001% Params, 0 MACs = 0% MACs, 37.79 MFLOPS = 0.0004% FLOPs, (1152,), eps=1e-06, elementwise_affine=True)
        (attn): Attention(
          5.31 M = 0.1576% Params, 34.83 GMACs = 0.7584% MACs, 69.66 GFLOPS = 0.7484% FLOPs
          (qkv): Linear(3.98 M = 0.1182% Params, 26.12 GMACs = 0.5688% MACs, 52.24 GFLOPS = 0.5613% FLOPs, in_features=1152, out_features=3456, bias=True)
          (q_norm): Identity(0 = 0% Params, 0 MACs = 0% MACs, 0 FLOPS = 0% FLOPs)
          (k_norm): Identity(0 = 0% Params, 0 MACs = 0% MACs, 0 FLOPS = 0% FLOPs)
          (attn_drop): Dropout(0 = 0% Params, 0 MACs = 0% MACs, 0 FLOPS = 0% FLOPs, p=0.0, inplace=False)
          (proj): Linear(1.33 M = 0.0394% Params, 8.71 GMACs = 0.1896% MACs, 17.41 GFLOPS = 0.1871% FLOPs, in_features=1152, out_features=1152, bias=True)
          (proj_drop): Identity(0 = 0% Params, 0 MACs = 0% MACs, 0 FLOPS = 0% FLOPs)
        )
        (ls1): Identity(0 = 0% Params, 0 MACs = 0% MACs, 0 FLOPS = 0% FLOPs)
        (drop_path1): Identity(0 = 0% Params, 0 MACs = 0% MACs, 0 FLOPS = 0% FLOPs)
        (norm2): LayerNorm(2.3 K = 0.0001% Params, 0 MACs = 0% MACs, 37.79 MFLOPS = 0.0004% FLOPs, (1152,), eps=1e-06, elementwise_affine=True)
        (mlp): Mlp(
          9.92 M = 0.2944% Params, 65.06 GMACs = 1.4168% MACs, 130.15 GFLOPS = 1.3983% FLOPs
          (fc1): Linear(4.96 M = 0.1472% Params, 32.53 GMACs = 0.7084% MACs, 65.06 GFLOPS = 0.699% FLOPs, in_features=1152, out_features=4304, bias=True)
          (act): GELU(0 = 0% Params, 0 MACs = 0% MACs, 28.24 MFLOPS = 0.0003% FLOPs, approximate='tanh')
          (drop1): Dropout(0 = 0% Params, 0 MACs = 0% MACs, 0 FLOPS = 0% FLOPs, p=0.0, inplace=False)
          (norm): Identity(0 = 0% Params, 0 MACs = 0% MACs, 0 FLOPS = 0% FLOPs)
          (fc2): Linear(4.96 M = 0.1471% Params, 32.53 GMACs = 0.7084% MACs, 65.06 GFLOPS = 0.699% FLOPs, in_features=4304, out_features=1152, bias=True)
          (drop2): Dropout(0 = 0% Params, 0 MACs = 0% MACs, 0 FLOPS = 0% FLOPs, p=0.0, inplace=False)
        )
        (ls2): Identity(0 = 0% Params, 0 MACs = 0% MACs, 0 FLOPS = 0% FLOPs)
        (drop_path2): Identity(0 = 0% Params, 0 MACs = 0% MACs, 0 FLOPS = 0% FLOPs)
      )
      (25): Block(
        15.24 M = 0.4521% Params, 99.89 GMACs = 2.1752% MACs, 199.9 GFLOPS = 2.1476% FLOPs
        (norm1): LayerNorm(2.3 K = 0.0001% Params, 0 MACs = 0% MACs, 37.79 MFLOPS = 0.0004% FLOPs, (1152,), eps=1e-06, elementwise_affine=True)
        (attn): Attention(
          5.31 M = 0.1576% Params, 34.83 GMACs = 0.7584% MACs, 69.66 GFLOPS = 0.7484% FLOPs
          (qkv): Linear(3.98 M = 0.1182% Params, 26.12 GMACs = 0.5688% MACs, 52.24 GFLOPS = 0.5613% FLOPs, in_features=1152, out_features=3456, bias=True)
          (q_norm): Identity(0 = 0% Params, 0 MACs = 0% MACs, 0 FLOPS = 0% FLOPs)
          (k_norm): Identity(0 = 0% Params, 0 MACs = 0% MACs, 0 FLOPS = 0% FLOPs)
          (attn_drop): Dropout(0 = 0% Params, 0 MACs = 0% MACs, 0 FLOPS = 0% FLOPs, p=0.0, inplace=False)
          (proj): Linear(1.33 M = 0.0394% Params, 8.71 GMACs = 0.1896% MACs, 17.41 GFLOPS = 0.1871% FLOPs, in_features=1152, out_features=1152, bias=True)
          (proj_drop): Identity(0 = 0% Params, 0 MACs = 0% MACs, 0 FLOPS = 0% FLOPs)
        )
        (ls1): Identity(0 = 0% Params, 0 MACs = 0% MACs, 0 FLOPS = 0% FLOPs)
        (drop_path1): Identity(0 = 0% Params, 0 MACs = 0% MACs, 0 FLOPS = 0% FLOPs)
        (norm2): LayerNorm(2.3 K = 0.0001% Params, 0 MACs = 0% MACs, 37.79 MFLOPS = 0.0004% FLOPs, (1152,), eps=1e-06, elementwise_affine=True)
        (mlp): Mlp(
          9.92 M = 0.2944% Params, 65.06 GMACs = 1.4168% MACs, 130.15 GFLOPS = 1.3983% FLOPs
          (fc1): Linear(4.96 M = 0.1472% Params, 32.53 GMACs = 0.7084% MACs, 65.06 GFLOPS = 0.699% FLOPs, in_features=1152, out_features=4304, bias=True)
          (act): GELU(0 = 0% Params, 0 MACs = 0% MACs, 28.24 MFLOPS = 0.0003% FLOPs, approximate='tanh')
          (drop1): Dropout(0 = 0% Params, 0 MACs = 0% MACs, 0 FLOPS = 0% FLOPs, p=0.0, inplace=False)
          (norm): Identity(0 = 0% Params, 0 MACs = 0% MACs, 0 FLOPS = 0% FLOPs)
          (fc2): Linear(4.96 M = 0.1471% Params, 32.53 GMACs = 0.7084% MACs, 65.06 GFLOPS = 0.699% FLOPs, in_features=4304, out_features=1152, bias=True)
          (drop2): Dropout(0 = 0% Params, 0 MACs = 0% MACs, 0 FLOPS = 0% FLOPs, p=0.0, inplace=False)
        )
        (ls2): Identity(0 = 0% Params, 0 MACs = 0% MACs, 0 FLOPS = 0% FLOPs)
        (drop_path2): Identity(0 = 0% Params, 0 MACs = 0% MACs, 0 FLOPS = 0% FLOPs)
      )
      (26): Block(
        15.24 M = 0.4521% Params, 99.89 GMACs = 2.1752% MACs, 199.9 GFLOPS = 2.1476% FLOPs
        (norm1): LayerNorm(2.3 K = 0.0001% Params, 0 MACs = 0% MACs, 37.79 MFLOPS = 0.0004% FLOPs, (1152,), eps=1e-06, elementwise_affine=True)
        (attn): Attention(
          5.31 M = 0.1576% Params, 34.83 GMACs = 0.7584% MACs, 69.66 GFLOPS = 0.7484% FLOPs
          (qkv): Linear(3.98 M = 0.1182% Params, 26.12 GMACs = 0.5688% MACs, 52.24 GFLOPS = 0.5613% FLOPs, in_features=1152, out_features=3456, bias=True)
          (q_norm): Identity(0 = 0% Params, 0 MACs = 0% MACs, 0 FLOPS = 0% FLOPs)
          (k_norm): Identity(0 = 0% Params, 0 MACs = 0% MACs, 0 FLOPS = 0% FLOPs)
          (attn_drop): Dropout(0 = 0% Params, 0 MACs = 0% MACs, 0 FLOPS = 0% FLOPs, p=0.0, inplace=False)
          (proj): Linear(1.33 M = 0.0394% Params, 8.71 GMACs = 0.1896% MACs, 17.41 GFLOPS = 0.1871% FLOPs, in_features=1152, out_features=1152, bias=True)
          (proj_drop): Identity(0 = 0% Params, 0 MACs = 0% MACs, 0 FLOPS = 0% FLOPs)
        )
        (ls1): Identity(0 = 0% Params, 0 MACs = 0% MACs, 0 FLOPS = 0% FLOPs)
        (drop_path1): Identity(0 = 0% Params, 0 MACs = 0% MACs, 0 FLOPS = 0% FLOPs)
        (norm2): LayerNorm(2.3 K = 0.0001% Params, 0 MACs = 0% MACs, 37.79 MFLOPS = 0.0004% FLOPs, (1152,), eps=1e-06, elementwise_affine=True)
        (mlp): Mlp(
          9.92 M = 0.2944% Params, 65.06 GMACs = 1.4168% MACs, 130.15 GFLOPS = 1.3983% FLOPs
          (fc1): Linear(4.96 M = 0.1472% Params, 32.53 GMACs = 0.7084% MACs, 65.06 GFLOPS = 0.699% FLOPs, in_features=1152, out_features=4304, bias=True)
          (act): GELU(0 = 0% Params, 0 MACs = 0% MACs, 28.24 MFLOPS = 0.0003% FLOPs, approximate='tanh')
          (drop1): Dropout(0 = 0% Params, 0 MACs = 0% MACs, 0 FLOPS = 0% FLOPs, p=0.0, inplace=False)
          (norm): Identity(0 = 0% Params, 0 MACs = 0% MACs, 0 FLOPS = 0% FLOPs)
          (fc2): Linear(4.96 M = 0.1471% Params, 32.53 GMACs = 0.7084% MACs, 65.06 GFLOPS = 0.699% FLOPs, in_features=4304, out_features=1152, bias=True)
          (drop2): Dropout(0 = 0% Params, 0 MACs = 0% MACs, 0 FLOPS = 0% FLOPs, p=0.0, inplace=False)
        )
        (ls2): Identity(0 = 0% Params, 0 MACs = 0% MACs, 0 FLOPS = 0% FLOPs)
        (drop_path2): Identity(0 = 0% Params, 0 MACs = 0% MACs, 0 FLOPS = 0% FLOPs)
      )
    )
    (norm): LayerNorm(2.3 K = 0.0001% Params, 0 MACs = 0% MACs, 37.79 MFLOPS = 0.0004% FLOPs, (1152,), eps=1e-06, elementwise_affine=True)
    (attn_pool): AttentionPoolLatent(
      15.24 M = 0.4521% Params, 0 MACs = 0% MACs, 0 FLOPS = 0% FLOPs
      (q): Linear(1.33 M = 0.0394% Params, 0 MACs = 0% MACs, 0 FLOPS = 0% FLOPs, in_features=1152, out_features=1152, bias=True)
      (kv): Linear(2.66 M = 0.0788% Params, 0 MACs = 0% MACs, 0 FLOPS = 0% FLOPs, in_features=1152, out_features=2304, bias=True)
      (q_norm): Identity(0 = 0% Params, 0 MACs = 0% MACs, 0 FLOPS = 0% FLOPs)
      (k_norm): Identity(0 = 0% Params, 0 MACs = 0% MACs, 0 FLOPS = 0% FLOPs)
      (proj): Linear(1.33 M = 0.0394% Params, 0 MACs = 0% MACs, 0 FLOPS = 0% FLOPs, in_features=1152, out_features=1152, bias=True)
      (proj_drop): Dropout(0 = 0% Params, 0 MACs = 0% MACs, 0 FLOPS = 0% FLOPs, p=0.0, inplace=False)
      (norm): LayerNorm(2.3 K = 0.0001% Params, 0 MACs = 0% MACs, 0 FLOPS = 0% FLOPs, (1152,), eps=1e-06, elementwise_affine=True)
      (mlp): Mlp(
        9.92 M = 0.2944% Params, 0 MACs = 0% MACs, 0 FLOPS = 0% FLOPs
        (fc1): Linear(4.96 M = 0.1472% Params, 0 MACs = 0% MACs, 0 FLOPS = 0% FLOPs, in_features=1152, out_features=4304, bias=True)
        (act): GELU(0 = 0% Params, 0 MACs = 0% MACs, 0 FLOPS = 0% FLOPs, approximate='none')
        (drop1): Dropout(0 = 0% Params, 0 MACs = 0% MACs, 0 FLOPS = 0% FLOPs, p=0.0, inplace=False)
        (norm): Identity(0 = 0% Params, 0 MACs = 0% MACs, 0 FLOPS = 0% FLOPs)
        (fc2): Linear(4.96 M = 0.1471% Params, 0 MACs = 0% MACs, 0 FLOPS = 0% FLOPs, in_features=4304, out_features=1152, bias=True)
        (drop2): Dropout(0 = 0% Params, 0 MACs = 0% MACs, 0 FLOPS = 0% FLOPs, p=0.0, inplace=False)
      )
    )
    (fc_norm): Identity(0 = 0% Params, 0 MACs = 0% MACs, 0 FLOPS = 0% FLOPs)
    (head_drop): Dropout(0 = 0% Params, 0 MACs = 0% MACs, 0 FLOPS = 0% FLOPs, p=0.0, inplace=False)
    (head): Identity(0 = 0% Params, 0 MACs = 0% MACs, 0 FLOPS = 0% FLOPs)
  )
  (projector): MlpProjector(
    7.54 M = 0.2237% Params, 13.29 GMACs = 0.2895% MACs, 26.59 GFLOPS = 0.2857% FLOPs
    (layers): Sequential(
      7.54 M = 0.2237% Params, 13.29 GMACs = 0.2895% MACs, 26.59 GFLOPS = 0.2857% FLOPs
      (0): Linear(5.9 M = 0.175% Params, 10.4 GMACs = 0.2266% MACs, 20.81 GFLOPS = 0.2236% FLOPs, in_features=4608, out_features=1280, bias=True)
      (1): GELU(0 = 0% Params, 0 MACs = 0% MACs, 2.26 MFLOPS = 0% FLOPs, approximate='none')
      (2): Linear(1.64 M = 0.0486% Params, 2.89 GMACs = 0.0629% MACs, 5.78 GFLOPS = 0.0621% FLOPs, in_features=1280, out_features=1280, bias=True)
    )
  )
  (language): DeepseekV2ForCausalLM(
    2.93 B = 87.0711% Params, 1.88 TMACs = 40.8834% MACs, 3.88 TFLOPS = 41.6322% FLOPs
    (model): DeepseekV2Model(
      2.77 B = 82.1615% Params, 1.41 TMACs = 30.6532% MACs, 2.94 TFLOPS = 31.5377% FLOPs
      (embed_tokens): Embedding(165.48 M = 4.9096% Params, 0 MACs = 0% MACs, 0 FLOPS = 0% FLOPs, 129280, 1280)
      (layers): ModuleList(
        (0): DeepseekV2DecoderLayer(
          32.85 M = 0.9747% Params, 113.89 GMACs = 2.4802% MACs, 237.41 GFLOPS = 2.5506% FLOPs
          (self_attn): LlamaAttention(
            6.55 M = 0.1944% Params, 39.24 GMACs = 0.8545% MACs, 78.74 GFLOPS = 0.846% FLOPs
            (q_proj): Linear(1.64 M = 0.0486% Params, 4.65 GMACs = 0.1013% MACs, 9.3 GFLOPS = 0.0999% FLOPs, in_features=1280, out_features=1280, bias=False)
            (k_proj): Linear(1.64 M = 0.0486% Params, 4.65 GMACs = 0.1013% MACs, 9.3 GFLOPS = 0.0999% FLOPs, in_features=1280, out_features=1280, bias=False)
            (v_proj): Linear(1.64 M = 0.0486% Params, 4.65 GMACs = 0.1013% MACs, 9.3 GFLOPS = 0.0999% FLOPs, in_features=1280, out_features=1280, bias=False)
            (o_proj): Linear(1.64 M = 0.0486% Params, 4.65 GMACs = 0.1013% MACs, 9.3 GFLOPS = 0.0999% FLOPs, in_features=1280, out_features=1280, bias=False)
            (rotary_emb): LlamaRotaryEmbedding(0 = 0% Params, 181.7 KMACs = 0% MACs, 1.09 MFLOPS = 0% FLOPs)
          )
          (mlp): DeepseekV2MLP(
            26.3 M = 0.7802% Params, 74.66 GMACs = 1.6257% MACs, 149.35 GFLOPS = 1.6045% FLOPs
            (gate_proj): Linear(8.77 M = 0.2601% Params, 24.89 GMACs = 0.5419% MACs, 49.77 GFLOPS = 0.5347% FLOPs, in_features=1280, out_features=6848, bias=False)
            (up_proj): Linear(8.77 M = 0.2601% Params, 24.89 GMACs = 0.5419% MACs, 49.77 GFLOPS = 0.5347% FLOPs, in_features=1280, out_features=6848, bias=False)
            (down_proj): Linear(8.77 M = 0.2601% Params, 24.89 GMACs = 0.5419% MACs, 49.77 GFLOPS = 0.5347% FLOPs, in_features=6848, out_features=1280, bias=False)
            (act_fn): SiLU(0 = 0% Params, 0 MACs = 0% MACs, 19.44 MFLOPS = 0.0002% FLOPs)
          )
          (input_layernorm): DeepseekV2RMSNorm(1.28 K = 0% Params, 0 MACs = 0% MACs, 4.66 GFLOPS = 0.05% FLOPs)
          (post_attention_layernorm): DeepseekV2RMSNorm(1.28 K = 0% Params, 0 MACs = 0% MACs, 4.66 GFLOPS = 0.05% FLOPs)
        )
        (1): DeepseekV2DecoderLayer(
          233.72 M = 6.9343% Params, 117.62 GMACs = 2.5612% MACs, 244.86 GFLOPS = 2.6306% FLOPs
          (self_attn): LlamaAttention(
            6.55 M = 0.1944% Params, 39.24 GMACs = 0.8545% MACs, 78.74 GFLOPS = 0.846% FLOPs
            (q_proj): Linear(1.64 M = 0.0486% Params, 4.65 GMACs = 0.1013% MACs, 9.3 GFLOPS = 0.0999% FLOPs, in_features=1280, out_features=1280, bias=False)
            (k_proj): Linear(1.64 M = 0.0486% Params, 4.65 GMACs = 0.1013% MACs, 9.3 GFLOPS = 0.0999% FLOPs, in_features=1280, out_features=1280, bias=False)
            (v_proj): Linear(1.64 M = 0.0486% Params, 4.65 GMACs = 0.1013% MACs, 9.3 GFLOPS = 0.0999% FLOPs, in_features=1280, out_features=1280, bias=False)
            (o_proj): Linear(1.64 M = 0.0486% Params, 4.65 GMACs = 0.1013% MACs, 9.3 GFLOPS = 0.0999% FLOPs, in_features=1280, out_features=1280, bias=False)
            (rotary_emb): LlamaRotaryEmbedding(0 = 0% Params, 181.7 KMACs = 0% MACs, 1.09 MFLOPS = 0% FLOPs)
          )
          (mlp): DeepseekV2MoE(
            227.16 M = 6.7398% Params, 78.38 GMACs = 1.7067% MACs, 156.8 GFLOPS = 1.6846% FLOPs
            (experts): ModuleList(
              (0): DeepseekV2MLP(
                3.44 M = 0.1021% Params, 488.57 MMACs = 0.0106% MACs, 977.4 MFLOPS = 0.0105% FLOPs
                (gate_proj): Linear(1.15 M = 0.034% Params, 162.86 MMACs = 0.0035% MACs, 325.71 MFLOPS = 0.0035% FLOPs, in_features=1280, out_features=896, bias=False)
                (up_proj): Linear(1.15 M = 0.034% Params, 162.86 MMACs = 0.0035% MACs, 325.71 MFLOPS = 0.0035% FLOPs, in_features=1280, out_features=896, bias=False)
                (down_proj): Linear(1.15 M = 0.034% Params, 162.86 MMACs = 0.0035% MACs, 325.71 MFLOPS = 0.0035% FLOPs, in_features=896, out_features=1280, bias=False)
                (act_fn): SiLU(0 = 0% Params, 0 MACs = 0% MACs, 127.23 KFLOPS = 0% FLOPs)
              )
              (1): DeepseekV2MLP(
                3.44 M = 0.1021% Params, 289.01 MMACs = 0.0063% MACs, 578.18 MFLOPS = 0.0062% FLOPs
                (gate_proj): Linear(1.15 M = 0.034% Params, 96.34 MMACs = 0.0021% MACs, 192.68 MFLOPS = 0.0021% FLOPs, in_features=1280, out_features=896, bias=False)
                (up_proj): Linear(1.15 M = 0.034% Params, 96.34 MMACs = 0.0021% MACs, 192.68 MFLOPS = 0.0021% FLOPs, in_features=1280, out_features=896, bias=False)
                (down_proj): Linear(1.15 M = 0.034% Params, 96.34 MMACs = 0.0021% MACs, 192.68 MFLOPS = 0.0021% FLOPs, in_features=896, out_features=1280, bias=False)
                (act_fn): SiLU(0 = 0% Params, 0 MACs = 0% MACs, 75.26 KFLOPS = 0% FLOPs)
              )
              (2): DeepseekV2MLP(
                3.44 M = 0.1021% Params, 918.65 MMACs = 0.02% MACs, 1.84 GFLOPS = 0.0197% FLOPs
                (gate_proj): Linear(1.15 M = 0.034% Params, 306.22 MMACs = 0.0067% MACs, 612.43 MFLOPS = 0.0066% FLOPs, in_features=1280, out_features=896, bias=False)
                (up_proj): Linear(1.15 M = 0.034% Params, 306.22 MMACs = 0.0067% MACs, 612.43 MFLOPS = 0.0066% FLOPs, in_features=1280, out_features=896, bias=False)
                (down_proj): Linear(1.15 M = 0.034% Params, 306.22 MMACs = 0.0067% MACs, 612.43 MFLOPS = 0.0066% FLOPs, in_features=896, out_features=1280, bias=False)
                (act_fn): SiLU(0 = 0% Params, 0 MACs = 0% MACs, 239.23 KFLOPS = 0% FLOPs)
              )
              (3): DeepseekV2MLP(
                3.44 M = 0.1021% Params, 1.03 GMACs = 0.0225% MACs, 2.06 GFLOPS = 0.0222% FLOPs
                (gate_proj): Linear(1.15 M = 0.034% Params, 344.06 MMACs = 0.0075% MACs, 688.13 MFLOPS = 0.0074% FLOPs, in_features=1280, out_features=896, bias=False)
                (up_proj): Linear(1.15 M = 0.034% Params, 344.06 MMACs = 0.0075% MACs, 688.13 MFLOPS = 0.0074% FLOPs, in_features=1280, out_features=896, bias=False)
                (down_proj): Linear(1.15 M = 0.034% Params, 344.06 MMACs = 0.0075% MACs, 688.13 MFLOPS = 0.0074% FLOPs, in_features=896, out_features=1280, bias=False)
                (act_fn): SiLU(0 = 0% Params, 0 MACs = 0% MACs, 268.8 KFLOPS = 0% FLOPs)
              )
              (4): DeepseekV2MLP(
                3.44 M = 0.1021% Params, 963.38 MMACs = 0.021% MACs, 1.93 GFLOPS = 0.0207% FLOPs
                (gate_proj): Linear(1.15 M = 0.034% Params, 321.13 MMACs = 0.007% MACs, 642.25 MFLOPS = 0.0069% FLOPs, in_features=1280, out_features=896, bias=False)
                (up_proj): Linear(1.15 M = 0.034% Params, 321.13 MMACs = 0.007% MACs, 642.25 MFLOPS = 0.0069% FLOPs, in_features=1280, out_features=896, bias=False)
                (down_proj): Linear(1.15 M = 0.034% Params, 321.13 MMACs = 0.007% MACs, 642.25 MFLOPS = 0.0069% FLOPs, in_features=896, out_features=1280, bias=False)
                (act_fn): SiLU(0 = 0% Params, 0 MACs = 0% MACs, 250.88 KFLOPS = 0% FLOPs)
              )
              (5): DeepseekV2MLP(
                3.44 M = 0.1021% Params, 695.01 MMACs = 0.0151% MACs, 1.39 GFLOPS = 0.0149% FLOPs
                (gate_proj): Linear(1.15 M = 0.034% Params, 231.67 MMACs = 0.005% MACs, 463.34 MFLOPS = 0.005% FLOPs, in_features=1280, out_features=896, bias=False)
                (up_proj): Linear(1.15 M = 0.034% Params, 231.67 MMACs = 0.005% MACs, 463.34 MFLOPS = 0.005% FLOPs, in_features=1280, out_features=896, bias=False)
                (down_proj): Linear(1.15 M = 0.034% Params, 231.67 MMACs = 0.005% MACs, 463.34 MFLOPS = 0.005% FLOPs, in_features=896, out_features=1280, bias=False)
                (act_fn): SiLU(0 = 0% Params, 0 MACs = 0% MACs, 180.99 KFLOPS = 0% FLOPs)
              )
              (6): DeepseekV2MLP(
                3.44 M = 0.1021% Params, 168.59 MMACs = 0.0037% MACs, 337.27 MFLOPS = 0.0036% FLOPs
                (gate_proj): Linear(1.15 M = 0.034% Params, 56.2 MMACs = 0.0012% MACs, 112.39 MFLOPS = 0.0012% FLOPs, in_features=1280, out_features=896, bias=False)
                (up_proj): Linear(1.15 M = 0.034% Params, 56.2 MMACs = 0.0012% MACs, 112.39 MFLOPS = 0.0012% FLOPs, in_features=1280, out_features=896, bias=False)
                (down_proj): Linear(1.15 M = 0.034% Params, 56.2 MMACs = 0.0012% MACs, 112.39 MFLOPS = 0.0012% FLOPs, in_features=896, out_features=1280, bias=False)
                (act_fn): SiLU(0 = 0% Params, 0 MACs = 0% MACs, 43.9 KFLOPS = 0% FLOPs)
              )
              (7): DeepseekV2MLP(
                3.44 M = 0.1021% Params, 447.28 MMACs = 0.0097% MACs, 894.8 MFLOPS = 0.0096% FLOPs
                (gate_proj): Linear(1.15 M = 0.034% Params, 149.09 MMACs = 0.0032% MACs, 298.19 MFLOPS = 0.0032% FLOPs, in_features=1280, out_features=896, bias=False)
                (up_proj): Linear(1.15 M = 0.034% Params, 149.09 MMACs = 0.0032% MACs, 298.19 MFLOPS = 0.0032% FLOPs, in_features=1280, out_features=896, bias=False)
                (down_proj): Linear(1.15 M = 0.034% Params, 149.09 MMACs = 0.0032% MACs, 298.19 MFLOPS = 0.0032% FLOPs, in_features=896, out_features=1280, bias=False)
                (act_fn): SiLU(0 = 0% Params, 0 MACs = 0% MACs, 116.48 KFLOPS = 0% FLOPs)
              )
              (8): DeepseekV2MLP(
                3.44 M = 0.1021% Params, 1.68 GMACs = 0.0365% MACs, 3.35 GFLOPS = 0.036% FLOPs
                (gate_proj): Linear(1.15 M = 0.034% Params, 558.53 MMACs = 0.0122% MACs, 1.12 GFLOPS = 0.012% FLOPs, in_features=1280, out_features=896, bias=False)
                (up_proj): Linear(1.15 M = 0.034% Params, 558.53 MMACs = 0.0122% MACs, 1.12 GFLOPS = 0.012% FLOPs, in_features=1280, out_features=896, bias=False)
                (down_proj): Linear(1.15 M = 0.034% Params, 558.53 MMACs = 0.0122% MACs, 1.12 GFLOPS = 0.012% FLOPs, in_features=896, out_features=1280, bias=False)
                (act_fn): SiLU(0 = 0% Params, 0 MACs = 0% MACs, 436.35 KFLOPS = 0% FLOPs)
              )
              (9): DeepseekV2MLP(
                3.44 M = 0.1021% Params, 454.16 MMACs = 0.0099% MACs, 908.57 MFLOPS = 0.0098% FLOPs
                (gate_proj): Linear(1.15 M = 0.034% Params, 151.39 MMACs = 0.0033% MACs, 302.78 MFLOPS = 0.0033% FLOPs, in_features=1280, out_features=896, bias=False)
                (up_proj): Linear(1.15 M = 0.034% Params, 151.39 MMACs = 0.0033% MACs, 302.78 MFLOPS = 0.0033% FLOPs, in_features=1280, out_features=896, bias=False)
                (down_proj): Linear(1.15 M = 0.034% Params, 151.39 MMACs = 0.0033% MACs, 302.78 MFLOPS = 0.0033% FLOPs, in_features=896, out_features=1280, bias=False)
                (act_fn): SiLU(0 = 0% Params, 0 MACs = 0% MACs, 118.27 KFLOPS = 0% FLOPs)
              )
              (10): DeepseekV2MLP(
                3.44 M = 0.1021% Params, 447.28 MMACs = 0.0097% MACs, 894.8 MFLOPS = 0.0096% FLOPs
                (gate_proj): Linear(1.15 M = 0.034% Params, 149.09 MMACs = 0.0032% MACs, 298.19 MFLOPS = 0.0032% FLOPs, in_features=1280, out_features=896, bias=False)
                (up_proj): Linear(1.15 M = 0.034% Params, 149.09 MMACs = 0.0032% MACs, 298.19 MFLOPS = 0.0032% FLOPs, in_features=1280, out_features=896, bias=False)
                (down_proj): Linear(1.15 M = 0.034% Params, 149.09 MMACs = 0.0032% MACs, 298.19 MFLOPS = 0.0032% FLOPs, in_features=896, out_features=1280, bias=False)
                (act_fn): SiLU(0 = 0% Params, 0 MACs = 0% MACs, 116.48 KFLOPS = 0% FLOPs)
              )
              (11): DeepseekV2MLP(
                3.44 M = 0.1021% Params, 798.23 MMACs = 0.0174% MACs, 1.6 GFLOPS = 0.0172% FLOPs
                (gate_proj): Linear(1.15 M = 0.034% Params, 266.08 MMACs = 0.0058% MACs, 532.15 MFLOPS = 0.0057% FLOPs, in_features=1280, out_features=896, bias=False)
                (up_proj): Linear(1.15 M = 0.034% Params, 266.08 MMACs = 0.0058% MACs, 532.15 MFLOPS = 0.0057% FLOPs, in_features=1280, out_features=896, bias=False)
                (down_proj): Linear(1.15 M = 0.034% Params, 266.08 MMACs = 0.0058% MACs, 532.15 MFLOPS = 0.0057% FLOPs, in_features=896, out_features=1280, bias=False)
                (act_fn): SiLU(0 = 0% Params, 0 MACs = 0% MACs, 207.87 KFLOPS = 0% FLOPs)
              )
              (12): DeepseekV2MLP(
                3.44 M = 0.1021% Params, 306.22 MMACs = 0.0067% MACs, 612.59 MFLOPS = 0.0066% FLOPs
                (gate_proj): Linear(1.15 M = 0.034% Params, 102.07 MMACs = 0.0022% MACs, 204.14 MFLOPS = 0.0022% FLOPs, in_features=1280, out_features=896, bias=False)
                (up_proj): Linear(1.15 M = 0.034% Params, 102.07 MMACs = 0.0022% MACs, 204.14 MFLOPS = 0.0022% FLOPs, in_features=1280, out_features=896, bias=False)
                (down_proj): Linear(1.15 M = 0.034% Params, 102.07 MMACs = 0.0022% MACs, 204.14 MFLOPS = 0.0022% FLOPs, in_features=896, out_features=1280, bias=False)
                (act_fn): SiLU(0 = 0% Params, 0 MACs = 0% MACs, 79.74 KFLOPS = 0% FLOPs)
              )
              (13): DeepseekV2MLP(
                3.44 M = 0.1021% Params, 1.83 GMACs = 0.0398% MACs, 3.65 GFLOPS = 0.0393% FLOPs
                (gate_proj): Linear(1.15 M = 0.034% Params, 608.99 MMACs = 0.0133% MACs, 1.22 GFLOPS = 0.0131% FLOPs, in_features=1280, out_features=896, bias=False)
                (up_proj): Linear(1.15 M = 0.034% Params, 608.99 MMACs = 0.0133% MACs, 1.22 GFLOPS = 0.0131% FLOPs, in_features=1280, out_features=896, bias=False)
                (down_proj): Linear(1.15 M = 0.034% Params, 608.99 MMACs = 0.0133% MACs, 1.22 GFLOPS = 0.0131% FLOPs, in_features=896, out_features=1280, bias=False)
                (act_fn): SiLU(0 = 0% Params, 0 MACs = 0% MACs, 475.78 KFLOPS = 0% FLOPs)
              )
              (14): DeepseekV2MLP(
                3.44 M = 0.1021% Params, 1.14 GMACs = 0.0247% MACs, 2.27 GFLOPS = 0.0244% FLOPs
                (gate_proj): Linear(1.15 M = 0.034% Params, 378.47 MMACs = 0.0082% MACs, 756.94 MFLOPS = 0.0081% FLOPs, in_features=1280, out_features=896, bias=False)
                (up_proj): Linear(1.15 M = 0.034% Params, 378.47 MMACs = 0.0082% MACs, 756.94 MFLOPS = 0.0081% FLOPs, in_features=1280, out_features=896, bias=False)
                (down_proj): Linear(1.15 M = 0.034% Params, 378.47 MMACs = 0.0082% MACs, 756.94 MFLOPS = 0.0081% FLOPs, in_features=896, out_features=1280, bias=False)
                (act_fn): SiLU(0 = 0% Params, 0 MACs = 0% MACs, 295.68 KFLOPS = 0% FLOPs)
              )
              (15): DeepseekV2MLP(
                3.44 M = 0.1021% Params, 1.76 GMACs = 0.0383% MACs, 3.52 GFLOPS = 0.0378% FLOPs
                (gate_proj): Linear(1.15 M = 0.034% Params, 586.06 MMACs = 0.0128% MACs, 1.17 GFLOPS = 0.0126% FLOPs, in_features=1280, out_features=896, bias=False)
                (up_proj): Linear(1.15 M = 0.034% Params, 586.06 MMACs = 0.0128% MACs, 1.17 GFLOPS = 0.0126% FLOPs, in_features=1280, out_features=896, bias=False)
                (down_proj): Linear(1.15 M = 0.034% Params, 586.06 MMACs = 0.0128% MACs, 1.17 GFLOPS = 0.0126% FLOPs, in_features=896, out_features=1280, bias=False)
                (act_fn): SiLU(0 = 0% Params, 0 MACs = 0% MACs, 457.86 KFLOPS = 0% FLOPs)
              )
              (16): DeepseekV2MLP(
                3.44 M = 0.1021% Params, 1.21 GMACs = 0.0264% MACs, 2.43 GFLOPS = 0.0261% FLOPs
                (gate_proj): Linear(1.15 M = 0.034% Params, 404.85 MMACs = 0.0088% MACs, 809.7 MFLOPS = 0.0087% FLOPs, in_features=1280, out_features=896, bias=False)
                (up_proj): Linear(1.15 M = 0.034% Params, 404.85 MMACs = 0.0088% MACs, 809.7 MFLOPS = 0.0087% FLOPs, in_features=1280, out_features=896, bias=False)
                (down_proj): Linear(1.15 M = 0.034% Params, 404.85 MMACs = 0.0088% MACs, 809.7 MFLOPS = 0.0087% FLOPs, in_features=896, out_features=1280, bias=False)
                (act_fn): SiLU(0 = 0% Params, 0 MACs = 0% MACs, 316.29 KFLOPS = 0% FLOPs)
              )
              (17): DeepseekV2MLP(
                3.44 M = 0.1021% Params, 450.72 MMACs = 0.0098% MACs, 901.68 MFLOPS = 0.0097% FLOPs
                (gate_proj): Linear(1.15 M = 0.034% Params, 150.24 MMACs = 0.0033% MACs, 300.48 MFLOPS = 0.0032% FLOPs, in_features=1280, out_features=896, bias=False)
                (up_proj): Linear(1.15 M = 0.034% Params, 150.24 MMACs = 0.0033% MACs, 300.48 MFLOPS = 0.0032% FLOPs, in_features=1280, out_features=896, bias=False)
                (down_proj): Linear(1.15 M = 0.034% Params, 150.24 MMACs = 0.0033% MACs, 300.48 MFLOPS = 0.0032% FLOPs, in_features=896, out_features=1280, bias=False)
                (act_fn): SiLU(0 = 0% Params, 0 MACs = 0% MACs, 117.38 KFLOPS = 0% FLOPs)
              )
              (18): DeepseekV2MLP(
                3.44 M = 0.1021% Params, 842.96 MMACs = 0.0184% MACs, 1.69 GFLOPS = 0.0181% FLOPs
                (gate_proj): Linear(1.15 M = 0.034% Params, 280.99 MMACs = 0.0061% MACs, 561.97 MFLOPS = 0.006% FLOPs, in_features=1280, out_features=896, bias=False)
                (up_proj): Linear(1.15 M = 0.034% Params, 280.99 MMACs = 0.0061% MACs, 561.97 MFLOPS = 0.006% FLOPs, in_features=1280, out_features=896, bias=False)
                (down_proj): Linear(1.15 M = 0.034% Params, 280.99 MMACs = 0.0061% MACs, 561.97 MFLOPS = 0.006% FLOPs, in_features=896, out_features=1280, bias=False)
                (act_fn): SiLU(0 = 0% Params, 0 MACs = 0% MACs, 219.52 KFLOPS = 0% FLOPs)
              )
              (19): DeepseekV2MLP(
                3.44 M = 0.1021% Params, 591.79 MMACs = 0.0129% MACs, 1.18 GFLOPS = 0.0127% FLOPs
                (gate_proj): Linear(1.15 M = 0.034% Params, 197.26 MMACs = 0.0043% MACs, 394.53 MFLOPS = 0.0042% FLOPs, in_features=1280, out_features=896, bias=False)
                (up_proj): Linear(1.15 M = 0.034% Params, 197.26 MMACs = 0.0043% MACs, 394.53 MFLOPS = 0.0042% FLOPs, in_features=1280, out_features=896, bias=False)
                (down_proj): Linear(1.15 M = 0.034% Params, 197.26 MMACs = 0.0043% MACs, 394.53 MFLOPS = 0.0042% FLOPs, in_features=896, out_features=1280, bias=False)
                (act_fn): SiLU(0 = 0% Params, 0 MACs = 0% MACs, 154.11 KFLOPS = 0% FLOPs)
              )
              (20): DeepseekV2MLP(
                3.44 M = 0.1021% Params, 760.38 MMACs = 0.0166% MACs, 1.52 GFLOPS = 0.0163% FLOPs
                (gate_proj): Linear(1.15 M = 0.034% Params, 253.46 MMACs = 0.0055% MACs, 506.92 MFLOPS = 0.0054% FLOPs, in_features=1280, out_features=896, bias=False)
                (up_proj): Linear(1.15 M = 0.034% Params, 253.46 MMACs = 0.0055% MACs, 506.92 MFLOPS = 0.0054% FLOPs, in_features=1280, out_features=896, bias=False)
                (down_proj): Linear(1.15 M = 0.034% Params, 253.46 MMACs = 0.0055% MACs, 506.92 MFLOPS = 0.0054% FLOPs, in_features=896, out_features=1280, bias=False)
                (act_fn): SiLU(0 = 0% Params, 0 MACs = 0% MACs, 198.02 KFLOPS = 0% FLOPs)
              )
              (21): DeepseekV2MLP(
                3.44 M = 0.1021% Params, 461.05 MMACs = 0.01% MACs, 922.33 MFLOPS = 0.0099% FLOPs
                (gate_proj): Linear(1.15 M = 0.034% Params, 153.68 MMACs = 0.0033% MACs, 307.36 MFLOPS = 0.0033% FLOPs, in_features=1280, out_features=896, bias=False)
                (up_proj): Linear(1.15 M = 0.034% Params, 153.68 MMACs = 0.0033% MACs, 307.36 MFLOPS = 0.0033% FLOPs, in_features=1280, out_features=896, bias=False)
                (down_proj): Linear(1.15 M = 0.034% Params, 153.68 MMACs = 0.0033% MACs, 307.36 MFLOPS = 0.0033% FLOPs, in_features=896, out_features=1280, bias=False)
                (act_fn): SiLU(0 = 0% Params, 0 MACs = 0% MACs, 120.06 KFLOPS = 0% FLOPs)
              )
              (22): DeepseekV2MLP(
                3.44 M = 0.1021% Params, 230.52 MMACs = 0.005% MACs, 461.17 MFLOPS = 0.005% FLOPs
                (gate_proj): Linear(1.15 M = 0.034% Params, 76.84 MMACs = 0.0017% MACs, 153.68 MFLOPS = 0.0017% FLOPs, in_features=1280, out_features=896, bias=False)
                (up_proj): Linear(1.15 M = 0.034% Params, 76.84 MMACs = 0.0017% MACs, 153.68 MFLOPS = 0.0017% FLOPs, in_features=1280, out_features=896, bias=False)
                (down_proj): Linear(1.15 M = 0.034% Params, 76.84 MMACs = 0.0017% MACs, 153.68 MFLOPS = 0.0017% FLOPs, in_features=896, out_features=1280, bias=False)
                (act_fn): SiLU(0 = 0% Params, 0 MACs = 0% MACs, 60.03 KFLOPS = 0% FLOPs)
              )
              (23): DeepseekV2MLP(
                3.44 M = 0.1021% Params, 385.35 MMACs = 0.0084% MACs, 770.9 MFLOPS = 0.0083% FLOPs
                (gate_proj): Linear(1.15 M = 0.034% Params, 128.45 MMACs = 0.0028% MACs, 256.9 MFLOPS = 0.0028% FLOPs, in_features=1280, out_features=896, bias=False)
                (up_proj): Linear(1.15 M = 0.034% Params, 128.45 MMACs = 0.0028% MACs, 256.9 MFLOPS = 0.0028% FLOPs, in_features=1280, out_features=896, bias=False)
                (down_proj): Linear(1.15 M = 0.034% Params, 128.45 MMACs = 0.0028% MACs, 256.9 MFLOPS = 0.0028% FLOPs, in_features=896, out_features=1280, bias=False)
                (act_fn): SiLU(0 = 0% Params, 0 MACs = 0% MACs, 100.35 KFLOPS = 0% FLOPs)
              )
              (24): DeepseekV2MLP(
                3.44 M = 0.1021% Params, 1.45 GMACs = 0.0316% MACs, 2.9 GFLOPS = 0.0312% FLOPs
                (gate_proj): Linear(1.15 M = 0.034% Params, 483.98 MMACs = 0.0105% MACs, 967.97 MFLOPS = 0.0104% FLOPs, in_features=1280, out_features=896, bias=False)
                (up_proj): Linear(1.15 M = 0.034% Params, 483.98 MMACs = 0.0105% MACs, 967.97 MFLOPS = 0.0104% FLOPs, in_features=1280, out_features=896, bias=False)
                (down_proj): Linear(1.15 M = 0.034% Params, 483.98 MMACs = 0.0105% MACs, 967.97 MFLOPS = 0.0104% FLOPs, in_features=896, out_features=1280, bias=False)
                (act_fn): SiLU(0 = 0% Params, 0 MACs = 0% MACs, 378.11 KFLOPS = 0% FLOPs)
              )
              (25): DeepseekV2MLP(
                3.44 M = 0.1021% Params, 385.35 MMACs = 0.0084% MACs, 770.9 MFLOPS = 0.0083% FLOPs
                (gate_proj): Linear(1.15 M = 0.034% Params, 128.45 MMACs = 0.0028% MACs, 256.9 MFLOPS = 0.0028% FLOPs, in_features=1280, out_features=896, bias=False)
                (up_proj): Linear(1.15 M = 0.034% Params, 128.45 MMACs = 0.0028% MACs, 256.9 MFLOPS = 0.0028% FLOPs, in_features=1280, out_features=896, bias=False)
                (down_proj): Linear(1.15 M = 0.034% Params, 128.45 MMACs = 0.0028% MACs, 256.9 MFLOPS = 0.0028% FLOPs, in_features=896, out_features=1280, bias=False)
                (act_fn): SiLU(0 = 0% Params, 0 MACs = 0% MACs, 100.35 KFLOPS = 0% FLOPs)
              )
              (26): DeepseekV2MLP(
                3.44 M = 0.1021% Params, 416.32 MMACs = 0.0091% MACs, 832.85 MFLOPS = 0.0089% FLOPs
                (gate_proj): Linear(1.15 M = 0.034% Params, 138.77 MMACs = 0.003% MACs, 277.54 MFLOPS = 0.003% FLOPs, in_features=1280, out_features=896, bias=False)
                (up_proj): Linear(1.15 M = 0.034% Params, 138.77 MMACs = 0.003% MACs, 277.54 MFLOPS = 0.003% FLOPs, in_features=1280, out_features=896, bias=False)
                (down_proj): Linear(1.15 M = 0.034% Params, 138.77 MMACs = 0.003% MACs, 277.54 MFLOPS = 0.003% FLOPs, in_features=896, out_features=1280, bias=False)
                (act_fn): SiLU(0 = 0% Params, 0 MACs = 0% MACs, 108.42 KFLOPS = 0% FLOPs)
              )
              (27): DeepseekV2MLP(
                3.44 M = 0.1021% Params, 653.72 MMACs = 0.0142% MACs, 1.31 GFLOPS = 0.0141% FLOPs
                (gate_proj): Linear(1.15 M = 0.034% Params, 217.91 MMACs = 0.0047% MACs, 435.81 MFLOPS = 0.0047% FLOPs, in_features=1280, out_features=896, bias=False)
                (up_proj): Linear(1.15 M = 0.034% Params, 217.91 MMACs = 0.0047% MACs, 435.81 MFLOPS = 0.0047% FLOPs, in_features=1280, out_features=896, bias=False)
                (down_proj): Linear(1.15 M = 0.034% Params, 217.91 MMACs = 0.0047% MACs, 435.81 MFLOPS = 0.0047% FLOPs, in_features=896, out_features=1280, bias=False)
                (act_fn): SiLU(0 = 0% Params, 0 MACs = 0% MACs, 170.24 KFLOPS = 0% FLOPs)
              )
              (28): DeepseekV2MLP(
                3.44 M = 0.1021% Params, 264.93 MMACs = 0.0058% MACs, 530 MFLOPS = 0.0057% FLOPs
                (gate_proj): Linear(1.15 M = 0.034% Params, 88.31 MMACs = 0.0019% MACs, 176.62 MFLOPS = 0.0019% FLOPs, in_features=1280, out_features=896, bias=False)
                (up_proj): Linear(1.15 M = 0.034% Params, 88.31 MMACs = 0.0019% MACs, 176.62 MFLOPS = 0.0019% FLOPs, in_features=1280, out_features=896, bias=False)
                (down_proj): Linear(1.15 M = 0.034% Params, 88.31 MMACs = 0.0019% MACs, 176.62 MFLOPS = 0.0019% FLOPs, in_features=896, out_features=1280, bias=False)
                (act_fn): SiLU(0 = 0% Params, 0 MACs = 0% MACs, 68.99 KFLOPS = 0% FLOPs)
              )
              (29): DeepseekV2MLP(
                3.44 M = 0.1021% Params, 409.44 MMACs = 0.0089% MACs, 819.09 MFLOPS = 0.0088% FLOPs
                (gate_proj): Linear(1.15 M = 0.034% Params, 136.48 MMACs = 0.003% MACs, 272.96 MFLOPS = 0.0029% FLOPs, in_features=1280, out_features=896, bias=False)
                (up_proj): Linear(1.15 M = 0.034% Params, 136.48 MMACs = 0.003% MACs, 272.96 MFLOPS = 0.0029% FLOPs, in_features=1280, out_features=896, bias=False)
                (down_proj): Linear(1.15 M = 0.034% Params, 136.48 MMACs = 0.003% MACs, 272.96 MFLOPS = 0.0029% FLOPs, in_features=896, out_features=1280, bias=False)
                (act_fn): SiLU(0 = 0% Params, 0 MACs = 0% MACs, 106.62 KFLOPS = 0% FLOPs)
              )
              (30): DeepseekV2MLP(
                3.44 M = 0.1021% Params, 505.77 MMACs = 0.011% MACs, 1.01 GFLOPS = 0.0109% FLOPs
                (gate_proj): Linear(1.15 M = 0.034% Params, 168.59 MMACs = 0.0037% MACs, 337.18 MFLOPS = 0.0036% FLOPs, in_features=1280, out_features=896, bias=False)
                (up_proj): Linear(1.15 M = 0.034% Params, 168.59 MMACs = 0.0037% MACs, 337.18 MFLOPS = 0.0036% FLOPs, in_features=1280, out_features=896, bias=False)
                (down_proj): Linear(1.15 M = 0.034% Params, 168.59 MMACs = 0.0037% MACs, 337.18 MFLOPS = 0.0036% FLOPs, in_features=896, out_features=1280, bias=False)
                (act_fn): SiLU(0 = 0% Params, 0 MACs = 0% MACs, 131.71 KFLOPS = 0% FLOPs)
              )
              (31): DeepseekV2MLP(
                3.44 M = 0.1021% Params, 1.4 GMACs = 0.0304% MACs, 2.79 GFLOPS = 0.03% FLOPs
                (gate_proj): Linear(1.15 M = 0.034% Params, 465.63 MMACs = 0.0101% MACs, 931.27 MFLOPS = 0.01% FLOPs, in_features=1280, out_features=896, bias=False)
                (up_proj): Linear(1.15 M = 0.034% Params, 465.63 MMACs = 0.0101% MACs, 931.27 MFLOPS = 0.01% FLOPs, in_features=1280, out_features=896, bias=False)
                (down_proj): Linear(1.15 M = 0.034% Params, 465.63 MMACs = 0.0101% MACs, 931.27 MFLOPS = 0.01% FLOPs, in_features=896, out_features=1280, bias=False)
                (act_fn): SiLU(0 = 0% Params, 0 MACs = 0% MACs, 363.78 KFLOPS = 0% FLOPs)
              )
              (32): DeepseekV2MLP(
                3.44 M = 0.1021% Params, 443.84 MMACs = 0.0097% MACs, 887.92 MFLOPS = 0.0095% FLOPs
                (gate_proj): Linear(1.15 M = 0.034% Params, 147.95 MMACs = 0.0032% MACs, 295.9 MFLOPS = 0.0032% FLOPs, in_features=1280, out_features=896, bias=False)
                (up_proj): Linear(1.15 M = 0.034% Params, 147.95 MMACs = 0.0032% MACs, 295.9 MFLOPS = 0.0032% FLOPs, in_features=1280, out_features=896, bias=False)
                (down_proj): Linear(1.15 M = 0.034% Params, 147.95 MMACs = 0.0032% MACs, 295.9 MFLOPS = 0.0032% FLOPs, in_features=896, out_features=1280, bias=False)
                (act_fn): SiLU(0 = 0% Params, 0 MACs = 0% MACs, 115.58 KFLOPS = 0% FLOPs)
              )
              (33): DeepseekV2MLP(
                3.44 M = 0.1021% Params, 440.4 MMACs = 0.0096% MACs, 881.03 MFLOPS = 0.0095% FLOPs
                (gate_proj): Linear(1.15 M = 0.034% Params, 146.8 MMACs = 0.0032% MACs, 293.6 MFLOPS = 0.0032% FLOPs, in_features=1280, out_features=896, bias=False)
                (up_proj): Linear(1.15 M = 0.034% Params, 146.8 MMACs = 0.0032% MACs, 293.6 MFLOPS = 0.0032% FLOPs, in_features=1280, out_features=896, bias=False)
                (down_proj): Linear(1.15 M = 0.034% Params, 146.8 MMACs = 0.0032% MACs, 293.6 MFLOPS = 0.0032% FLOPs, in_features=896, out_features=1280, bias=False)
                (act_fn): SiLU(0 = 0% Params, 0 MACs = 0% MACs, 114.69 KFLOPS = 0% FLOPs)
              )
              (34): DeepseekV2MLP(
                3.44 M = 0.1021% Params, 295.9 MMACs = 0.0064% MACs, 591.94 MFLOPS = 0.0064% FLOPs
                (gate_proj): Linear(1.15 M = 0.034% Params, 98.63 MMACs = 0.0021% MACs, 197.26 MFLOPS = 0.0021% FLOPs, in_features=1280, out_features=896, bias=False)
                (up_proj): Linear(1.15 M = 0.034% Params, 98.63 MMACs = 0.0021% MACs, 197.26 MFLOPS = 0.0021% FLOPs, in_features=1280, out_features=896, bias=False)
                (down_proj): Linear(1.15 M = 0.034% Params, 98.63 MMACs = 0.0021% MACs, 197.26 MFLOPS = 0.0021% FLOPs, in_features=896, out_features=1280, bias=False)
                (act_fn): SiLU(0 = 0% Params, 0 MACs = 0% MACs, 77.06 KFLOPS = 0% FLOPs)
              )
              (35): DeepseekV2MLP(
                3.44 M = 0.1021% Params, 1.08 GMACs = 0.0236% MACs, 2.17 GFLOPS = 0.0233% FLOPs
                (gate_proj): Linear(1.15 M = 0.034% Params, 361.27 MMACs = 0.0079% MACs, 722.53 MFLOPS = 0.0078% FLOPs, in_features=1280, out_features=896, bias=False)
                (up_proj): Linear(1.15 M = 0.034% Params, 361.27 MMACs = 0.0079% MACs, 722.53 MFLOPS = 0.0078% FLOPs, in_features=1280, out_features=896, bias=False)
                (down_proj): Linear(1.15 M = 0.034% Params, 361.27 MMACs = 0.0079% MACs, 722.53 MFLOPS = 0.0078% FLOPs, in_features=896, out_features=1280, bias=False)
                (act_fn): SiLU(0 = 0% Params, 0 MACs = 0% MACs, 282.24 KFLOPS = 0% FLOPs)
              )
              (36): DeepseekV2MLP(
                3.44 M = 0.1021% Params, 2.21 GMACs = 0.0481% MACs, 4.42 GFLOPS = 0.0475% FLOPs
                (gate_proj): Linear(1.15 M = 0.034% Params, 736.3 MMACs = 0.016% MACs, 1.47 GFLOPS = 0.0158% FLOPs, in_features=1280, out_features=896, bias=False)
                (up_proj): Linear(1.15 M = 0.034% Params, 736.3 MMACs = 0.016% MACs, 1.47 GFLOPS = 0.0158% FLOPs, in_features=1280, out_features=896, bias=False)
                (down_proj): Linear(1.15 M = 0.034% Params, 736.3 MMACs = 0.016% MACs, 1.47 GFLOPS = 0.0158% FLOPs, in_features=896, out_features=1280, bias=False)
                (act_fn): SiLU(0 = 0% Params, 0 MACs = 0% MACs, 575.23 KFLOPS = 0% FLOPs)
              )
              (37): DeepseekV2MLP(
                3.44 M = 0.1021% Params, 2.39 GMACs = 0.052% MACs, 4.78 GFLOPS = 0.0513% FLOPs
                (gate_proj): Linear(1.15 M = 0.034% Params, 795.93 MMACs = 0.0173% MACs, 1.59 GFLOPS = 0.0171% FLOPs, in_features=1280, out_features=896, bias=False)
                (up_proj): Linear(1.15 M = 0.034% Params, 795.93 MMACs = 0.0173% MACs, 1.59 GFLOPS = 0.0171% FLOPs, in_features=1280, out_features=896, bias=False)
                (down_proj): Linear(1.15 M = 0.034% Params, 795.93 MMACs = 0.0173% MACs, 1.59 GFLOPS = 0.0171% FLOPs, in_features=896, out_features=1280, bias=False)
                (act_fn): SiLU(0 = 0% Params, 0 MACs = 0% MACs, 621.82 KFLOPS = 0% FLOPs)
              )
              (38): DeepseekV2MLP(
                3.44 M = 0.1021% Params, 584.91 MMACs = 0.0127% MACs, 1.17 GFLOPS = 0.0126% FLOPs
                (gate_proj): Linear(1.15 M = 0.034% Params, 194.97 MMACs = 0.0042% MACs, 389.94 MFLOPS = 0.0042% FLOPs, in_features=1280, out_features=896, bias=False)
                (up_proj): Linear(1.15 M = 0.034% Params, 194.97 MMACs = 0.0042% MACs, 389.94 MFLOPS = 0.0042% FLOPs, in_features=1280, out_features=896, bias=False)
                (down_proj): Linear(1.15 M = 0.034% Params, 194.97 MMACs = 0.0042% MACs, 389.94 MFLOPS = 0.0042% FLOPs, in_features=896, out_features=1280, bias=False)
                (act_fn): SiLU(0 = 0% Params, 0 MACs = 0% MACs, 152.32 KFLOPS = 0% FLOPs)
              )
              (39): DeepseekV2MLP(
                3.44 M = 0.1021% Params, 846.4 MMACs = 0.0184% MACs, 1.69 GFLOPS = 0.0182% FLOPs
                (gate_proj): Linear(1.15 M = 0.034% Params, 282.13 MMACs = 0.0061% MACs, 564.26 MFLOPS = 0.0061% FLOPs, in_features=1280, out_features=896, bias=False)
                (up_proj): Linear(1.15 M = 0.034% Params, 282.13 MMACs = 0.0061% MACs, 564.26 MFLOPS = 0.0061% FLOPs, in_features=1280, out_features=896, bias=False)
                (down_proj): Linear(1.15 M = 0.034% Params, 282.13 MMACs = 0.0061% MACs, 564.26 MFLOPS = 0.0061% FLOPs, in_features=896, out_features=1280, bias=False)
                (act_fn): SiLU(0 = 0% Params, 0 MACs = 0% MACs, 220.42 KFLOPS = 0% FLOPs)
              )
              (40): DeepseekV2MLP(
                3.44 M = 0.1021% Params, 1.69 GMACs = 0.0368% MACs, 3.38 GFLOPS = 0.0363% FLOPs
                (gate_proj): Linear(1.15 M = 0.034% Params, 563.12 MMACs = 0.0123% MACs, 1.13 GFLOPS = 0.0121% FLOPs, in_features=1280, out_features=896, bias=False)
                (up_proj): Linear(1.15 M = 0.034% Params, 563.12 MMACs = 0.0123% MACs, 1.13 GFLOPS = 0.0121% FLOPs, in_features=1280, out_features=896, bias=False)
                (down_proj): Linear(1.15 M = 0.034% Params, 563.12 MMACs = 0.0123% MACs, 1.13 GFLOPS = 0.0121% FLOPs, in_features=896, out_features=1280, bias=False)
                (act_fn): SiLU(0 = 0% Params, 0 MACs = 0% MACs, 439.94 KFLOPS = 0% FLOPs)
              )
              (41): DeepseekV2MLP(
                3.44 M = 0.1021% Params, 973.7 MMACs = 0.0212% MACs, 1.95 GFLOPS = 0.0209% FLOPs
                (gate_proj): Linear(1.15 M = 0.034% Params, 324.57 MMACs = 0.0071% MACs, 649.13 MFLOPS = 0.007% FLOPs, in_features=1280, out_features=896, bias=False)
                (up_proj): Linear(1.15 M = 0.034% Params, 324.57 MMACs = 0.0071% MACs, 649.13 MFLOPS = 0.007% FLOPs, in_features=1280, out_features=896, bias=False)
                (down_proj): Linear(1.15 M = 0.034% Params, 324.57 MMACs = 0.0071% MACs, 649.13 MFLOPS = 0.007% FLOPs, in_features=896, out_features=1280, bias=False)
                (act_fn): SiLU(0 = 0% Params, 0 MACs = 0% MACs, 253.57 KFLOPS = 0% FLOPs)
              )
              (42): DeepseekV2MLP(
                3.44 M = 0.1021% Params, 777.58 MMACs = 0.0169% MACs, 1.56 GFLOPS = 0.0167% FLOPs
                (gate_proj): Linear(1.15 M = 0.034% Params, 259.19 MMACs = 0.0056% MACs, 518.39 MFLOPS = 0.0056% FLOPs, in_features=1280, out_features=896, bias=False)
                (up_proj): Linear(1.15 M = 0.034% Params, 259.19 MMACs = 0.0056% MACs, 518.39 MFLOPS = 0.0056% FLOPs, in_features=1280, out_features=896, bias=False)
                (down_proj): Linear(1.15 M = 0.034% Params, 259.19 MMACs = 0.0056% MACs, 518.39 MFLOPS = 0.0056% FLOPs, in_features=896, out_features=1280, bias=False)
                (act_fn): SiLU(0 = 0% Params, 0 MACs = 0% MACs, 202.5 KFLOPS = 0% FLOPs)
              )
              (43): DeepseekV2MLP(
                3.44 M = 0.1021% Params, 2.81 GMACs = 0.0613% MACs, 5.63 GFLOPS = 0.0605% FLOPs
                (gate_proj): Linear(1.15 M = 0.034% Params, 938.15 MMACs = 0.0204% MACs, 1.88 GFLOPS = 0.0202% FLOPs, in_features=1280, out_features=896, bias=False)
                (up_proj): Linear(1.15 M = 0.034% Params, 938.15 MMACs = 0.0204% MACs, 1.88 GFLOPS = 0.0202% FLOPs, in_features=1280, out_features=896, bias=False)
                (down_proj): Linear(1.15 M = 0.034% Params, 938.15 MMACs = 0.0204% MACs, 1.88 GFLOPS = 0.0202% FLOPs, in_features=896, out_features=1280, bias=False)
                (act_fn): SiLU(0 = 0% Params, 0 MACs = 0% MACs, 732.93 KFLOPS = 0% FLOPs)
              )
              (44): DeepseekV2MLP(
                3.44 M = 0.1021% Params, 395.67 MMACs = 0.0086% MACs, 791.55 MFLOPS = 0.0085% FLOPs
                (gate_proj): Linear(1.15 M = 0.034% Params, 131.89 MMACs = 0.0029% MACs, 263.78 MFLOPS = 0.0028% FLOPs, in_features=1280, out_features=896, bias=False)
                (up_proj): Linear(1.15 M = 0.034% Params, 131.89 MMACs = 0.0029% MACs, 263.78 MFLOPS = 0.0028% FLOPs, in_features=1280, out_features=896, bias=False)
                (down_proj): Linear(1.15 M = 0.034% Params, 131.89 MMACs = 0.0029% MACs, 263.78 MFLOPS = 0.0028% FLOPs, in_features=896, out_features=1280, bias=False)
                (act_fn): SiLU(0 = 0% Params, 0 MACs = 0% MACs, 103.04 KFLOPS = 0% FLOPs)
              )
              (45): DeepseekV2MLP(
                3.44 M = 0.1021% Params, 227.08 MMACs = 0.0049% MACs, 454.28 MFLOPS = 0.0049% FLOPs
                (gate_proj): Linear(1.15 M = 0.034% Params, 75.69 MMACs = 0.0016% MACs, 151.39 MFLOPS = 0.0016% FLOPs, in_features=1280, out_features=896, bias=False)
                (up_proj): Linear(1.15 M = 0.034% Params, 75.69 MMACs = 0.0016% MACs, 151.39 MFLOPS = 0.0016% FLOPs, in_features=1280, out_features=896, bias=False)
                (down_proj): Linear(1.15 M = 0.034% Params, 75.69 MMACs = 0.0016% MACs, 151.39 MFLOPS = 0.0016% FLOPs, in_features=896, out_features=1280, bias=False)
                (act_fn): SiLU(0 = 0% Params, 0 MACs = 0% MACs, 59.14 KFLOPS = 0% FLOPs)
              )
              (46): DeepseekV2MLP(
                3.44 M = 0.1021% Params, 3.49 GMACs = 0.076% MACs, 6.98 GFLOPS = 0.075% FLOPs
                (gate_proj): Linear(1.15 M = 0.034% Params, 1.16 GMACs = 0.0253% MACs, 2.33 GFLOPS = 0.025% FLOPs, in_features=1280, out_features=896, bias=False)
                (up_proj): Linear(1.15 M = 0.034% Params, 1.16 GMACs = 0.0253% MACs, 2.33 GFLOPS = 0.025% FLOPs, in_features=1280, out_features=896, bias=False)
                (down_proj): Linear(1.15 M = 0.034% Params, 1.16 GMACs = 0.0253% MACs, 2.33 GFLOPS = 0.025% FLOPs, in_features=896, out_features=1280, bias=False)
                (act_fn): SiLU(0 = 0% Params, 0 MACs = 0% MACs, 908.54 KFLOPS = 0% FLOPs)
              )
              (47): DeepseekV2MLP(
                3.44 M = 0.1021% Params, 911.77 MMACs = 0.0199% MACs, 1.82 GFLOPS = 0.0196% FLOPs
                (gate_proj): Linear(1.15 M = 0.034% Params, 303.92 MMACs = 0.0066% MACs, 607.85 MFLOPS = 0.0065% FLOPs, in_features=1280, out_features=896, bias=False)
                (up_proj): Linear(1.15 M = 0.034% Params, 303.92 MMACs = 0.0066% MACs, 607.85 MFLOPS = 0.0065% FLOPs, in_features=1280, out_features=896, bias=False)
                (down_proj): Linear(1.15 M = 0.034% Params, 303.92 MMACs = 0.0066% MACs, 607.85 MFLOPS = 0.0065% FLOPs, in_features=896, out_features=1280, bias=False)
                (act_fn): SiLU(0 = 0% Params, 0 MACs = 0% MACs, 237.44 KFLOPS = 0% FLOPs)
              )
              (48): DeepseekV2MLP(
                3.44 M = 0.1021% Params, 433.52 MMACs = 0.0094% MACs, 867.27 MFLOPS = 0.0093% FLOPs
                (gate_proj): Linear(1.15 M = 0.034% Params, 144.51 MMACs = 0.0031% MACs, 289.01 MFLOPS = 0.0031% FLOPs, in_features=1280, out_features=896, bias=False)
                (up_proj): Linear(1.15 M = 0.034% Params, 144.51 MMACs = 0.0031% MACs, 289.01 MFLOPS = 0.0031% FLOPs, in_features=1280, out_features=896, bias=False)
                (down_proj): Linear(1.15 M = 0.034% Params, 144.51 MMACs = 0.0031% MACs, 289.01 MFLOPS = 0.0031% FLOPs, in_features=896, out_features=1280, bias=False)
                (act_fn): SiLU(0 = 0% Params, 0 MACs = 0% MACs, 112.9 KFLOPS = 0% FLOPs)
              )
              (49): DeepseekV2MLP(
                3.44 M = 0.1021% Params, 608.99 MMACs = 0.0133% MACs, 1.22 GFLOPS = 0.0131% FLOPs
                (gate_proj): Linear(1.15 M = 0.034% Params, 203 MMACs = 0.0044% MACs, 406 MFLOPS = 0.0044% FLOPs, in_features=1280, out_features=896, bias=False)
                (up_proj): Linear(1.15 M = 0.034% Params, 203 MMACs = 0.0044% MACs, 406 MFLOPS = 0.0044% FLOPs, in_features=1280, out_features=896, bias=False)
                (down_proj): Linear(1.15 M = 0.034% Params, 203 MMACs = 0.0044% MACs, 406 MFLOPS = 0.0044% FLOPs, in_features=896, out_features=1280, bias=False)
                (act_fn): SiLU(0 = 0% Params, 0 MACs = 0% MACs, 158.59 KFLOPS = 0% FLOPs)
              )
              (50): DeepseekV2MLP(
                3.44 M = 0.1021% Params, 2.29 GMACs = 0.0499% MACs, 4.58 GFLOPS = 0.0492% FLOPs
                (gate_proj): Linear(1.15 M = 0.034% Params, 763.82 MMACs = 0.0166% MACs, 1.53 GFLOPS = 0.0164% FLOPs, in_features=1280, out_features=896, bias=False)
                (up_proj): Linear(1.15 M = 0.034% Params, 763.82 MMACs = 0.0166% MACs, 1.53 GFLOPS = 0.0164% FLOPs, in_features=1280, out_features=896, bias=False)
                (down_proj): Linear(1.15 M = 0.034% Params, 763.82 MMACs = 0.0166% MACs, 1.53 GFLOPS = 0.0164% FLOPs, in_features=896, out_features=1280, bias=False)
                (act_fn): SiLU(0 = 0% Params, 0 MACs = 0% MACs, 596.74 KFLOPS = 0% FLOPs)
              )
              (51): DeepseekV2MLP(
                3.44 M = 0.1021% Params, 268.37 MMACs = 0.0058% MACs, 536.88 MFLOPS = 0.0058% FLOPs
                (gate_proj): Linear(1.15 M = 0.034% Params, 89.46 MMACs = 0.0019% MACs, 178.91 MFLOPS = 0.0019% FLOPs, in_features=1280, out_features=896, bias=False)
                (up_proj): Linear(1.15 M = 0.034% Params, 89.46 MMACs = 0.0019% MACs, 178.91 MFLOPS = 0.0019% FLOPs, in_features=1280, out_features=896, bias=False)
                (down_proj): Linear(1.15 M = 0.034% Params, 89.46 MMACs = 0.0019% MACs, 178.91 MFLOPS = 0.0019% FLOPs, in_features=896, out_features=1280, bias=False)
                (act_fn): SiLU(0 = 0% Params, 0 MACs = 0% MACs, 69.89 KFLOPS = 0% FLOPs)
              )
              (52): DeepseekV2MLP(
                3.44 M = 0.1021% Params, 392.23 MMACs = 0.0085% MACs, 784.67 MFLOPS = 0.0084% FLOPs
                (gate_proj): Linear(1.15 M = 0.034% Params, 130.74 MMACs = 0.0028% MACs, 261.49 MFLOPS = 0.0028% FLOPs, in_features=1280, out_features=896, bias=False)
                (up_proj): Linear(1.15 M = 0.034% Params, 130.74 MMACs = 0.0028% MACs, 261.49 MFLOPS = 0.0028% FLOPs, in_features=1280, out_features=896, bias=False)
                (down_proj): Linear(1.15 M = 0.034% Params, 130.74 MMACs = 0.0028% MACs, 261.49 MFLOPS = 0.0028% FLOPs, in_features=896, out_features=1280, bias=False)
                (act_fn): SiLU(0 = 0% Params, 0 MACs = 0% MACs, 102.14 KFLOPS = 0% FLOPs)
              )
              (53): DeepseekV2MLP(
                3.44 M = 0.1021% Params, 863.6 MMACs = 0.0188% MACs, 1.73 GFLOPS = 0.0186% FLOPs
                (gate_proj): Linear(1.15 M = 0.034% Params, 287.87 MMACs = 0.0063% MACs, 575.73 MFLOPS = 0.0062% FLOPs, in_features=1280, out_features=896, bias=False)
                (up_proj): Linear(1.15 M = 0.034% Params, 287.87 MMACs = 0.0063% MACs, 575.73 MFLOPS = 0.0062% FLOPs, in_features=1280, out_features=896, bias=False)
                (down_proj): Linear(1.15 M = 0.034% Params, 287.87 MMACs = 0.0063% MACs, 575.73 MFLOPS = 0.0062% FLOPs, in_features=896, out_features=1280, bias=False)
                (act_fn): SiLU(0 = 0% Params, 0 MACs = 0% MACs, 224.9 KFLOPS = 0% FLOPs)
              )
              (54): DeepseekV2MLP(
                3.44 M = 0.1021% Params, 2.79 GMACs = 0.0608% MACs, 5.58 GFLOPS = 0.06% FLOPs
                (gate_proj): Linear(1.15 M = 0.034% Params, 930.12 MMACs = 0.0203% MACs, 1.86 GFLOPS = 0.02% FLOPs, in_features=1280, out_features=896, bias=False)
                (up_proj): Linear(1.15 M = 0.034% Params, 930.12 MMACs = 0.0203% MACs, 1.86 GFLOPS = 0.02% FLOPs, in_features=1280, out_features=896, bias=False)
                (down_proj): Linear(1.15 M = 0.034% Params, 930.12 MMACs = 0.0203% MACs, 1.86 GFLOPS = 0.02% FLOPs, in_features=896, out_features=1280, bias=False)
                (act_fn): SiLU(0 = 0% Params, 0 MACs = 0% MACs, 726.66 KFLOPS = 0% FLOPs)
              )
              (55): DeepseekV2MLP(
                3.44 M = 0.1021% Params, 870.48 MMACs = 0.019% MACs, 1.74 GFLOPS = 0.0187% FLOPs
                (gate_proj): Linear(1.15 M = 0.034% Params, 290.16 MMACs = 0.0063% MACs, 580.32 MFLOPS = 0.0062% FLOPs, in_features=1280, out_features=896, bias=False)
                (up_proj): Linear(1.15 M = 0.034% Params, 290.16 MMACs = 0.0063% MACs, 580.32 MFLOPS = 0.0062% FLOPs, in_features=1280, out_features=896, bias=False)
                (down_proj): Linear(1.15 M = 0.034% Params, 290.16 MMACs = 0.0063% MACs, 580.32 MFLOPS = 0.0062% FLOPs, in_features=896, out_features=1280, bias=False)
                (act_fn): SiLU(0 = 0% Params, 0 MACs = 0% MACs, 226.69 KFLOPS = 0% FLOPs)
              )
              (56): DeepseekV2MLP(
                3.44 M = 0.1021% Params, 278.69 MMACs = 0.0061% MACs, 557.53 MFLOPS = 0.006% FLOPs
                (gate_proj): Linear(1.15 M = 0.034% Params, 92.9 MMACs = 0.002% MACs, 185.79 MFLOPS = 0.002% FLOPs, in_features=1280, out_features=896, bias=False)
                (up_proj): Linear(1.15 M = 0.034% Params, 92.9 MMACs = 0.002% MACs, 185.79 MFLOPS = 0.002% FLOPs, in_features=1280, out_features=896, bias=False)
                (down_proj): Linear(1.15 M = 0.034% Params, 92.9 MMACs = 0.002% MACs, 185.79 MFLOPS = 0.002% FLOPs, in_features=896, out_features=1280, bias=False)
                (act_fn): SiLU(0 = 0% Params, 0 MACs = 0% MACs, 72.58 KFLOPS = 0% FLOPs)
              )
              (57): DeepseekV2MLP(
                3.44 M = 0.1021% Params, 502.33 MMACs = 0.0109% MACs, 1 GFLOPS = 0.0108% FLOPs
                (gate_proj): Linear(1.15 M = 0.034% Params, 167.44 MMACs = 0.0036% MACs, 334.89 MFLOPS = 0.0036% FLOPs, in_features=1280, out_features=896, bias=False)
                (up_proj): Linear(1.15 M = 0.034% Params, 167.44 MMACs = 0.0036% MACs, 334.89 MFLOPS = 0.0036% FLOPs, in_features=1280, out_features=896, bias=False)
                (down_proj): Linear(1.15 M = 0.034% Params, 167.44 MMACs = 0.0036% MACs, 334.89 MFLOPS = 0.0036% FLOPs, in_features=896, out_features=1280, bias=False)
                (act_fn): SiLU(0 = 0% Params, 0 MACs = 0% MACs, 130.82 KFLOPS = 0% FLOPs)
              )
              (58): DeepseekV2MLP(
                3.44 M = 0.1021% Params, 244.29 MMACs = 0.0053% MACs, 488.7 MFLOPS = 0.0053% FLOPs
                (gate_proj): Linear(1.15 M = 0.034% Params, 81.43 MMACs = 0.0018% MACs, 162.86 MFLOPS = 0.0017% FLOPs, in_features=1280, out_features=896, bias=False)
                (up_proj): Linear(1.15 M = 0.034% Params, 81.43 MMACs = 0.0018% MACs, 162.86 MFLOPS = 0.0017% FLOPs, in_features=1280, out_features=896, bias=False)
                (down_proj): Linear(1.15 M = 0.034% Params, 81.43 MMACs = 0.0018% MACs, 162.86 MFLOPS = 0.0017% FLOPs, in_features=896, out_features=1280, bias=False)
                (act_fn): SiLU(0 = 0% Params, 0 MACs = 0% MACs, 63.62 KFLOPS = 0% FLOPs)
              )
              (59): DeepseekV2MLP(
                3.44 M = 0.1021% Params, 1.08 GMACs = 0.0236% MACs, 2.17 GFLOPS = 0.0233% FLOPs
                (gate_proj): Linear(1.15 M = 0.034% Params, 361.27 MMACs = 0.0079% MACs, 722.53 MFLOPS = 0.0078% FLOPs, in_features=1280, out_features=896, bias=False)
                (up_proj): Linear(1.15 M = 0.034% Params, 361.27 MMACs = 0.0079% MACs, 722.53 MFLOPS = 0.0078% FLOPs, in_features=1280, out_features=896, bias=False)
                (down_proj): Linear(1.15 M = 0.034% Params, 361.27 MMACs = 0.0079% MACs, 722.53 MFLOPS = 0.0078% FLOPs, in_features=896, out_features=1280, bias=False)
                (act_fn): SiLU(0 = 0% Params, 0 MACs = 0% MACs, 282.24 KFLOPS = 0% FLOPs)
              )
              (60): DeepseekV2MLP(
                3.44 M = 0.1021% Params, 746.62 MMACs = 0.0163% MACs, 1.49 GFLOPS = 0.016% FLOPs
                (gate_proj): Linear(1.15 M = 0.034% Params, 248.87 MMACs = 0.0054% MACs, 497.75 MFLOPS = 0.0053% FLOPs, in_features=1280, out_features=896, bias=False)
                (up_proj): Linear(1.15 M = 0.034% Params, 248.87 MMACs = 0.0054% MACs, 497.75 MFLOPS = 0.0053% FLOPs, in_features=1280, out_features=896, bias=False)
                (down_proj): Linear(1.15 M = 0.034% Params, 248.87 MMACs = 0.0054% MACs, 497.75 MFLOPS = 0.0053% FLOPs, in_features=896, out_features=1280, bias=False)
                (act_fn): SiLU(0 = 0% Params, 0 MACs = 0% MACs, 194.43 KFLOPS = 0% FLOPs)
              )
              (61): DeepseekV2MLP(
                3.44 M = 0.1021% Params, 1.35 GMACs = 0.0294% MACs, 2.7 GFLOPS = 0.029% FLOPs
                (gate_proj): Linear(1.15 M = 0.034% Params, 449.58 MMACs = 0.0098% MACs, 899.15 MFLOPS = 0.0097% FLOPs, in_features=1280, out_features=896, bias=False)
                (up_proj): Linear(1.15 M = 0.034% Params, 449.58 MMACs = 0.0098% MACs, 899.15 MFLOPS = 0.0097% FLOPs, in_features=1280, out_features=896, bias=False)
                (down_proj): Linear(1.15 M = 0.034% Params, 449.58 MMACs = 0.0098% MACs, 899.15 MFLOPS = 0.0097% FLOPs, in_features=896, out_features=1280, bias=False)
                (act_fn): SiLU(0 = 0% Params, 0 MACs = 0% MACs, 351.23 KFLOPS = 0% FLOPs)
              )
              (62): DeepseekV2MLP(
                3.44 M = 0.1021% Params, 2.03 GMACs = 0.0442% MACs, 4.06 GFLOPS = 0.0436% FLOPs
                (gate_proj): Linear(1.15 M = 0.034% Params, 676.66 MMACs = 0.0147% MACs, 1.35 GFLOPS = 0.0145% FLOPs, in_features=1280, out_features=896, bias=False)
                (up_proj): Linear(1.15 M = 0.034% Params, 676.66 MMACs = 0.0147% MACs, 1.35 GFLOPS = 0.0145% FLOPs, in_features=1280, out_features=896, bias=False)
                (down_proj): Linear(1.15 M = 0.034% Params, 676.66 MMACs = 0.0147% MACs, 1.35 GFLOPS = 0.0145% FLOPs, in_features=896, out_features=1280, bias=False)
                (act_fn): SiLU(0 = 0% Params, 0 MACs = 0% MACs, 528.64 KFLOPS = 0% FLOPs)
              )
              (63): DeepseekV2MLP(
                3.44 M = 0.1021% Params, 457.61 MMACs = 0.01% MACs, 915.45 MFLOPS = 0.0098% FLOPs
                (gate_proj): Linear(1.15 M = 0.034% Params, 152.54 MMACs = 0.0033% MACs, 305.07 MFLOPS = 0.0033% FLOPs, in_features=1280, out_features=896, bias=False)
                (up_proj): Linear(1.15 M = 0.034% Params, 152.54 MMACs = 0.0033% MACs, 305.07 MFLOPS = 0.0033% FLOPs, in_features=1280, out_features=896, bias=False)
                (down_proj): Linear(1.15 M = 0.034% Params, 152.54 MMACs = 0.0033% MACs, 305.07 MFLOPS = 0.0033% FLOPs, in_features=896, out_features=1280, bias=False)
                (act_fn): SiLU(0 = 0% Params, 0 MACs = 0% MACs, 119.17 KFLOPS = 0% FLOPs)
              )
            )
            (gate): MoEGate(81.92 K = 0.0024% Params, 232.57 MMACs = 0.0051% MACs, 465.16 MFLOPS = 0.005% FLOPs)
            (shared_experts): DeepseekV2MLP(
              6.88 M = 0.2042% Params, 19.54 GMACs = 0.4254% MACs, 39.08 GFLOPS = 0.4199% FLOPs
              (gate_proj): Linear(2.29 M = 0.0681% Params, 6.51 GMACs = 0.1418% MACs, 13.02 GFLOPS = 0.1399% FLOPs, in_features=1280, out_features=1792, bias=False)
              (up_proj): Linear(2.29 M = 0.0681% Params, 6.51 GMACs = 0.1418% MACs, 13.02 GFLOPS = 0.1399% FLOPs, in_features=1280, out_features=1792, bias=False)
              (down_proj): Linear(2.29 M = 0.0681% Params, 6.51 GMACs = 0.1418% MACs, 13.02 GFLOPS = 0.1399% FLOPs, in_features=1792, out_features=1280, bias=False)
              (act_fn): SiLU(0 = 0% Params, 0 MACs = 0% MACs, 5.09 MFLOPS = 0.0001% FLOPs)
            )
          )
          (input_layernorm): DeepseekV2RMSNorm(1.28 K = 0% Params, 0 MACs = 0% MACs, 4.66 GFLOPS = 0.05% FLOPs)
          (post_attention_layernorm): DeepseekV2RMSNorm(1.28 K = 0% Params, 0 MACs = 0% MACs, 4.66 GFLOPS = 0.05% FLOPs)
        )
        (2): DeepseekV2DecoderLayer(
          233.72 M = 6.9343% Params, 117.62 GMACs = 2.5612% MACs, 244.86 GFLOPS = 2.6306% FLOPs
          (self_attn): LlamaAttention(
            6.55 M = 0.1944% Params, 39.24 GMACs = 0.8545% MACs, 78.74 GFLOPS = 0.846% FLOPs
            (q_proj): Linear(1.64 M = 0.0486% Params, 4.65 GMACs = 0.1013% MACs, 9.3 GFLOPS = 0.0999% FLOPs, in_features=1280, out_features=1280, bias=False)
            (k_proj): Linear(1.64 M = 0.0486% Params, 4.65 GMACs = 0.1013% MACs, 9.3 GFLOPS = 0.0999% FLOPs, in_features=1280, out_features=1280, bias=False)
            (v_proj): Linear(1.64 M = 0.0486% Params, 4.65 GMACs = 0.1013% MACs, 9.3 GFLOPS = 0.0999% FLOPs, in_features=1280, out_features=1280, bias=False)
            (o_proj): Linear(1.64 M = 0.0486% Params, 4.65 GMACs = 0.1013% MACs, 9.3 GFLOPS = 0.0999% FLOPs, in_features=1280, out_features=1280, bias=False)
            (rotary_emb): LlamaRotaryEmbedding(0 = 0% Params, 181.7 KMACs = 0% MACs, 1.09 MFLOPS = 0% FLOPs)
          )
          (mlp): DeepseekV2MoE(
            227.16 M = 6.7398% Params, 78.38 GMACs = 1.7067% MACs, 156.8 GFLOPS = 1.6846% FLOPs
            (experts): ModuleList(
              (0): DeepseekV2MLP(
                3.44 M = 0.1021% Params, 870.48 MMACs = 0.019% MACs, 1.74 GFLOPS = 0.0187% FLOPs
                (gate_proj): Linear(1.15 M = 0.034% Params, 290.16 MMACs = 0.0063% MACs, 580.32 MFLOPS = 0.0062% FLOPs, in_features=1280, out_features=896, bias=False)
                (up_proj): Linear(1.15 M = 0.034% Params, 290.16 MMACs = 0.0063% MACs, 580.32 MFLOPS = 0.0062% FLOPs, in_features=1280, out_features=896, bias=False)
                (down_proj): Linear(1.15 M = 0.034% Params, 290.16 MMACs = 0.0063% MACs, 580.32 MFLOPS = 0.0062% FLOPs, in_features=896, out_features=1280, bias=False)
                (act_fn): SiLU(0 = 0% Params, 0 MACs = 0% MACs, 226.69 KFLOPS = 0% FLOPs)
              )
              (1): DeepseekV2MLP(
                3.44 M = 0.1021% Params, 495.45 MMACs = 0.0108% MACs, 991.16 MFLOPS = 0.0106% FLOPs
                (gate_proj): Linear(1.15 M = 0.034% Params, 165.15 MMACs = 0.0036% MACs, 330.3 MFLOPS = 0.0035% FLOPs, in_features=1280, out_features=896, bias=False)
                (up_proj): Linear(1.15 M = 0.034% Params, 165.15 MMACs = 0.0036% MACs, 330.3 MFLOPS = 0.0035% FLOPs, in_features=1280, out_features=896, bias=False)
                (down_proj): Linear(1.15 M = 0.034% Params, 165.15 MMACs = 0.0036% MACs, 330.3 MFLOPS = 0.0035% FLOPs, in_features=896, out_features=1280, bias=False)
                (act_fn): SiLU(0 = 0% Params, 0 MACs = 0% MACs, 129.02 KFLOPS = 0% FLOPs)
              )
              (2): DeepseekV2MLP(
                3.44 M = 0.1021% Params, 512.66 MMACs = 0.0112% MACs, 1.03 GFLOPS = 0.011% FLOPs
                (gate_proj): Linear(1.15 M = 0.034% Params, 170.89 MMACs = 0.0037% MACs, 341.77 MFLOPS = 0.0037% FLOPs, in_features=1280, out_features=896, bias=False)
                (up_proj): Linear(1.15 M = 0.034% Params, 170.89 MMACs = 0.0037% MACs, 341.77 MFLOPS = 0.0037% FLOPs, in_features=1280, out_features=896, bias=False)
                (down_proj): Linear(1.15 M = 0.034% Params, 170.89 MMACs = 0.0037% MACs, 341.77 MFLOPS = 0.0037% FLOPs, in_features=896, out_features=1280, bias=False)
                (act_fn): SiLU(0 = 0% Params, 0 MACs = 0% MACs, 133.5 KFLOPS = 0% FLOPs)
              )
              (3): DeepseekV2MLP(
                3.44 M = 0.1021% Params, 963.38 MMACs = 0.021% MACs, 1.93 GFLOPS = 0.0207% FLOPs
                (gate_proj): Linear(1.15 M = 0.034% Params, 321.13 MMACs = 0.007% MACs, 642.25 MFLOPS = 0.0069% FLOPs, in_features=1280, out_features=896, bias=False)
                (up_proj): Linear(1.15 M = 0.034% Params, 321.13 MMACs = 0.007% MACs, 642.25 MFLOPS = 0.0069% FLOPs, in_features=1280, out_features=896, bias=False)
                (down_proj): Linear(1.15 M = 0.034% Params, 321.13 MMACs = 0.007% MACs, 642.25 MFLOPS = 0.0069% FLOPs, in_features=896, out_features=1280, bias=False)
                (act_fn): SiLU(0 = 0% Params, 0 MACs = 0% MACs, 250.88 KFLOPS = 0% FLOPs)
              )
              (4): DeepseekV2MLP(
                3.44 M = 0.1021% Params, 1.09 GMACs = 0.0238% MACs, 2.19 GFLOPS = 0.0235% FLOPs
                (gate_proj): Linear(1.15 M = 0.034% Params, 364.71 MMACs = 0.0079% MACs, 729.42 MFLOPS = 0.0078% FLOPs, in_features=1280, out_features=896, bias=False)
                (up_proj): Linear(1.15 M = 0.034% Params, 364.71 MMACs = 0.0079% MACs, 729.42 MFLOPS = 0.0078% FLOPs, in_features=1280, out_features=896, bias=False)
                (down_proj): Linear(1.15 M = 0.034% Params, 364.71 MMACs = 0.0079% MACs, 729.42 MFLOPS = 0.0078% FLOPs, in_features=896, out_features=1280, bias=False)
                (act_fn): SiLU(0 = 0% Params, 0 MACs = 0% MACs, 284.93 KFLOPS = 0% FLOPs)
              )
              (5): DeepseekV2MLP(
                3.44 M = 0.1021% Params, 805.11 MMACs = 0.0175% MACs, 1.61 GFLOPS = 0.0173% FLOPs
                (gate_proj): Linear(1.15 M = 0.034% Params, 268.37 MMACs = 0.0058% MACs, 536.74 MFLOPS = 0.0058% FLOPs, in_features=1280, out_features=896, bias=False)
                (up_proj): Linear(1.15 M = 0.034% Params, 268.37 MMACs = 0.0058% MACs, 536.74 MFLOPS = 0.0058% FLOPs, in_features=1280, out_features=896, bias=False)
                (down_proj): Linear(1.15 M = 0.034% Params, 268.37 MMACs = 0.0058% MACs, 536.74 MFLOPS = 0.0058% FLOPs, in_features=896, out_features=1280, bias=False)
                (act_fn): SiLU(0 = 0% Params, 0 MACs = 0% MACs, 209.66 KFLOPS = 0% FLOPs)
              )
              (6): DeepseekV2MLP(
                3.44 M = 0.1021% Params, 457.61 MMACs = 0.01% MACs, 915.45 MFLOPS = 0.0098% FLOPs
                (gate_proj): Linear(1.15 M = 0.034% Params, 152.54 MMACs = 0.0033% MACs, 305.07 MFLOPS = 0.0033% FLOPs, in_features=1280, out_features=896, bias=False)
                (up_proj): Linear(1.15 M = 0.034% Params, 152.54 MMACs = 0.0033% MACs, 305.07 MFLOPS = 0.0033% FLOPs, in_features=1280, out_features=896, bias=False)
                (down_proj): Linear(1.15 M = 0.034% Params, 152.54 MMACs = 0.0033% MACs, 305.07 MFLOPS = 0.0033% FLOPs, in_features=896, out_features=1280, bias=False)
                (act_fn): SiLU(0 = 0% Params, 0 MACs = 0% MACs, 119.17 KFLOPS = 0% FLOPs)
              )
              (7): DeepseekV2MLP(
                3.44 M = 0.1021% Params, 608.99 MMACs = 0.0133% MACs, 1.22 GFLOPS = 0.0131% FLOPs
                (gate_proj): Linear(1.15 M = 0.034% Params, 203 MMACs = 0.0044% MACs, 406 MFLOPS = 0.0044% FLOPs, in_features=1280, out_features=896, bias=False)
                (up_proj): Linear(1.15 M = 0.034% Params, 203 MMACs = 0.0044% MACs, 406 MFLOPS = 0.0044% FLOPs, in_features=1280, out_features=896, bias=False)
                (down_proj): Linear(1.15 M = 0.034% Params, 203 MMACs = 0.0044% MACs, 406 MFLOPS = 0.0044% FLOPs, in_features=896, out_features=1280, bias=False)
                (act_fn): SiLU(0 = 0% Params, 0 MACs = 0% MACs, 158.59 KFLOPS = 0% FLOPs)
              )
              (8): DeepseekV2MLP(
                3.44 M = 0.1021% Params, 932.41 MMACs = 0.0203% MACs, 1.87 GFLOPS = 0.02% FLOPs
                (gate_proj): Linear(1.15 M = 0.034% Params, 310.8 MMACs = 0.0068% MACs, 621.61 MFLOPS = 0.0067% FLOPs, in_features=1280, out_features=896, bias=False)
                (up_proj): Linear(1.15 M = 0.034% Params, 310.8 MMACs = 0.0068% MACs, 621.61 MFLOPS = 0.0067% FLOPs, in_features=1280, out_features=896, bias=False)
                (down_proj): Linear(1.15 M = 0.034% Params, 310.8 MMACs = 0.0068% MACs, 621.61 MFLOPS = 0.0067% FLOPs, in_features=896, out_features=1280, bias=False)
                (act_fn): SiLU(0 = 0% Params, 0 MACs = 0% MACs, 242.82 KFLOPS = 0% FLOPs)
              )
              (9): DeepseekV2MLP(
                3.44 M = 0.1021% Params, 891.13 MMACs = 0.0194% MACs, 1.78 GFLOPS = 0.0192% FLOPs
                (gate_proj): Linear(1.15 M = 0.034% Params, 297.04 MMACs = 0.0065% MACs, 594.08 MFLOPS = 0.0064% FLOPs, in_features=1280, out_features=896, bias=False)
                (up_proj): Linear(1.15 M = 0.034% Params, 297.04 MMACs = 0.0065% MACs, 594.08 MFLOPS = 0.0064% FLOPs, in_features=1280, out_features=896, bias=False)
                (down_proj): Linear(1.15 M = 0.034% Params, 297.04 MMACs = 0.0065% MACs, 594.08 MFLOPS = 0.0064% FLOPs, in_features=896, out_features=1280, bias=False)
                (act_fn): SiLU(0 = 0% Params, 0 MACs = 0% MACs, 232.06 KFLOPS = 0% FLOPs)
              )
              (10): DeepseekV2MLP(
                3.44 M = 0.1021% Params, 440.4 MMACs = 0.0096% MACs, 881.03 MFLOPS = 0.0095% FLOPs
                (gate_proj): Linear(1.15 M = 0.034% Params, 146.8 MMACs = 0.0032% MACs, 293.6 MFLOPS = 0.0032% FLOPs, in_features=1280, out_features=896, bias=False)
                (up_proj): Linear(1.15 M = 0.034% Params, 146.8 MMACs = 0.0032% MACs, 293.6 MFLOPS = 0.0032% FLOPs, in_features=1280, out_features=896, bias=False)
                (down_proj): Linear(1.15 M = 0.034% Params, 146.8 MMACs = 0.0032% MACs, 293.6 MFLOPS = 0.0032% FLOPs, in_features=896, out_features=1280, bias=False)
                (act_fn): SiLU(0 = 0% Params, 0 MACs = 0% MACs, 114.69 KFLOPS = 0% FLOPs)
              )
              (11): DeepseekV2MLP(
                3.44 M = 0.1021% Params, 712.21 MMACs = 0.0155% MACs, 1.42 GFLOPS = 0.0153% FLOPs
                (gate_proj): Linear(1.15 M = 0.034% Params, 237.4 MMACs = 0.0052% MACs, 474.81 MFLOPS = 0.0051% FLOPs, in_features=1280, out_features=896, bias=False)
                (up_proj): Linear(1.15 M = 0.034% Params, 237.4 MMACs = 0.0052% MACs, 474.81 MFLOPS = 0.0051% FLOPs, in_features=1280, out_features=896, bias=False)
                (down_proj): Linear(1.15 M = 0.034% Params, 237.4 MMACs = 0.0052% MACs, 474.81 MFLOPS = 0.0051% FLOPs, in_features=896, out_features=1280, bias=False)
                (act_fn): SiLU(0 = 0% Params, 0 MACs = 0% MACs, 185.47 KFLOPS = 0% FLOPs)
              )
              (12): DeepseekV2MLP(
                3.44 M = 0.1021% Params, 340.62 MMACs = 0.0074% MACs, 681.42 MFLOPS = 0.0073% FLOPs
                (gate_proj): Linear(1.15 M = 0.034% Params, 113.54 MMACs = 0.0025% MACs, 227.08 MFLOPS = 0.0024% FLOPs, in_features=1280, out_features=896, bias=False)
                (up_proj): Linear(1.15 M = 0.034% Params, 113.54 MMACs = 0.0025% MACs, 227.08 MFLOPS = 0.0024% FLOPs, in_features=1280, out_features=896, bias=False)
                (down_proj): Linear(1.15 M = 0.034% Params, 113.54 MMACs = 0.0025% MACs, 227.08 MFLOPS = 0.0024% FLOPs, in_features=896, out_features=1280, bias=False)
                (act_fn): SiLU(0 = 0% Params, 0 MACs = 0% MACs, 88.7 KFLOPS = 0% FLOPs)
              )
              (13): DeepseekV2MLP(
                3.44 M = 0.1021% Params, 1.37 GMACs = 0.0298% MACs, 2.74 GFLOPS = 0.0294% FLOPs
                (gate_proj): Linear(1.15 M = 0.034% Params, 456.46 MMACs = 0.0099% MACs, 912.92 MFLOPS = 0.0098% FLOPs, in_features=1280, out_features=896, bias=False)
                (up_proj): Linear(1.15 M = 0.034% Params, 456.46 MMACs = 0.0099% MACs, 912.92 MFLOPS = 0.0098% FLOPs, in_features=1280, out_features=896, bias=False)
                (down_proj): Linear(1.15 M = 0.034% Params, 456.46 MMACs = 0.0099% MACs, 912.92 MFLOPS = 0.0098% FLOPs, in_features=896, out_features=1280, bias=False)
                (act_fn): SiLU(0 = 0% Params, 0 MACs = 0% MACs, 356.61 KFLOPS = 0% FLOPs)
              )
              (14): DeepseekV2MLP(
                3.44 M = 0.1021% Params, 887.69 MMACs = 0.0193% MACs, 1.78 GFLOPS = 0.0191% FLOPs
                (gate_proj): Linear(1.15 M = 0.034% Params, 295.9 MMACs = 0.0064% MACs, 591.79 MFLOPS = 0.0064% FLOPs, in_features=1280, out_features=896, bias=False)
                (up_proj): Linear(1.15 M = 0.034% Params, 295.9 MMACs = 0.0064% MACs, 591.79 MFLOPS = 0.0064% FLOPs, in_features=1280, out_features=896, bias=False)
                (down_proj): Linear(1.15 M = 0.034% Params, 295.9 MMACs = 0.0064% MACs, 591.79 MFLOPS = 0.0064% FLOPs, in_features=896, out_features=1280, bias=False)
                (act_fn): SiLU(0 = 0% Params, 0 MACs = 0% MACs, 231.17 KFLOPS = 0% FLOPs)
              )
              (15): DeepseekV2MLP(
                3.44 M = 0.1021% Params, 519.54 MMACs = 0.0113% MACs, 1.04 GFLOPS = 0.0112% FLOPs
                (gate_proj): Linear(1.15 M = 0.034% Params, 173.18 MMACs = 0.0038% MACs, 346.36 MFLOPS = 0.0037% FLOPs, in_features=1280, out_features=896, bias=False)
                (up_proj): Linear(1.15 M = 0.034% Params, 173.18 MMACs = 0.0038% MACs, 346.36 MFLOPS = 0.0037% FLOPs, in_features=1280, out_features=896, bias=False)
                (down_proj): Linear(1.15 M = 0.034% Params, 173.18 MMACs = 0.0038% MACs, 346.36 MFLOPS = 0.0037% FLOPs, in_features=896, out_features=1280, bias=False)
                (act_fn): SiLU(0 = 0% Params, 0 MACs = 0% MACs, 135.3 KFLOPS = 0% FLOPs)
              )
              (16): DeepseekV2MLP(
                3.44 M = 0.1021% Params, 760.38 MMACs = 0.0166% MACs, 1.52 GFLOPS = 0.0163% FLOPs
                (gate_proj): Linear(1.15 M = 0.034% Params, 253.46 MMACs = 0.0055% MACs, 506.92 MFLOPS = 0.0054% FLOPs, in_features=1280, out_features=896, bias=False)
                (up_proj): Linear(1.15 M = 0.034% Params, 253.46 MMACs = 0.0055% MACs, 506.92 MFLOPS = 0.0054% FLOPs, in_features=1280, out_features=896, bias=False)
                (down_proj): Linear(1.15 M = 0.034% Params, 253.46 MMACs = 0.0055% MACs, 506.92 MFLOPS = 0.0054% FLOPs, in_features=896, out_features=1280, bias=False)
                (act_fn): SiLU(0 = 0% Params, 0 MACs = 0% MACs, 198.02 KFLOPS = 0% FLOPs)
              )
              (17): DeepseekV2MLP(
                3.44 M = 0.1021% Params, 691.57 MMACs = 0.0151% MACs, 1.38 GFLOPS = 0.0149% FLOPs
                (gate_proj): Linear(1.15 M = 0.034% Params, 230.52 MMACs = 0.005% MACs, 461.05 MFLOPS = 0.005% FLOPs, in_features=1280, out_features=896, bias=False)
                (up_proj): Linear(1.15 M = 0.034% Params, 230.52 MMACs = 0.005% MACs, 461.05 MFLOPS = 0.005% FLOPs, in_features=1280, out_features=896, bias=False)
                (down_proj): Linear(1.15 M = 0.034% Params, 230.52 MMACs = 0.005% MACs, 461.05 MFLOPS = 0.005% FLOPs, in_features=896, out_features=1280, bias=False)
                (act_fn): SiLU(0 = 0% Params, 0 MACs = 0% MACs, 180.1 KFLOPS = 0% FLOPs)
              )
              (18): DeepseekV2MLP(
                3.44 M = 0.1021% Params, 1.21 GMACs = 0.0264% MACs, 2.43 GFLOPS = 0.0261% FLOPs
                (gate_proj): Linear(1.15 M = 0.034% Params, 404.85 MMACs = 0.0088% MACs, 809.7 MFLOPS = 0.0087% FLOPs, in_features=1280, out_features=896, bias=False)
                (up_proj): Linear(1.15 M = 0.034% Params, 404.85 MMACs = 0.0088% MACs, 809.7 MFLOPS = 0.0087% FLOPs, in_features=1280, out_features=896, bias=False)
                (down_proj): Linear(1.15 M = 0.034% Params, 404.85 MMACs = 0.0088% MACs, 809.7 MFLOPS = 0.0087% FLOPs, in_features=896, out_features=1280, bias=False)
                (act_fn): SiLU(0 = 0% Params, 0 MACs = 0% MACs, 316.29 KFLOPS = 0% FLOPs)
              )
              (19): DeepseekV2MLP(
                3.44 M = 0.1021% Params, 178.91 MMACs = 0.0039% MACs, 357.92 MFLOPS = 0.0038% FLOPs
                (gate_proj): Linear(1.15 M = 0.034% Params, 59.64 MMACs = 0.0013% MACs, 119.28 MFLOPS = 0.0013% FLOPs, in_features=1280, out_features=896, bias=False)
                (up_proj): Linear(1.15 M = 0.034% Params, 59.64 MMACs = 0.0013% MACs, 119.28 MFLOPS = 0.0013% FLOPs, in_features=1280, out_features=896, bias=False)
                (down_proj): Linear(1.15 M = 0.034% Params, 59.64 MMACs = 0.0013% MACs, 119.28 MFLOPS = 0.0013% FLOPs, in_features=896, out_features=1280, bias=False)
                (act_fn): SiLU(0 = 0% Params, 0 MACs = 0% MACs, 46.59 KFLOPS = 0% FLOPs)
              )
              (20): DeepseekV2MLP(
                3.44 M = 0.1021% Params, 550.5 MMACs = 0.012% MACs, 1.1 GFLOPS = 0.0118% FLOPs
                (gate_proj): Linear(1.15 M = 0.034% Params, 183.5 MMACs = 0.004% MACs, 367 MFLOPS = 0.0039% FLOPs, in_features=1280, out_features=896, bias=False)
                (up_proj): Linear(1.15 M = 0.034% Params, 183.5 MMACs = 0.004% MACs, 367 MFLOPS = 0.0039% FLOPs, in_features=1280, out_features=896, bias=False)
                (down_proj): Linear(1.15 M = 0.034% Params, 183.5 MMACs = 0.004% MACs, 367 MFLOPS = 0.0039% FLOPs, in_features=896, out_features=1280, bias=False)
                (act_fn): SiLU(0 = 0% Params, 0 MACs = 0% MACs, 143.36 KFLOPS = 0% FLOPs)
              )
              (21): DeepseekV2MLP(
                3.44 M = 0.1021% Params, 457.61 MMACs = 0.01% MACs, 915.45 MFLOPS = 0.0098% FLOPs
                (gate_proj): Linear(1.15 M = 0.034% Params, 152.54 MMACs = 0.0033% MACs, 305.07 MFLOPS = 0.0033% FLOPs, in_features=1280, out_features=896, bias=False)
                (up_proj): Linear(1.15 M = 0.034% Params, 152.54 MMACs = 0.0033% MACs, 305.07 MFLOPS = 0.0033% FLOPs, in_features=1280, out_features=896, bias=False)
                (down_proj): Linear(1.15 M = 0.034% Params, 152.54 MMACs = 0.0033% MACs, 305.07 MFLOPS = 0.0033% FLOPs, in_features=896, out_features=1280, bias=False)
                (act_fn): SiLU(0 = 0% Params, 0 MACs = 0% MACs, 119.17 KFLOPS = 0% FLOPs)
              )
              (22): DeepseekV2MLP(
                3.44 M = 0.1021% Params, 3.35 GMACs = 0.073% MACs, 6.71 GFLOPS = 0.0721% FLOPs
                (gate_proj): Linear(1.15 M = 0.034% Params, 1.12 GMACs = 0.0243% MACs, 2.24 GFLOPS = 0.024% FLOPs, in_features=1280, out_features=896, bias=False)
                (up_proj): Linear(1.15 M = 0.034% Params, 1.12 GMACs = 0.0243% MACs, 2.24 GFLOPS = 0.024% FLOPs, in_features=1280, out_features=896, bias=False)
                (down_proj): Linear(1.15 M = 0.034% Params, 1.12 GMACs = 0.0243% MACs, 2.24 GFLOPS = 0.024% FLOPs, in_features=896, out_features=1280, bias=False)
                (act_fn): SiLU(0 = 0% Params, 0 MACs = 0% MACs, 873.6 KFLOPS = 0% FLOPs)
              )
              (23): DeepseekV2MLP(
                3.44 M = 0.1021% Params, 598.67 MMACs = 0.013% MACs, 1.2 GFLOPS = 0.0129% FLOPs
                (gate_proj): Linear(1.15 M = 0.034% Params, 199.56 MMACs = 0.0043% MACs, 399.11 MFLOPS = 0.0043% FLOPs, in_features=1280, out_features=896, bias=False)
                (up_proj): Linear(1.15 M = 0.034% Params, 199.56 MMACs = 0.0043% MACs, 399.11 MFLOPS = 0.0043% FLOPs, in_features=1280, out_features=896, bias=False)
                (down_proj): Linear(1.15 M = 0.034% Params, 199.56 MMACs = 0.0043% MACs, 399.11 MFLOPS = 0.0043% FLOPs, in_features=896, out_features=1280, bias=False)
                (act_fn): SiLU(0 = 0% Params, 0 MACs = 0% MACs, 155.9 KFLOPS = 0% FLOPs)
              )
              (24): DeepseekV2MLP(
                3.44 M = 0.1021% Params, 316.54 MMACs = 0.0069% MACs, 633.24 MFLOPS = 0.0068% FLOPs
                (gate_proj): Linear(1.15 M = 0.034% Params, 105.51 MMACs = 0.0023% MACs, 211.03 MFLOPS = 0.0023% FLOPs, in_features=1280, out_features=896, bias=False)
                (up_proj): Linear(1.15 M = 0.034% Params, 105.51 MMACs = 0.0023% MACs, 211.03 MFLOPS = 0.0023% FLOPs, in_features=1280, out_features=896, bias=False)
                (down_proj): Linear(1.15 M = 0.034% Params, 105.51 MMACs = 0.0023% MACs, 211.03 MFLOPS = 0.0023% FLOPs, in_features=896, out_features=1280, bias=False)
                (act_fn): SiLU(0 = 0% Params, 0 MACs = 0% MACs, 82.43 KFLOPS = 0% FLOPs)
              )
              (25): DeepseekV2MLP(
                3.44 M = 0.1021% Params, 547.06 MMACs = 0.0119% MACs, 1.09 GFLOPS = 0.0118% FLOPs
                (gate_proj): Linear(1.15 M = 0.034% Params, 182.35 MMACs = 0.004% MACs, 364.71 MFLOPS = 0.0039% FLOPs, in_features=1280, out_features=896, bias=False)
                (up_proj): Linear(1.15 M = 0.034% Params, 182.35 MMACs = 0.004% MACs, 364.71 MFLOPS = 0.0039% FLOPs, in_features=1280, out_features=896, bias=False)
                (down_proj): Linear(1.15 M = 0.034% Params, 182.35 MMACs = 0.004% MACs, 364.71 MFLOPS = 0.0039% FLOPs, in_features=896, out_features=1280, bias=False)
                (act_fn): SiLU(0 = 0% Params, 0 MACs = 0% MACs, 142.46 KFLOPS = 0% FLOPs)
              )
              (26): DeepseekV2MLP(
                3.44 M = 0.1021% Params, 667.48 MMACs = 0.0145% MACs, 1.34 GFLOPS = 0.0143% FLOPs
                (gate_proj): Linear(1.15 M = 0.034% Params, 222.49 MMACs = 0.0048% MACs, 444.99 MFLOPS = 0.0048% FLOPs, in_features=1280, out_features=896, bias=False)
                (up_proj): Linear(1.15 M = 0.034% Params, 222.49 MMACs = 0.0048% MACs, 444.99 MFLOPS = 0.0048% FLOPs, in_features=1280, out_features=896, bias=False)
                (down_proj): Linear(1.15 M = 0.034% Params, 222.49 MMACs = 0.0048% MACs, 444.99 MFLOPS = 0.0048% FLOPs, in_features=896, out_features=1280, bias=False)
                (act_fn): SiLU(0 = 0% Params, 0 MACs = 0% MACs, 173.82 KFLOPS = 0% FLOPs)
              )
              (27): DeepseekV2MLP(
                3.44 M = 0.1021% Params, 495.45 MMACs = 0.0108% MACs, 991.16 MFLOPS = 0.0106% FLOPs
                (gate_proj): Linear(1.15 M = 0.034% Params, 165.15 MMACs = 0.0036% MACs, 330.3 MFLOPS = 0.0035% FLOPs, in_features=1280, out_features=896, bias=False)
                (up_proj): Linear(1.15 M = 0.034% Params, 165.15 MMACs = 0.0036% MACs, 330.3 MFLOPS = 0.0035% FLOPs, in_features=1280, out_features=896, bias=False)
                (down_proj): Linear(1.15 M = 0.034% Params, 165.15 MMACs = 0.0036% MACs, 330.3 MFLOPS = 0.0035% FLOPs, in_features=896, out_features=1280, bias=False)
                (act_fn): SiLU(0 = 0% Params, 0 MACs = 0% MACs, 129.02 KFLOPS = 0% FLOPs)
              )
              (28): DeepseekV2MLP(
                3.44 M = 0.1021% Params, 2.01 GMACs = 0.0438% MACs, 4.03 GFLOPS = 0.0433% FLOPs
                (gate_proj): Linear(1.15 M = 0.034% Params, 670.92 MMACs = 0.0146% MACs, 1.34 GFLOPS = 0.0144% FLOPs, in_features=1280, out_features=896, bias=False)
                (up_proj): Linear(1.15 M = 0.034% Params, 670.92 MMACs = 0.0146% MACs, 1.34 GFLOPS = 0.0144% FLOPs, in_features=1280, out_features=896, bias=False)
                (down_proj): Linear(1.15 M = 0.034% Params, 670.92 MMACs = 0.0146% MACs, 1.34 GFLOPS = 0.0144% FLOPs, in_features=896, out_features=1280, bias=False)
                (act_fn): SiLU(0 = 0% Params, 0 MACs = 0% MACs, 524.16 KFLOPS = 0% FLOPs)
              )
              (29): DeepseekV2MLP(
                3.44 M = 0.1021% Params, 1.36 GMACs = 0.0296% MACs, 2.72 GFLOPS = 0.0292% FLOPs
                (gate_proj): Linear(1.15 M = 0.034% Params, 453.02 MMACs = 0.0099% MACs, 906.04 MFLOPS = 0.0097% FLOPs, in_features=1280, out_features=896, bias=False)
                (up_proj): Linear(1.15 M = 0.034% Params, 453.02 MMACs = 0.0099% MACs, 906.04 MFLOPS = 0.0097% FLOPs, in_features=1280, out_features=896, bias=False)
                (down_proj): Linear(1.15 M = 0.034% Params, 453.02 MMACs = 0.0099% MACs, 906.04 MFLOPS = 0.0097% FLOPs, in_features=896, out_features=1280, bias=False)
                (act_fn): SiLU(0 = 0% Params, 0 MACs = 0% MACs, 353.92 KFLOPS = 0% FLOPs)
              )
              (30): DeepseekV2MLP(
                3.44 M = 0.1021% Params, 1.79 GMACs = 0.039% MACs, 3.59 GFLOPS = 0.0385% FLOPs
                (gate_proj): Linear(1.15 M = 0.034% Params, 597.52 MMACs = 0.013% MACs, 1.2 GFLOPS = 0.0128% FLOPs, in_features=1280, out_features=896, bias=False)
                (up_proj): Linear(1.15 M = 0.034% Params, 597.52 MMACs = 0.013% MACs, 1.2 GFLOPS = 0.0128% FLOPs, in_features=1280, out_features=896, bias=False)
                (down_proj): Linear(1.15 M = 0.034% Params, 597.52 MMACs = 0.013% MACs, 1.2 GFLOPS = 0.0128% FLOPs, in_features=896, out_features=1280, bias=False)
                (act_fn): SiLU(0 = 0% Params, 0 MACs = 0% MACs, 466.82 KFLOPS = 0% FLOPs)
              )
              (31): DeepseekV2MLP(
                3.44 M = 0.1021% Params, 337.18 MMACs = 0.0073% MACs, 674.54 MFLOPS = 0.0072% FLOPs
                (gate_proj): Linear(1.15 M = 0.034% Params, 112.39 MMACs = 0.0024% MACs, 224.79 MFLOPS = 0.0024% FLOPs, in_features=1280, out_features=896, bias=False)
                (up_proj): Linear(1.15 M = 0.034% Params, 112.39 MMACs = 0.0024% MACs, 224.79 MFLOPS = 0.0024% FLOPs, in_features=1280, out_features=896, bias=False)
                (down_proj): Linear(1.15 M = 0.034% Params, 112.39 MMACs = 0.0024% MACs, 224.79 MFLOPS = 0.0024% FLOPs, in_features=896, out_features=1280, bias=False)
                (act_fn): SiLU(0 = 0% Params, 0 MACs = 0% MACs, 87.81 KFLOPS = 0% FLOPs)
              )
              (32): DeepseekV2MLP(
                3.44 M = 0.1021% Params, 2.99 GMACs = 0.065% MACs, 5.97 GFLOPS = 0.0642% FLOPs
                (gate_proj): Linear(1.15 M = 0.034% Params, 995.49 MMACs = 0.0217% MACs, 1.99 GFLOPS = 0.0214% FLOPs, in_features=1280, out_features=896, bias=False)
                (up_proj): Linear(1.15 M = 0.034% Params, 995.49 MMACs = 0.0217% MACs, 1.99 GFLOPS = 0.0214% FLOPs, in_features=1280, out_features=896, bias=False)
                (down_proj): Linear(1.15 M = 0.034% Params, 995.49 MMACs = 0.0217% MACs, 1.99 GFLOPS = 0.0214% FLOPs, in_features=896, out_features=1280, bias=False)
                (act_fn): SiLU(0 = 0% Params, 0 MACs = 0% MACs, 777.73 KFLOPS = 0% FLOPs)
              )
              (33): DeepseekV2MLP(
                3.44 M = 0.1021% Params, 1.57 GMACs = 0.0342% MACs, 3.15 GFLOPS = 0.0338% FLOPs
                (gate_proj): Linear(1.15 M = 0.034% Params, 524.12 MMACs = 0.0114% MACs, 1.05 GFLOPS = 0.0113% FLOPs, in_features=1280, out_features=896, bias=False)
                (up_proj): Linear(1.15 M = 0.034% Params, 524.12 MMACs = 0.0114% MACs, 1.05 GFLOPS = 0.0113% FLOPs, in_features=1280, out_features=896, bias=False)
                (down_proj): Linear(1.15 M = 0.034% Params, 524.12 MMACs = 0.0114% MACs, 1.05 GFLOPS = 0.0113% FLOPs, in_features=896, out_features=1280, bias=False)
                (act_fn): SiLU(0 = 0% Params, 0 MACs = 0% MACs, 409.47 KFLOPS = 0% FLOPs)
              )
              (34): DeepseekV2MLP(
                3.44 M = 0.1021% Params, 1.61 GMACs = 0.0351% MACs, 3.22 GFLOPS = 0.0346% FLOPs
                (gate_proj): Linear(1.15 M = 0.034% Params, 536.74 MMACs = 0.0117% MACs, 1.07 GFLOPS = 0.0115% FLOPs, in_features=1280, out_features=896, bias=False)
                (up_proj): Linear(1.15 M = 0.034% Params, 536.74 MMACs = 0.0117% MACs, 1.07 GFLOPS = 0.0115% FLOPs, in_features=1280, out_features=896, bias=False)
                (down_proj): Linear(1.15 M = 0.034% Params, 536.74 MMACs = 0.0117% MACs, 1.07 GFLOPS = 0.0115% FLOPs, in_features=896, out_features=1280, bias=False)
                (act_fn): SiLU(0 = 0% Params, 0 MACs = 0% MACs, 419.33 KFLOPS = 0% FLOPs)
              )
              (35): DeepseekV2MLP(
                3.44 M = 0.1021% Params, 395.67 MMACs = 0.0086% MACs, 791.55 MFLOPS = 0.0085% FLOPs
                (gate_proj): Linear(1.15 M = 0.034% Params, 131.89 MMACs = 0.0029% MACs, 263.78 MFLOPS = 0.0028% FLOPs, in_features=1280, out_features=896, bias=False)
                (up_proj): Linear(1.15 M = 0.034% Params, 131.89 MMACs = 0.0029% MACs, 263.78 MFLOPS = 0.0028% FLOPs, in_features=1280, out_features=896, bias=False)
                (down_proj): Linear(1.15 M = 0.034% Params, 131.89 MMACs = 0.0029% MACs, 263.78 MFLOPS = 0.0028% FLOPs, in_features=896, out_features=1280, bias=False)
                (act_fn): SiLU(0 = 0% Params, 0 MACs = 0% MACs, 103.04 KFLOPS = 0% FLOPs)
              )
              (36): DeepseekV2MLP(
                3.44 M = 0.1021% Params, 615.87 MMACs = 0.0134% MACs, 1.23 GFLOPS = 0.0132% FLOPs
                (gate_proj): Linear(1.15 M = 0.034% Params, 205.29 MMACs = 0.0045% MACs, 410.58 MFLOPS = 0.0044% FLOPs, in_features=1280, out_features=896, bias=False)
                (up_proj): Linear(1.15 M = 0.034% Params, 205.29 MMACs = 0.0045% MACs, 410.58 MFLOPS = 0.0044% FLOPs, in_features=1280, out_features=896, bias=False)
                (down_proj): Linear(1.15 M = 0.034% Params, 205.29 MMACs = 0.0045% MACs, 410.58 MFLOPS = 0.0044% FLOPs, in_features=896, out_features=1280, bias=False)
                (act_fn): SiLU(0 = 0% Params, 0 MACs = 0% MACs, 160.38 KFLOPS = 0% FLOPs)
              )
              (37): DeepseekV2MLP(
                3.44 M = 0.1021% Params, 1.3 GMACs = 0.0283% MACs, 2.6 GFLOPS = 0.028% FLOPs
                (gate_proj): Linear(1.15 M = 0.034% Params, 433.52 MMACs = 0.0094% MACs, 867.04 MFLOPS = 0.0093% FLOPs, in_features=1280, out_features=896, bias=False)
                (up_proj): Linear(1.15 M = 0.034% Params, 433.52 MMACs = 0.0094% MACs, 867.04 MFLOPS = 0.0093% FLOPs, in_features=1280, out_features=896, bias=False)
                (down_proj): Linear(1.15 M = 0.034% Params, 433.52 MMACs = 0.0094% MACs, 867.04 MFLOPS = 0.0093% FLOPs, in_features=896, out_features=1280, bias=False)
                (act_fn): SiLU(0 = 0% Params, 0 MACs = 0% MACs, 338.69 KFLOPS = 0% FLOPs)
              )
              (38): DeepseekV2MLP(
                3.44 M = 0.1021% Params, 698.45 MMACs = 0.0152% MACs, 1.4 GFLOPS = 0.015% FLOPs
                (gate_proj): Linear(1.15 M = 0.034% Params, 232.82 MMACs = 0.0051% MACs, 465.63 MFLOPS = 0.005% FLOPs, in_features=1280, out_features=896, bias=False)
                (up_proj): Linear(1.15 M = 0.034% Params, 232.82 MMACs = 0.0051% MACs, 465.63 MFLOPS = 0.005% FLOPs, in_features=1280, out_features=896, bias=False)
                (down_proj): Linear(1.15 M = 0.034% Params, 232.82 MMACs = 0.0051% MACs, 465.63 MFLOPS = 0.005% FLOPs, in_features=896, out_features=1280, bias=False)
                (act_fn): SiLU(0 = 0% Params, 0 MACs = 0% MACs, 181.89 KFLOPS = 0% FLOPs)
              )
              (39): DeepseekV2MLP(
                3.44 M = 0.1021% Params, 302.78 MMACs = 0.0066% MACs, 605.71 MFLOPS = 0.0065% FLOPs
                (gate_proj): Linear(1.15 M = 0.034% Params, 100.93 MMACs = 0.0022% MACs, 201.85 MFLOPS = 0.0022% FLOPs, in_features=1280, out_features=896, bias=False)
                (up_proj): Linear(1.15 M = 0.034% Params, 100.93 MMACs = 0.0022% MACs, 201.85 MFLOPS = 0.0022% FLOPs, in_features=1280, out_features=896, bias=False)
                (down_proj): Linear(1.15 M = 0.034% Params, 100.93 MMACs = 0.0022% MACs, 201.85 MFLOPS = 0.0022% FLOPs, in_features=896, out_features=1280, bias=False)
                (act_fn): SiLU(0 = 0% Params, 0 MACs = 0% MACs, 78.85 KFLOPS = 0% FLOPs)
              )
              (40): DeepseekV2MLP(
                3.44 M = 0.1021% Params, 1.13 GMACs = 0.0245% MACs, 2.25 GFLOPS = 0.0242% FLOPs
                (gate_proj): Linear(1.15 M = 0.034% Params, 375.03 MMACs = 0.0082% MACs, 750.06 MFLOPS = 0.0081% FLOPs, in_features=1280, out_features=896, bias=False)
…
          (post_attention_layernorm): DeepseekV2RMSNorm(1.28 K = 0% Params, 0 MACs = 0% MACs, 4.66 GFLOPS = 0.05% FLOPs)
        )
        (11): DeepseekV2DecoderLayer(
          233.72 M = 6.9343% Params, 117.62 GMACs = 2.5612% MACs, 244.86 GFLOPS = 2.6306% FLOPs
          (self_attn): LlamaAttention(
            6.55 M = 0.1944% Params, 39.24 GMACs = 0.8545% MACs, 78.74 GFLOPS = 0.846% FLOPs
            (q_proj): Linear(1.64 M = 0.0486% Params, 4.65 GMACs = 0.1013% MACs, 9.3 GFLOPS = 0.0999% FLOPs, in_features=1280, out_features=1280, bias=False)
            (k_proj): Linear(1.64 M = 0.0486% Params, 4.65 GMACs = 0.1013% MACs, 9.3 GFLOPS = 0.0999% FLOPs, in_features=1280, out_features=1280, bias=False)
            (v_proj): Linear(1.64 M = 0.0486% Params, 4.65 GMACs = 0.1013% MACs, 9.3 GFLOPS = 0.0999% FLOPs, in_features=1280, out_features=1280, bias=False)
            (o_proj): Linear(1.64 M = 0.0486% Params, 4.65 GMACs = 0.1013% MACs, 9.3 GFLOPS = 0.0999% FLOPs, in_features=1280, out_features=1280, bias=False)
            (rotary_emb): LlamaRotaryEmbedding(0 = 0% Params, 181.7 KMACs = 0% MACs, 1.09 MFLOPS = 0% FLOPs)
          )
          (mlp): DeepseekV2MoE(
            227.16 M = 6.7398% Params, 78.38 GMACs = 1.7067% MACs, 156.8 GFLOPS = 1.6846% FLOPs
            (experts): ModuleList(
              (0): DeepseekV2MLP(
                3.44 M = 0.1021% Params, 516.1 MMACs = 0.0112% MACs, 1.03 GFLOPS = 0.0111% FLOPs
                (gate_proj): Linear(1.15 M = 0.034% Params, 172.03 MMACs = 0.0037% MACs, 344.06 MFLOPS = 0.0037% FLOPs, in_features=1280, out_features=896, bias=False)
                (up_proj): Linear(1.15 M = 0.034% Params, 172.03 MMACs = 0.0037% MACs, 344.06 MFLOPS = 0.0037% FLOPs, in_features=1280, out_features=896, bias=False)
                (down_proj): Linear(1.15 M = 0.034% Params, 172.03 MMACs = 0.0037% MACs, 344.06 MFLOPS = 0.0037% FLOPs, in_features=896, out_features=1280, bias=False)
                (act_fn): SiLU(0 = 0% Params, 0 MACs = 0% MACs, 134.4 KFLOPS = 0% FLOPs)
              )
              (1): DeepseekV2MLP(
                3.44 M = 0.1021% Params, 430.08 MMACs = 0.0094% MACs, 860.38 MFLOPS = 0.0092% FLOPs
                (gate_proj): Linear(1.15 M = 0.034% Params, 143.36 MMACs = 0.0031% MACs, 286.72 MFLOPS = 0.0031% FLOPs, in_features=1280, out_features=896, bias=False)
                (up_proj): Linear(1.15 M = 0.034% Params, 143.36 MMACs = 0.0031% MACs, 286.72 MFLOPS = 0.0031% FLOPs, in_features=1280, out_features=896, bias=False)
                (down_proj): Linear(1.15 M = 0.034% Params, 143.36 MMACs = 0.0031% MACs, 286.72 MFLOPS = 0.0031% FLOPs, in_features=896, out_features=1280, bias=False)
                (act_fn): SiLU(0 = 0% Params, 0 MACs = 0% MACs, 112 KFLOPS = 0% FLOPs)
              )
              (2): DeepseekV2MLP(
                3.44 M = 0.1021% Params, 836.08 MMACs = 0.0182% MACs, 1.67 GFLOPS = 0.018% FLOPs
                (gate_proj): Linear(1.15 M = 0.034% Params, 278.69 MMACs = 0.0061% MACs, 557.38 MFLOPS = 0.006% FLOPs, in_features=1280, out_features=896, bias=False)
                (up_proj): Linear(1.15 M = 0.034% Params, 278.69 MMACs = 0.0061% MACs, 557.38 MFLOPS = 0.006% FLOPs, in_features=1280, out_features=896, bias=False)
                (down_proj): Linear(1.15 M = 0.034% Params, 278.69 MMACs = 0.0061% MACs, 557.38 MFLOPS = 0.006% FLOPs, in_features=896, out_features=1280, bias=False)
                (act_fn): SiLU(0 = 0% Params, 0 MACs = 0% MACs, 217.73 KFLOPS = 0% FLOPs)
              )
              (3): DeepseekV2MLP(
                3.44 M = 0.1021% Params, 375.03 MMACs = 0.0082% MACs, 750.25 MFLOPS = 0.0081% FLOPs
                (gate_proj): Linear(1.15 M = 0.034% Params, 125.01 MMACs = 0.0027% MACs, 250.02 MFLOPS = 0.0027% FLOPs, in_features=1280, out_features=896, bias=False)
                (up_proj): Linear(1.15 M = 0.034% Params, 125.01 MMACs = 0.0027% MACs, 250.02 MFLOPS = 0.0027% FLOPs, in_features=1280, out_features=896, bias=False)
                (down_proj): Linear(1.15 M = 0.034% Params, 125.01 MMACs = 0.0027% MACs, 250.02 MFLOPS = 0.0027% FLOPs, in_features=896, out_features=1280, bias=False)
                (act_fn): SiLU(0 = 0% Params, 0 MACs = 0% MACs, 97.66 KFLOPS = 0% FLOPs)
              )
              (4): DeepseekV2MLP(
                3.44 M = 0.1021% Params, 684.69 MMACs = 0.0149% MACs, 1.37 GFLOPS = 0.0147% FLOPs
                (gate_proj): Linear(1.15 M = 0.034% Params, 228.23 MMACs = 0.005% MACs, 456.46 MFLOPS = 0.0049% FLOPs, in_features=1280, out_features=896, bias=False)
                (up_proj): Linear(1.15 M = 0.034% Params, 228.23 MMACs = 0.005% MACs, 456.46 MFLOPS = 0.0049% FLOPs, in_features=1280, out_features=896, bias=False)
                (down_proj): Linear(1.15 M = 0.034% Params, 228.23 MMACs = 0.005% MACs, 456.46 MFLOPS = 0.0049% FLOPs, in_features=896, out_features=1280, bias=False)
                (act_fn): SiLU(0 = 0% Params, 0 MACs = 0% MACs, 178.3 KFLOPS = 0% FLOPs)
              )
              (5): DeepseekV2MLP(
                3.44 M = 0.1021% Params, 457.61 MMACs = 0.01% MACs, 915.45 MFLOPS = 0.0098% FLOPs
                (gate_proj): Linear(1.15 M = 0.034% Params, 152.54 MMACs = 0.0033% MACs, 305.07 MFLOPS = 0.0033% FLOPs, in_features=1280, out_features=896, bias=False)
                (up_proj): Linear(1.15 M = 0.034% Params, 152.54 MMACs = 0.0033% MACs, 305.07 MFLOPS = 0.0033% FLOPs, in_features=1280, out_features=896, bias=False)
                (down_proj): Linear(1.15 M = 0.034% Params, 152.54 MMACs = 0.0033% MACs, 305.07 MFLOPS = 0.0033% FLOPs, in_features=896, out_features=1280, bias=False)
                (act_fn): SiLU(0 = 0% Params, 0 MACs = 0% MACs, 119.17 KFLOPS = 0% FLOPs)
              )
              (6): DeepseekV2MLP(
                3.44 M = 0.1021% Params, 543.62 MMACs = 0.0118% MACs, 1.09 GFLOPS = 0.0117% FLOPs
                (gate_proj): Linear(1.15 M = 0.034% Params, 181.21 MMACs = 0.0039% MACs, 362.41 MFLOPS = 0.0039% FLOPs, in_features=1280, out_features=896, bias=False)
                (up_proj): Linear(1.15 M = 0.034% Params, 181.21 MMACs = 0.0039% MACs, 362.41 MFLOPS = 0.0039% FLOPs, in_features=1280, out_features=896, bias=False)
                (down_proj): Linear(1.15 M = 0.034% Params, 181.21 MMACs = 0.0039% MACs, 362.41 MFLOPS = 0.0039% FLOPs, in_features=896, out_features=1280, bias=False)
                (act_fn): SiLU(0 = 0% Params, 0 MACs = 0% MACs, 141.57 KFLOPS = 0% FLOPs)
              )
              (7): DeepseekV2MLP(
                3.44 M = 0.1021% Params, 987.46 MMACs = 0.0215% MACs, 1.98 GFLOPS = 0.0212% FLOPs
                (gate_proj): Linear(1.15 M = 0.034% Params, 329.15 MMACs = 0.0072% MACs, 658.31 MFLOPS = 0.0071% FLOPs, in_features=1280, out_features=896, bias=False)
                (up_proj): Linear(1.15 M = 0.034% Params, 329.15 MMACs = 0.0072% MACs, 658.31 MFLOPS = 0.0071% FLOPs, in_features=1280, out_features=896, bias=False)
                (down_proj): Linear(1.15 M = 0.034% Params, 329.15 MMACs = 0.0072% MACs, 658.31 MFLOPS = 0.0071% FLOPs, in_features=896, out_features=1280, bias=False)
                (act_fn): SiLU(0 = 0% Params, 0 MACs = 0% MACs, 257.15 KFLOPS = 0% FLOPs)
              )
              (8): DeepseekV2MLP(
                3.44 M = 0.1021% Params, 278.69 MMACs = 0.0061% MACs, 557.53 MFLOPS = 0.006% FLOPs
                (gate_proj): Linear(1.15 M = 0.034% Params, 92.9 MMACs = 0.002% MACs, 185.79 MFLOPS = 0.002% FLOPs, in_features=1280, out_features=896, bias=False)
                (up_proj): Linear(1.15 M = 0.034% Params, 92.9 MMACs = 0.002% MACs, 185.79 MFLOPS = 0.002% FLOPs, in_features=1280, out_features=896, bias=False)
                (down_proj): Linear(1.15 M = 0.034% Params, 92.9 MMACs = 0.002% MACs, 185.79 MFLOPS = 0.002% FLOPs, in_features=896, out_features=1280, bias=False)
                (act_fn): SiLU(0 = 0% Params, 0 MACs = 0% MACs, 72.58 KFLOPS = 0% FLOPs)
              )
              (9): DeepseekV2MLP(
                3.44 M = 0.1021% Params, 1.27 GMACs = 0.0276% MACs, 2.54 GFLOPS = 0.0273% FLOPs
                (gate_proj): Linear(1.15 M = 0.034% Params, 423.2 MMACs = 0.0092% MACs, 846.4 MFLOPS = 0.0091% FLOPs, in_features=1280, out_features=896, bias=False)
                (up_proj): Linear(1.15 M = 0.034% Params, 423.2 MMACs = 0.0092% MACs, 846.4 MFLOPS = 0.0091% FLOPs, in_features=1280, out_features=896, bias=False)
                (down_proj): Linear(1.15 M = 0.034% Params, 423.2 MMACs = 0.0092% MACs, 846.4 MFLOPS = 0.0091% FLOPs, in_features=896, out_features=1280, bias=False)
                (act_fn): SiLU(0 = 0% Params, 0 MACs = 0% MACs, 330.62 KFLOPS = 0% FLOPs)
              )
              (10): DeepseekV2MLP(
                3.44 M = 0.1021% Params, 574.59 MMACs = 0.0125% MACs, 1.15 GFLOPS = 0.0123% FLOPs
                (gate_proj): Linear(1.15 M = 0.034% Params, 191.53 MMACs = 0.0042% MACs, 383.06 MFLOPS = 0.0041% FLOPs, in_features=1280, out_features=896, bias=False)
                (up_proj): Linear(1.15 M = 0.034% Params, 191.53 MMACs = 0.0042% MACs, 383.06 MFLOPS = 0.0041% FLOPs, in_features=1280, out_features=896, bias=False)
                (down_proj): Linear(1.15 M = 0.034% Params, 191.53 MMACs = 0.0042% MACs, 383.06 MFLOPS = 0.0041% FLOPs, in_features=896, out_features=1280, bias=False)
                (act_fn): SiLU(0 = 0% Params, 0 MACs = 0% MACs, 149.63 KFLOPS = 0% FLOPs)
              )
              (11): DeepseekV2MLP(
                3.44 M = 0.1021% Params, 880.8 MMACs = 0.0192% MACs, 1.76 GFLOPS = 0.0189% FLOPs
                (gate_proj): Linear(1.15 M = 0.034% Params, 293.6 MMACs = 0.0064% MACs, 587.2 MFLOPS = 0.0063% FLOPs, in_features=1280, out_features=896, bias=False)
                (up_proj): Linear(1.15 M = 0.034% Params, 293.6 MMACs = 0.0064% MACs, 587.2 MFLOPS = 0.0063% FLOPs, in_features=1280, out_features=896, bias=False)
                (down_proj): Linear(1.15 M = 0.034% Params, 293.6 MMACs = 0.0064% MACs, 587.2 MFLOPS = 0.0063% FLOPs, in_features=896, out_features=1280, bias=False)
                (act_fn): SiLU(0 = 0% Params, 0 MACs = 0% MACs, 229.38 KFLOPS = 0% FLOPs)
              )
              (12): DeepseekV2MLP(
                3.44 M = 0.1021% Params, 1.18 GMACs = 0.0257% MACs, 2.36 GFLOPS = 0.0254% FLOPs
                (gate_proj): Linear(1.15 M = 0.034% Params, 393.38 MMACs = 0.0086% MACs, 786.76 MFLOPS = 0.0085% FLOPs, in_features=1280, out_features=896, bias=False)
                (up_proj): Linear(1.15 M = 0.034% Params, 393.38 MMACs = 0.0086% MACs, 786.76 MFLOPS = 0.0085% FLOPs, in_features=1280, out_features=896, bias=False)
                (down_proj): Linear(1.15 M = 0.034% Params, 393.38 MMACs = 0.0086% MACs, 786.76 MFLOPS = 0.0085% FLOPs, in_features=896, out_features=1280, bias=False)
                (act_fn): SiLU(0 = 0% Params, 0 MACs = 0% MACs, 307.33 KFLOPS = 0% FLOPs)
              )
              (13): DeepseekV2MLP(
                3.44 M = 0.1021% Params, 1.34 GMACs = 0.0292% MACs, 2.68 GFLOPS = 0.0288% FLOPs
                (gate_proj): Linear(1.15 M = 0.034% Params, 447.28 MMACs = 0.0097% MACs, 894.57 MFLOPS = 0.0096% FLOPs, in_features=1280, out_features=896, bias=False)
                (up_proj): Linear(1.15 M = 0.034% Params, 447.28 MMACs = 0.0097% MACs, 894.57 MFLOPS = 0.0096% FLOPs, in_features=1280, out_features=896, bias=False)
                (down_proj): Linear(1.15 M = 0.034% Params, 447.28 MMACs = 0.0097% MACs, 894.57 MFLOPS = 0.0096% FLOPs, in_features=896, out_features=1280, bias=False)
                (act_fn): SiLU(0 = 0% Params, 0 MACs = 0% MACs, 349.44 KFLOPS = 0% FLOPs)
              )
              (14): DeepseekV2MLP(
                3.44 M = 0.1021% Params, 867.04 MMACs = 0.0189% MACs, 1.73 GFLOPS = 0.0186% FLOPs
                (gate_proj): Linear(1.15 M = 0.034% Params, 289.01 MMACs = 0.0063% MACs, 578.03 MFLOPS = 0.0062% FLOPs, in_features=1280, out_features=896, bias=False)
                (up_proj): Linear(1.15 M = 0.034% Params, 289.01 MMACs = 0.0063% MACs, 578.03 MFLOPS = 0.0062% FLOPs, in_features=1280, out_features=896, bias=False)
                (down_proj): Linear(1.15 M = 0.034% Params, 289.01 MMACs = 0.0063% MACs, 578.03 MFLOPS = 0.0062% FLOPs, in_features=896, out_features=1280, bias=False)
                (act_fn): SiLU(0 = 0% Params, 0 MACs = 0% MACs, 225.79 KFLOPS = 0% FLOPs)
              )
              (15): DeepseekV2MLP(
                3.44 M = 0.1021% Params, 392.23 MMACs = 0.0085% MACs, 784.67 MFLOPS = 0.0084% FLOPs
                (gate_proj): Linear(1.15 M = 0.034% Params, 130.74 MMACs = 0.0028% MACs, 261.49 MFLOPS = 0.0028% FLOPs, in_features=1280, out_features=896, bias=False)
                (up_proj): Linear(1.15 M = 0.034% Params, 130.74 MMACs = 0.0028% MACs, 261.49 MFLOPS = 0.0028% FLOPs, in_features=1280, out_features=896, bias=False)
                (down_proj): Linear(1.15 M = 0.034% Params, 130.74 MMACs = 0.0028% MACs, 261.49 MFLOPS = 0.0028% FLOPs, in_features=896, out_features=1280, bias=False)
                (act_fn): SiLU(0 = 0% Params, 0 MACs = 0% MACs, 102.14 KFLOPS = 0% FLOPs)
              )
              (16): DeepseekV2MLP(
                3.44 M = 0.1021% Params, 337.18 MMACs = 0.0073% MACs, 674.54 MFLOPS = 0.0072% FLOPs
                (gate_proj): Linear(1.15 M = 0.034% Params, 112.39 MMACs = 0.0024% MACs, 224.79 MFLOPS = 0.0024% FLOPs, in_features=1280, out_features=896, bias=False)
                (up_proj): Linear(1.15 M = 0.034% Params, 112.39 MMACs = 0.0024% MACs, 224.79 MFLOPS = 0.0024% FLOPs, in_features=1280, out_features=896, bias=False)
                (down_proj): Linear(1.15 M = 0.034% Params, 112.39 MMACs = 0.0024% MACs, 224.79 MFLOPS = 0.0024% FLOPs, in_features=896, out_features=1280, bias=False)
                (act_fn): SiLU(0 = 0% Params, 0 MACs = 0% MACs, 87.81 KFLOPS = 0% FLOPs)
              )
              (17): DeepseekV2MLP(
                3.44 M = 0.1021% Params, 2.86 GMACs = 0.0622% MACs, 5.71 GFLOPS = 0.0614% FLOPs
                (gate_proj): Linear(1.15 M = 0.034% Params, 951.91 MMACs = 0.0207% MACs, 1.9 GFLOPS = 0.0205% FLOPs, in_features=1280, out_features=896, bias=False)
                (up_proj): Linear(1.15 M = 0.034% Params, 951.91 MMACs = 0.0207% MACs, 1.9 GFLOPS = 0.0205% FLOPs, in_features=1280, out_features=896, bias=False)
                (down_proj): Linear(1.15 M = 0.034% Params, 951.91 MMACs = 0.0207% MACs, 1.9 GFLOPS = 0.0205% FLOPs, in_features=896, out_features=1280, bias=False)
                (act_fn): SiLU(0 = 0% Params, 0 MACs = 0% MACs, 743.68 KFLOPS = 0% FLOPs)
              )
              (18): DeepseekV2MLP(
                3.44 M = 0.1021% Params, 870.48 MMACs = 0.019% MACs, 1.74 GFLOPS = 0.0187% FLOPs
                (gate_proj): Linear(1.15 M = 0.034% Params, 290.16 MMACs = 0.0063% MACs, 580.32 MFLOPS = 0.0062% FLOPs, in_features=1280, out_features=896, bias=False)
                (up_proj): Linear(1.15 M = 0.034% Params, 290.16 MMACs = 0.0063% MACs, 580.32 MFLOPS = 0.0062% FLOPs, in_features=1280, out_features=896, bias=False)
                (down_proj): Linear(1.15 M = 0.034% Params, 290.16 MMACs = 0.0063% MACs, 580.32 MFLOPS = 0.0062% FLOPs, in_features=896, out_features=1280, bias=False)
                (act_fn): SiLU(0 = 0% Params, 0 MACs = 0% MACs, 226.69 KFLOPS = 0% FLOPs)
              )
              (19): DeepseekV2MLP(
                3.44 M = 0.1021% Params, 1.61 GMACs = 0.0351% MACs, 3.22 GFLOPS = 0.0346% FLOPs
                (gate_proj): Linear(1.15 M = 0.034% Params, 536.74 MMACs = 0.0117% MACs, 1.07 GFLOPS = 0.0115% FLOPs, in_features=1280, out_features=896, bias=False)
                (up_proj): Linear(1.15 M = 0.034% Params, 536.74 MMACs = 0.0117% MACs, 1.07 GFLOPS = 0.0115% FLOPs, in_features=1280, out_features=896, bias=False)
                (down_proj): Linear(1.15 M = 0.034% Params, 536.74 MMACs = 0.0117% MACs, 1.07 GFLOPS = 0.0115% FLOPs, in_features=896, out_features=1280, bias=False)
                (act_fn): SiLU(0 = 0% Params, 0 MACs = 0% MACs, 419.33 KFLOPS = 0% FLOPs)
              )
              (20): DeepseekV2MLP(
                3.44 M = 0.1021% Params, 891.13 MMACs = 0.0194% MACs, 1.78 GFLOPS = 0.0192% FLOPs
                (gate_proj): Linear(1.15 M = 0.034% Params, 297.04 MMACs = 0.0065% MACs, 594.08 MFLOPS = 0.0064% FLOPs, in_features=1280, out_features=896, bias=False)
                (up_proj): Linear(1.15 M = 0.034% Params, 297.04 MMACs = 0.0065% MACs, 594.08 MFLOPS = 0.0064% FLOPs, in_features=1280, out_features=896, bias=False)
                (down_proj): Linear(1.15 M = 0.034% Params, 297.04 MMACs = 0.0065% MACs, 594.08 MFLOPS = 0.0064% FLOPs, in_features=896, out_features=1280, bias=False)
                (act_fn): SiLU(0 = 0% Params, 0 MACs = 0% MACs, 232.06 KFLOPS = 0% FLOPs)
              )
              (21): DeepseekV2MLP(
                3.44 M = 0.1021% Params, 818.87 MMACs = 0.0178% MACs, 1.64 GFLOPS = 0.0176% FLOPs
                (gate_proj): Linear(1.15 M = 0.034% Params, 272.96 MMACs = 0.0059% MACs, 545.91 MFLOPS = 0.0059% FLOPs, in_features=1280, out_features=896, bias=False)
                (up_proj): Linear(1.15 M = 0.034% Params, 272.96 MMACs = 0.0059% MACs, 545.91 MFLOPS = 0.0059% FLOPs, in_features=1280, out_features=896, bias=False)
                (down_proj): Linear(1.15 M = 0.034% Params, 272.96 MMACs = 0.0059% MACs, 545.91 MFLOPS = 0.0059% FLOPs, in_features=896, out_features=1280, bias=False)
                (act_fn): SiLU(0 = 0% Params, 0 MACs = 0% MACs, 213.25 KFLOPS = 0% FLOPs)
              )
              (22): DeepseekV2MLP(
                3.44 M = 0.1021% Params, 774.14 MMACs = 0.0169% MACs, 1.55 GFLOPS = 0.0166% FLOPs
                (gate_proj): Linear(1.15 M = 0.034% Params, 258.05 MMACs = 0.0056% MACs, 516.1 MFLOPS = 0.0055% FLOPs, in_features=1280, out_features=896, bias=False)
                (up_proj): Linear(1.15 M = 0.034% Params, 258.05 MMACs = 0.0056% MACs, 516.1 MFLOPS = 0.0055% FLOPs, in_features=1280, out_features=896, bias=False)
                (down_proj): Linear(1.15 M = 0.034% Params, 258.05 MMACs = 0.0056% MACs, 516.1 MFLOPS = 0.0055% FLOPs, in_features=896, out_features=1280, bias=False)
                (act_fn): SiLU(0 = 0% Params, 0 MACs = 0% MACs, 201.6 KFLOPS = 0% FLOPs)
              )
              (23): DeepseekV2MLP(
                3.44 M = 0.1021% Params, 1.09 GMACs = 0.0237% MACs, 2.18 GFLOPS = 0.0234% FLOPs
                (gate_proj): Linear(1.15 M = 0.034% Params, 362.41 MMACs = 0.0079% MACs, 724.83 MFLOPS = 0.0078% FLOPs, in_features=1280, out_features=896, bias=False)
                (up_proj): Linear(1.15 M = 0.034% Params, 362.41 MMACs = 0.0079% MACs, 724.83 MFLOPS = 0.0078% FLOPs, in_features=1280, out_features=896, bias=False)
                (down_proj): Linear(1.15 M = 0.034% Params, 362.41 MMACs = 0.0079% MACs, 724.83 MFLOPS = 0.0078% FLOPs, in_features=896, out_features=1280, bias=False)
                (act_fn): SiLU(0 = 0% Params, 0 MACs = 0% MACs, 283.14 KFLOPS = 0% FLOPs)
              )
              (24): DeepseekV2MLP(
                3.44 M = 0.1021% Params, 1.2 GMACs = 0.0261% MACs, 2.4 GFLOPS = 0.0257% FLOPs
                (gate_proj): Linear(1.15 M = 0.034% Params, 399.11 MMACs = 0.0087% MACs, 798.23 MFLOPS = 0.0086% FLOPs, in_features=1280, out_features=896, bias=False)
                (up_proj): Linear(1.15 M = 0.034% Params, 399.11 MMACs = 0.0087% MACs, 798.23 MFLOPS = 0.0086% FLOPs, in_features=1280, out_features=896, bias=False)
                (down_proj): Linear(1.15 M = 0.034% Params, 399.11 MMACs = 0.0087% MACs, 798.23 MFLOPS = 0.0086% FLOPs, in_features=896, out_features=1280, bias=False)
                (act_fn): SiLU(0 = 0% Params, 0 MACs = 0% MACs, 311.81 KFLOPS = 0% FLOPs)
              )
              (25): DeepseekV2MLP(
                3.44 M = 0.1021% Params, 485.13 MMACs = 0.0106% MACs, 970.51 MFLOPS = 0.0104% FLOPs
                (gate_proj): Linear(1.15 M = 0.034% Params, 161.71 MMACs = 0.0035% MACs, 323.42 MFLOPS = 0.0035% FLOPs, in_features=1280, out_features=896, bias=False)
                (up_proj): Linear(1.15 M = 0.034% Params, 161.71 MMACs = 0.0035% MACs, 323.42 MFLOPS = 0.0035% FLOPs, in_features=1280, out_features=896, bias=False)
                (down_proj): Linear(1.15 M = 0.034% Params, 161.71 MMACs = 0.0035% MACs, 323.42 MFLOPS = 0.0035% FLOPs, in_features=896, out_features=1280, bias=False)
                (act_fn): SiLU(0 = 0% Params, 0 MACs = 0% MACs, 126.34 KFLOPS = 0% FLOPs)
              )
              (26): DeepseekV2MLP(
                3.44 M = 0.1021% Params, 939.29 MMACs = 0.0205% MACs, 1.88 GFLOPS = 0.0202% FLOPs
                (gate_proj): Linear(1.15 M = 0.034% Params, 313.1 MMACs = 0.0068% MACs, 626.2 MFLOPS = 0.0067% FLOPs, in_features=1280, out_features=896, bias=False)
                (up_proj): Linear(1.15 M = 0.034% Params, 313.1 MMACs = 0.0068% MACs, 626.2 MFLOPS = 0.0067% FLOPs, in_features=1280, out_features=896, bias=False)
                (down_proj): Linear(1.15 M = 0.034% Params, 313.1 MMACs = 0.0068% MACs, 626.2 MFLOPS = 0.0067% FLOPs, in_features=896, out_features=1280, bias=False)
                (act_fn): SiLU(0 = 0% Params, 0 MACs = 0% MACs, 244.61 KFLOPS = 0% FLOPs)
              )
              (27): DeepseekV2MLP(
                3.44 M = 0.1021% Params, 543.62 MMACs = 0.0118% MACs, 1.09 GFLOPS = 0.0117% FLOPs
                (gate_proj): Linear(1.15 M = 0.034% Params, 181.21 MMACs = 0.0039% MACs, 362.41 MFLOPS = 0.0039% FLOPs, in_features=1280, out_features=896, bias=False)
                (up_proj): Linear(1.15 M = 0.034% Params, 181.21 MMACs = 0.0039% MACs, 362.41 MFLOPS = 0.0039% FLOPs, in_features=1280, out_features=896, bias=False)
                (down_proj): Linear(1.15 M = 0.034% Params, 181.21 MMACs = 0.0039% MACs, 362.41 MFLOPS = 0.0039% FLOPs, in_features=896, out_features=1280, bias=False)
                (act_fn): SiLU(0 = 0% Params, 0 MACs = 0% MACs, 141.57 KFLOPS = 0% FLOPs)
              )
              (28): DeepseekV2MLP(
                3.44 M = 0.1021% Params, 1.36 GMACs = 0.0296% MACs, 2.72 GFLOPS = 0.0292% FLOPs
                (gate_proj): Linear(1.15 M = 0.034% Params, 453.02 MMACs = 0.0099% MACs, 906.04 MFLOPS = 0.0097% FLOPs, in_features=1280, out_features=896, bias=False)
                (up_proj): Linear(1.15 M = 0.034% Params, 453.02 MMACs = 0.0099% MACs, 906.04 MFLOPS = 0.0097% FLOPs, in_features=1280, out_features=896, bias=False)
                (down_proj): Linear(1.15 M = 0.034% Params, 453.02 MMACs = 0.0099% MACs, 906.04 MFLOPS = 0.0097% FLOPs, in_features=896, out_features=1280, bias=False)
                (act_fn): SiLU(0 = 0% Params, 0 MACs = 0% MACs, 353.92 KFLOPS = 0% FLOPs)
              )
              (29): DeepseekV2MLP(
                3.44 M = 0.1021% Params, 402.55 MMACs = 0.0088% MACs, 805.32 MFLOPS = 0.0087% FLOPs
                (gate_proj): Linear(1.15 M = 0.034% Params, 134.18 MMACs = 0.0029% MACs, 268.37 MFLOPS = 0.0029% FLOPs, in_features=1280, out_features=896, bias=False)
                (up_proj): Linear(1.15 M = 0.034% Params, 134.18 MMACs = 0.0029% MACs, 268.37 MFLOPS = 0.0029% FLOPs, in_features=1280, out_features=896, bias=False)
                (down_proj): Linear(1.15 M = 0.034% Params, 134.18 MMACs = 0.0029% MACs, 268.37 MFLOPS = 0.0029% FLOPs, in_features=896, out_features=1280, bias=False)
                (act_fn): SiLU(0 = 0% Params, 0 MACs = 0% MACs, 104.83 KFLOPS = 0% FLOPs)
              )
              (30): DeepseekV2MLP(
                3.44 M = 0.1021% Params, 547.06 MMACs = 0.0119% MACs, 1.09 GFLOPS = 0.0118% FLOPs
                (gate_proj): Linear(1.15 M = 0.034% Params, 182.35 MMACs = 0.004% MACs, 364.71 MFLOPS = 0.0039% FLOPs, in_features=1280, out_features=896, bias=False)
                (up_proj): Linear(1.15 M = 0.034% Params, 182.35 MMACs = 0.004% MACs, 364.71 MFLOPS = 0.0039% FLOPs, in_features=1280, out_features=896, bias=False)
                (down_proj): Linear(1.15 M = 0.034% Params, 182.35 MMACs = 0.004% MACs, 364.71 MFLOPS = 0.0039% FLOPs, in_features=896, out_features=1280, bias=False)
                (act_fn): SiLU(0 = 0% Params, 0 MACs = 0% MACs, 142.46 KFLOPS = 0% FLOPs)
              )
              (31): DeepseekV2MLP(
                3.44 M = 0.1021% Params, 781.03 MMACs = 0.017% MACs, 1.56 GFLOPS = 0.0168% FLOPs
                (gate_proj): Linear(1.15 M = 0.034% Params, 260.34 MMACs = 0.0057% MACs, 520.68 MFLOPS = 0.0056% FLOPs, in_features=1280, out_features=896, bias=False)
                (up_proj): Linear(1.15 M = 0.034% Params, 260.34 MMACs = 0.0057% MACs, 520.68 MFLOPS = 0.0056% FLOPs, in_features=1280, out_features=896, bias=False)
                (down_proj): Linear(1.15 M = 0.034% Params, 260.34 MMACs = 0.0057% MACs, 520.68 MFLOPS = 0.0056% FLOPs, in_features=896, out_features=1280, bias=False)
                (act_fn): SiLU(0 = 0% Params, 0 MACs = 0% MACs, 203.39 KFLOPS = 0% FLOPs)
              )
              (32): DeepseekV2MLP(
                3.44 M = 0.1021% Params, 633.08 MMACs = 0.0138% MACs, 1.27 GFLOPS = 0.0136% FLOPs
                (gate_proj): Linear(1.15 M = 0.034% Params, 211.03 MMACs = 0.0046% MACs, 422.05 MFLOPS = 0.0045% FLOPs, in_features=1280, out_features=896, bias=False)
                (up_proj): Linear(1.15 M = 0.034% Params, 211.03 MMACs = 0.0046% MACs, 422.05 MFLOPS = 0.0045% FLOPs, in_features=1280, out_features=896, bias=False)
                (down_proj): Linear(1.15 M = 0.034% Params, 211.03 MMACs = 0.0046% MACs, 422.05 MFLOPS = 0.0045% FLOPs, in_features=896, out_features=1280, bias=False)
                (act_fn): SiLU(0 = 0% Params, 0 MACs = 0% MACs, 164.86 KFLOPS = 0% FLOPs)
              )
              (33): DeepseekV2MLP(
                3.44 M = 0.1021% Params, 474.81 MMACs = 0.0103% MACs, 949.86 MFLOPS = 0.0102% FLOPs
                (gate_proj): Linear(1.15 M = 0.034% Params, 158.27 MMACs = 0.0034% MACs, 316.54 MFLOPS = 0.0034% FLOPs, in_features=1280, out_features=896, bias=False)
                (up_proj): Linear(1.15 M = 0.034% Params, 158.27 MMACs = 0.0034% MACs, 316.54 MFLOPS = 0.0034% FLOPs, in_features=1280, out_features=896, bias=False)
                (down_proj): Linear(1.15 M = 0.034% Params, 158.27 MMACs = 0.0034% MACs, 316.54 MFLOPS = 0.0034% FLOPs, in_features=896, out_features=1280, bias=False)
                (act_fn): SiLU(0 = 0% Params, 0 MACs = 0% MACs, 123.65 KFLOPS = 0% FLOPs)
              )
              (34): DeepseekV2MLP(
                3.44 M = 0.1021% Params, 1.1 GMACs = 0.0239% MACs, 2.2 GFLOPS = 0.0236% FLOPs
                (gate_proj): Linear(1.15 M = 0.034% Params, 365.85 MMACs = 0.008% MACs, 731.71 MFLOPS = 0.0079% FLOPs, in_features=1280, out_features=896, bias=False)
                (up_proj): Linear(1.15 M = 0.034% Params, 365.85 MMACs = 0.008% MACs, 731.71 MFLOPS = 0.0079% FLOPs, in_features=1280, out_features=896, bias=False)
                (down_proj): Linear(1.15 M = 0.034% Params, 365.85 MMACs = 0.008% MACs, 731.71 MFLOPS = 0.0079% FLOPs, in_features=896, out_features=1280, bias=False)
                (act_fn): SiLU(0 = 0% Params, 0 MACs = 0% MACs, 285.82 KFLOPS = 0% FLOPs)
              )
              (35): DeepseekV2MLP(
                3.44 M = 0.1021% Params, 464.49 MMACs = 0.0101% MACs, 929.21 MFLOPS = 0.01% FLOPs
                (gate_proj): Linear(1.15 M = 0.034% Params, 154.83 MMACs = 0.0034% MACs, 309.66 MFLOPS = 0.0033% FLOPs, in_features=1280, out_features=896, bias=False)
                (up_proj): Linear(1.15 M = 0.034% Params, 154.83 MMACs = 0.0034% MACs, 309.66 MFLOPS = 0.0033% FLOPs, in_features=1280, out_features=896, bias=False)
                (down_proj): Linear(1.15 M = 0.034% Params, 154.83 MMACs = 0.0034% MACs, 309.66 MFLOPS = 0.0033% FLOPs, in_features=896, out_features=1280, bias=False)
                (act_fn): SiLU(0 = 0% Params, 0 MACs = 0% MACs, 120.96 KFLOPS = 0% FLOPs)
              )
              (36): DeepseekV2MLP(
                3.44 M = 0.1021% Params, 282.13 MMACs = 0.0061% MACs, 564.41 MFLOPS = 0.0061% FLOPs
                (gate_proj): Linear(1.15 M = 0.034% Params, 94.04 MMACs = 0.002% MACs, 188.09 MFLOPS = 0.002% FLOPs, in_features=1280, out_features=896, bias=False)
                (up_proj): Linear(1.15 M = 0.034% Params, 94.04 MMACs = 0.002% MACs, 188.09 MFLOPS = 0.002% FLOPs, in_features=1280, out_features=896, bias=False)
                (down_proj): Linear(1.15 M = 0.034% Params, 94.04 MMACs = 0.002% MACs, 188.09 MFLOPS = 0.002% FLOPs, in_features=896, out_features=1280, bias=False)
                (act_fn): SiLU(0 = 0% Params, 0 MACs = 0% MACs, 73.47 KFLOPS = 0% FLOPs)
              )
              (37): DeepseekV2MLP(
                3.44 M = 0.1021% Params, 904.89 MMACs = 0.0197% MACs, 1.81 GFLOPS = 0.0194% FLOPs
                (gate_proj): Linear(1.15 M = 0.034% Params, 301.63 MMACs = 0.0066% MACs, 603.26 MFLOPS = 0.0065% FLOPs, in_features=1280, out_features=896, bias=False)
                (up_proj): Linear(1.15 M = 0.034% Params, 301.63 MMACs = 0.0066% MACs, 603.26 MFLOPS = 0.0065% FLOPs, in_features=1280, out_features=896, bias=False)
                (down_proj): Linear(1.15 M = 0.034% Params, 301.63 MMACs = 0.0066% MACs, 603.26 MFLOPS = 0.0065% FLOPs, in_features=896, out_features=1280, bias=False)
                (act_fn): SiLU(0 = 0% Params, 0 MACs = 0% MACs, 235.65 KFLOPS = 0% FLOPs)
              )
              (38): DeepseekV2MLP(
                3.44 M = 0.1021% Params, 1.18 GMACs = 0.0256% MACs, 2.35 GFLOPS = 0.0253% FLOPs
                (gate_proj): Linear(1.15 M = 0.034% Params, 392.23 MMACs = 0.0085% MACs, 784.47 MFLOPS = 0.0084% FLOPs, in_features=1280, out_features=896, bias=False)
                (up_proj): Linear(1.15 M = 0.034% Params, 392.23 MMACs = 0.0085% MACs, 784.47 MFLOPS = 0.0084% FLOPs, in_features=1280, out_features=896, bias=False)
                (down_proj): Linear(1.15 M = 0.034% Params, 392.23 MMACs = 0.0085% MACs, 784.47 MFLOPS = 0.0084% FLOPs, in_features=896, out_features=1280, bias=False)
                (act_fn): SiLU(0 = 0% Params, 0 MACs = 0% MACs, 306.43 KFLOPS = 0% FLOPs)
              )
              (39): DeepseekV2MLP(
                3.44 M = 0.1021% Params, 412.88 MMACs = 0.009% MACs, 825.97 MFLOPS = 0.0089% FLOPs
                (gate_proj): Linear(1.15 M = 0.034% Params, 137.63 MMACs = 0.003% MACs, 275.25 MFLOPS = 0.003% FLOPs, in_features=1280, out_features=896, bias=False)
                (up_proj): Linear(1.15 M = 0.034% Params, 137.63 MMACs = 0.003% MACs, 275.25 MFLOPS = 0.003% FLOPs, in_features=1280, out_features=896, bias=False)
                (down_proj): Linear(1.15 M = 0.034% Params, 137.63 MMACs = 0.003% MACs, 275.25 MFLOPS = 0.003% FLOPs, in_features=896, out_features=1280, bias=False)
                (act_fn): SiLU(0 = 0% Params, 0 MACs = 0% MACs, 107.52 KFLOPS = 0% FLOPs)
              )
              (40): DeepseekV2MLP(
                3.44 M = 0.1021% Params, 3.2 GMACs = 0.0698% MACs, 6.41 GFLOPS = 0.0688% FLOPs
                (gate_proj): Linear(1.15 M = 0.034% Params, 1.07 GMACs = 0.0233% MACs, 2.14 GFLOPS = 0.0229% FLOPs, in_features=1280, out_features=896, bias=False)
                (up_proj): Linear(1.15 M = 0.034% Params, 1.07 GMACs = 0.0233% MACs, 2.14 GFLOPS = 0.0229% FLOPs, in_features=1280, out_features=896, bias=False)
                (down_proj): Linear(1.15 M = 0.034% Params, 1.07 GMACs = 0.0233% MACs, 2.14 GFLOPS = 0.0229% FLOPs, in_features=896, out_features=1280, bias=False)
                (act_fn): SiLU(0 = 0% Params, 0 MACs = 0% MACs, 834.18 KFLOPS = 0% FLOPs)
              )
              (41): DeepseekV2MLP(
                3.44 M = 0.1021% Params, 185.79 MMACs = 0.004% MACs, 371.69 MFLOPS = 0.004% FLOPs
                (gate_proj): Linear(1.15 M = 0.034% Params, 61.93 MMACs = 0.0013% MACs, 123.86 MFLOPS = 0.0013% FLOPs, in_features=1280, out_features=896, bias=False)
                (up_proj): Linear(1.15 M = 0.034% Params, 61.93 MMACs = 0.0013% MACs, 123.86 MFLOPS = 0.0013% FLOPs, in_features=1280, out_features=896, bias=False)
                (down_proj): Linear(1.15 M = 0.034% Params, 61.93 MMACs = 0.0013% MACs, 123.86 MFLOPS = 0.0013% FLOPs, in_features=896, out_features=1280, bias=False)
                (act_fn): SiLU(0 = 0% Params, 0 MACs = 0% MACs, 48.38 KFLOPS = 0% FLOPs)
              )
              (42): DeepseekV2MLP(
                3.44 M = 0.1021% Params, 598.67 MMACs = 0.013% MACs, 1.2 GFLOPS = 0.0129% FLOPs
                (gate_proj): Linear(1.15 M = 0.034% Params, 199.56 MMACs = 0.0043% MACs, 399.11 MFLOPS = 0.0043% FLOPs, in_features=1280, out_features=896, bias=False)
                (up_proj): Linear(1.15 M = 0.034% Params, 199.56 MMACs = 0.0043% MACs, 399.11 MFLOPS = 0.0043% FLOPs, in_features=1280, out_features=896, bias=False)
                (down_proj): Linear(1.15 M = 0.034% Params, 199.56 MMACs = 0.0043% MACs, 399.11 MFLOPS = 0.0043% FLOPs, in_features=896, out_features=1280, bias=False)
                (act_fn): SiLU(0 = 0% Params, 0 MACs = 0% MACs, 155.9 KFLOPS = 0% FLOPs)
              )
              (43): DeepseekV2MLP(
                3.44 M = 0.1021% Params, 626.2 MMACs = 0.0136% MACs, 1.25 GFLOPS = 0.0135% FLOPs
                (gate_proj): Linear(1.15 M = 0.034% Params, 208.73 MMACs = 0.0045% MACs, 417.46 MFLOPS = 0.0045% FLOPs, in_features=1280, out_features=896, bias=False)
                (up_proj): Linear(1.15 M = 0.034% Params, 208.73 MMACs = 0.0045% MACs, 417.46 MFLOPS = 0.0045% FLOPs, in_features=1280, out_features=896, bias=False)
                (down_proj): Linear(1.15 M = 0.034% Params, 208.73 MMACs = 0.0045% MACs, 417.46 MFLOPS = 0.0045% FLOPs, in_features=896, out_features=1280, bias=False)
                (act_fn): SiLU(0 = 0% Params, 0 MACs = 0% MACs, 163.07 KFLOPS = 0% FLOPs)
              )
              (44): DeepseekV2MLP(
                3.44 M = 0.1021% Params, 574.59 MMACs = 0.0125% MACs, 1.15 GFLOPS = 0.0123% FLOPs
                (gate_proj): Linear(1.15 M = 0.034% Params, 191.53 MMACs = 0.0042% MACs, 383.06 MFLOPS = 0.0041% FLOPs, in_features=1280, out_features=896, bias=False)
                (up_proj): Linear(1.15 M = 0.034% Params, 191.53 MMACs = 0.0042% MACs, 383.06 MFLOPS = 0.0041% FLOPs, in_features=1280, out_features=896, bias=False)
                (down_proj): Linear(1.15 M = 0.034% Params, 191.53 MMACs = 0.0042% MACs, 383.06 MFLOPS = 0.0041% FLOPs, in_features=896, out_features=1280, bias=False)
                (act_fn): SiLU(0 = 0% Params, 0 MACs = 0% MACs, 149.63 KFLOPS = 0% FLOPs)
              )
              (45): DeepseekV2MLP(
                3.44 M = 0.1021% Params, 2.33 GMACs = 0.0507% MACs, 4.66 GFLOPS = 0.0501% FLOPs
                (gate_proj): Linear(1.15 M = 0.034% Params, 776.44 MMACs = 0.0169% MACs, 1.55 GFLOPS = 0.0167% FLOPs, in_features=1280, out_features=896, bias=False)
                (up_proj): Linear(1.15 M = 0.034% Params, 776.44 MMACs = 0.0169% MACs, 1.55 GFLOPS = 0.0167% FLOPs, in_features=1280, out_features=896, bias=False)
                (down_proj): Linear(1.15 M = 0.034% Params, 776.44 MMACs = 0.0169% MACs, 1.55 GFLOPS = 0.0167% FLOPs, in_features=896, out_features=1280, bias=False)
                (act_fn): SiLU(0 = 0% Params, 0 MACs = 0% MACs, 606.59 KFLOPS = 0% FLOPs)
              )
              (46): DeepseekV2MLP(
                3.44 M = 0.1021% Params, 1.02 GMACs = 0.0222% MACs, 2.04 GFLOPS = 0.0219% FLOPs
                (gate_proj): Linear(1.15 M = 0.034% Params, 339.48 MMACs = 0.0074% MACs, 678.95 MFLOPS = 0.0073% FLOPs, in_features=1280, out_features=896, bias=False)
                (up_proj): Linear(1.15 M = 0.034% Params, 339.48 MMACs = 0.0074% MACs, 678.95 MFLOPS = 0.0073% FLOPs, in_features=1280, out_features=896, bias=False)
                (down_proj): Linear(1.15 M = 0.034% Params, 339.48 MMACs = 0.0074% MACs, 678.95 MFLOPS = 0.0073% FLOPs, in_features=896, out_features=1280, bias=False)
                (act_fn): SiLU(0 = 0% Params, 0 MACs = 0% MACs, 265.22 KFLOPS = 0% FLOPs)
              )
              (47): DeepseekV2MLP(
                3.44 M = 0.1021% Params, 822.31 MMACs = 0.0179% MACs, 1.65 GFLOPS = 0.0177% FLOPs
                (gate_proj): Linear(1.15 M = 0.034% Params, 274.1 MMACs = 0.006% MACs, 548.21 MFLOPS = 0.0059% FLOPs, in_features=1280, out_features=896, bias=False)
                (up_proj): Linear(1.15 M = 0.034% Params, 274.1 MMACs = 0.006% MACs, 548.21 MFLOPS = 0.0059% FLOPs, in_features=1280, out_features=896, bias=False)
                (down_proj): Linear(1.15 M = 0.034% Params, 274.1 MMACs = 0.006% MACs, 548.21 MFLOPS = 0.0059% FLOPs, in_features=896, out_features=1280, bias=False)
                (act_fn): SiLU(0 = 0% Params, 0 MACs = 0% MACs, 214.14 KFLOPS = 0% FLOPs)
              )
              (48): DeepseekV2MLP(
                3.44 M = 0.1021% Params, 1.56 GMACs = 0.0339% MACs, 3.11 GFLOPS = 0.0334% FLOPs
                (gate_proj): Linear(1.15 M = 0.034% Params, 518.39 MMACs = 0.0113% MACs, 1.04 GFLOPS = 0.0111% FLOPs, in_features=1280, out_features=896, bias=False)
                (up_proj): Linear(1.15 M = 0.034% Params, 518.39 MMACs = 0.0113% MACs, 1.04 GFLOPS = 0.0111% FLOPs, in_features=1280, out_features=896, bias=False)
                (down_proj): Linear(1.15 M = 0.034% Params, 518.39 MMACs = 0.0113% MACs, 1.04 GFLOPS = 0.0111% FLOPs, in_features=896, out_features=1280, bias=False)
                (act_fn): SiLU(0 = 0% Params, 0 MACs = 0% MACs, 404.99 KFLOPS = 0% FLOPs)
              )
              (49): DeepseekV2MLP(
                3.44 M = 0.1021% Params, 2.26 GMACs = 0.0491% MACs, 4.52 GFLOPS = 0.0485% FLOPs
                (gate_proj): Linear(1.15 M = 0.034% Params, 752.35 MMACs = 0.0164% MACs, 1.5 GFLOPS = 0.0162% FLOPs, in_features=1280, out_features=896, bias=False)
                (up_proj): Linear(1.15 M = 0.034% Params, 752.35 MMACs = 0.0164% MACs, 1.5 GFLOPS = 0.0162% FLOPs, in_features=1280, out_features=896, bias=False)
                (down_proj): Linear(1.15 M = 0.034% Params, 752.35 MMACs = 0.0164% MACs, 1.5 GFLOPS = 0.0162% FLOPs, in_features=896, out_features=1280, bias=False)
                (act_fn): SiLU(0 = 0% Params, 0 MACs = 0% MACs, 587.78 KFLOPS = 0% FLOPs)
              )
              (50): DeepseekV2MLP(
                3.44 M = 0.1021% Params, 533.3 MMACs = 0.0116% MACs, 1.07 GFLOPS = 0.0115% FLOPs
                (gate_proj): Linear(1.15 M = 0.034% Params, 177.77 MMACs = 0.0039% MACs, 355.53 MFLOPS = 0.0038% FLOPs, in_features=1280, out_features=896, bias=False)
                (up_proj): Linear(1.15 M = 0.034% Params, 177.77 MMACs = 0.0039% MACs, 355.53 MFLOPS = 0.0038% FLOPs, in_features=1280, out_features=896, bias=False)
                (down_proj): Linear(1.15 M = 0.034% Params, 177.77 MMACs = 0.0039% MACs, 355.53 MFLOPS = 0.0038% FLOPs, in_features=896, out_features=1280, bias=False)
                (act_fn): SiLU(0 = 0% Params, 0 MACs = 0% MACs, 138.88 KFLOPS = 0% FLOPs)
              )
              (51): DeepseekV2MLP(
                3.44 M = 0.1021% Params, 406 MMACs = 0.0088% MACs, 812.2 MFLOPS = 0.0087% FLOPs
                (gate_proj): Linear(1.15 M = 0.034% Params, 135.33 MMACs = 0.0029% MACs, 270.66 MFLOPS = 0.0029% FLOPs, in_features=1280, out_features=896, bias=False)
                (up_proj): Linear(1.15 M = 0.034% Params, 135.33 MMACs = 0.0029% MACs, 270.66 MFLOPS = 0.0029% FLOPs, in_features=1280, out_features=896, bias=False)
                (down_proj): Linear(1.15 M = 0.034% Params, 135.33 MMACs = 0.0029% MACs, 270.66 MFLOPS = 0.0029% FLOPs, in_features=896, out_features=1280, bias=False)
                (act_fn): SiLU(0 = 0% Params, 0 MACs = 0% MACs, 105.73 KFLOPS = 0% FLOPs)
              )
              (52): DeepseekV2MLP(
                3.44 M = 0.1021% Params, 963.38 MMACs = 0.021% MACs, 1.93 GFLOPS = 0.0207% FLOPs
                (gate_proj): Linear(1.15 M = 0.034% Params, 321.13 MMACs = 0.007% MACs, 642.25 MFLOPS = 0.0069% FLOPs, in_features=1280, out_features=896, bias=False)
                (up_proj): Linear(1.15 M = 0.034% Params, 321.13 MMACs = 0.007% MACs, 642.25 MFLOPS = 0.0069% FLOPs, in_features=1280, out_features=896, bias=False)
                (down_proj): Linear(1.15 M = 0.034% Params, 321.13 MMACs = 0.007% MACs, 642.25 MFLOPS = 0.0069% FLOPs, in_features=896, out_features=1280, bias=False)
                (act_fn): SiLU(0 = 0% Params, 0 MACs = 0% MACs, 250.88 KFLOPS = 0% FLOPs)
              )
              (53): DeepseekV2MLP(
                3.44 M = 0.1021% Params, 1.25 GMACs = 0.0271% MACs, 2.49 GFLOPS = 0.0268% FLOPs
                (gate_proj): Linear(1.15 M = 0.034% Params, 415.17 MMACs = 0.009% MACs, 830.34 MFLOPS = 0.0089% FLOPs, in_features=1280, out_features=896, bias=False)
                (up_proj): Linear(1.15 M = 0.034% Params, 415.17 MMACs = 0.009% MACs, 830.34 MFLOPS = 0.0089% FLOPs, in_features=1280, out_features=896, bias=False)
                (down_proj): Linear(1.15 M = 0.034% Params, 415.17 MMACs = 0.009% MACs, 830.34 MFLOPS = 0.0089% FLOPs, in_features=896, out_features=1280, bias=False)
                (act_fn): SiLU(0 = 0% Params, 0 MACs = 0% MACs, 324.35 KFLOPS = 0% FLOPs)
              )
              (54): DeepseekV2MLP(
                3.44 M = 0.1021% Params, 829.19 MMACs = 0.0181% MACs, 1.66 GFLOPS = 0.0178% FLOPs
                (gate_proj): Linear(1.15 M = 0.034% Params, 276.4 MMACs = 0.006% MACs, 552.8 MFLOPS = 0.0059% FLOPs, in_features=1280, out_features=896, bias=False)
                (up_proj): Linear(1.15 M = 0.034% Params, 276.4 MMACs = 0.006% MACs, 552.8 MFLOPS = 0.0059% FLOPs, in_features=1280, out_features=896, bias=False)
                (down_proj): Linear(1.15 M = 0.034% Params, 276.4 MMACs = 0.006% MACs, 552.8 MFLOPS = 0.0059% FLOPs, in_features=896, out_features=1280, bias=False)
                (act_fn): SiLU(0 = 0% Params, 0 MACs = 0% MACs, 215.94 KFLOPS = 0% FLOPs)
              )
              (55): DeepseekV2MLP(
                3.44 M = 0.1021% Params, 1.67 GMACs = 0.0363% MACs, 3.34 GFLOPS = 0.0359% FLOPs
                (gate_proj): Linear(1.15 M = 0.034% Params, 556.24 MMACs = 0.0121% MACs, 1.11 GFLOPS = 0.012% FLOPs, in_features=1280, out_features=896, bias=False)
                (up_proj): Linear(1.15 M = 0.034% Params, 556.24 MMACs = 0.0121% MACs, 1.11 GFLOPS = 0.012% FLOPs, in_features=1280, out_features=896, bias=False)
                (down_proj): Linear(1.15 M = 0.034% Params, 556.24 MMACs = 0.0121% MACs, 1.11 GFLOPS = 0.012% FLOPs, in_features=896, out_features=1280, bias=False)
                (act_fn): SiLU(0 = 0% Params, 0 MACs = 0% MACs, 434.56 KFLOPS = 0% FLOPs)
              )
              (56): DeepseekV2MLP(
                3.44 M = 0.1021% Params, 650.28 MMACs = 0.0142% MACs, 1.3 GFLOPS = 0.014% FLOPs
                (gate_proj): Linear(1.15 M = 0.034% Params, 216.76 MMACs = 0.0047% MACs, 433.52 MFLOPS = 0.0047% FLOPs, in_features=1280, out_features=896, bias=False)
                (up_proj): Linear(1.15 M = 0.034% Params, 216.76 MMACs = 0.0047% MACs, 433.52 MFLOPS = 0.0047% FLOPs, in_features=1280, out_features=896, bias=False)
                (down_proj): Linear(1.15 M = 0.034% Params, 216.76 MMACs = 0.0047% MACs, 433.52 MFLOPS = 0.0047% FLOPs, in_features=896, out_features=1280, bias=False)
                (act_fn): SiLU(0 = 0% Params, 0 MACs = 0% MACs, 169.34 KFLOPS = 0% FLOPs)
              )
              (57): DeepseekV2MLP(
                3.44 M = 0.1021% Params, 1.16 GMACs = 0.0252% MACs, 2.31 GFLOPS = 0.0248% FLOPs
                (gate_proj): Linear(1.15 M = 0.034% Params, 385.35 MMACs = 0.0084% MACs, 770.7 MFLOPS = 0.0083% FLOPs, in_features=1280, out_features=896, bias=False)
                (up_proj): Linear(1.15 M = 0.034% Params, 385.35 MMACs = 0.0084% MACs, 770.7 MFLOPS = 0.0083% FLOPs, in_features=1280, out_features=896, bias=False)
                (down_proj): Linear(1.15 M = 0.034% Params, 385.35 MMACs = 0.0084% MACs, 770.7 MFLOPS = 0.0083% FLOPs, in_features=896, out_features=1280, bias=False)
                (act_fn): SiLU(0 = 0% Params, 0 MACs = 0% MACs, 301.06 KFLOPS = 0% FLOPs)
              )
              (58): DeepseekV2MLP(
                3.44 M = 0.1021% Params, 805.11 MMACs = 0.0175% MACs, 1.61 GFLOPS = 0.0173% FLOPs
                (gate_proj): Linear(1.15 M = 0.034% Params, 268.37 MMACs = 0.0058% MACs, 536.74 MFLOPS = 0.0058% FLOPs, in_features=1280, out_features=896, bias=False)
                (up_proj): Linear(1.15 M = 0.034% Params, 268.37 MMACs = 0.0058% MACs, 536.74 MFLOPS = 0.0058% FLOPs, in_features=1280, out_features=896, bias=False)
                (down_proj): Linear(1.15 M = 0.034% Params, 268.37 MMACs = 0.0058% MACs, 536.74 MFLOPS = 0.0058% FLOPs, in_features=896, out_features=1280, bias=False)
                (act_fn): SiLU(0 = 0% Params, 0 MACs = 0% MACs, 209.66 KFLOPS = 0% FLOPs)
              )
              (59): DeepseekV2MLP(
                3.44 M = 0.1021% Params, 1.02 GMACs = 0.0223% MACs, 2.04 GFLOPS = 0.022% FLOPs
                (gate_proj): Linear(1.15 M = 0.034% Params, 340.62 MMACs = 0.0074% MACs, 681.25 MFLOPS = 0.0073% FLOPs, in_features=1280, out_features=896, bias=False)
                (up_proj): Linear(1.15 M = 0.034% Params, 340.62 MMACs = 0.0074% MACs, 681.25 MFLOPS = 0.0073% FLOPs, in_features=1280, out_features=896, bias=False)
                (down_proj): Linear(1.15 M = 0.034% Params, 340.62 MMACs = 0.0074% MACs, 681.25 MFLOPS = 0.0073% FLOPs, in_features=896, out_features=1280, bias=False)
                (act_fn): SiLU(0 = 0% Params, 0 MACs = 0% MACs, 266.11 KFLOPS = 0% FLOPs)
              )
              (60): DeepseekV2MLP(
                3.44 M = 0.1021% Params, 454.16 MMACs = 0.0099% MACs, 908.57 MFLOPS = 0.0098% FLOPs
                (gate_proj): Linear(1.15 M = 0.034% Params, 151.39 MMACs = 0.0033% MACs, 302.78 MFLOPS = 0.0033% FLOPs, in_features=1280, out_features=896, bias=False)
                (up_proj): Linear(1.15 M = 0.034% Params, 151.39 MMACs = 0.0033% MACs, 302.78 MFLOPS = 0.0033% FLOPs, in_features=1280, out_features=896, bias=False)
                (down_proj): Linear(1.15 M = 0.034% Params, 151.39 MMACs = 0.0033% MACs, 302.78 MFLOPS = 0.0033% FLOPs, in_features=896, out_features=1280, bias=False)
                (act_fn): SiLU(0 = 0% Params, 0 MACs = 0% MACs, 118.27 KFLOPS = 0% FLOPs)
              )
              (61): DeepseekV2MLP(
                3.44 M = 0.1021% Params, 832.63 MMACs = 0.0181% MACs, 1.67 GFLOPS = 0.0179% FLOPs
                (gate_proj): Linear(1.15 M = 0.034% Params, 277.54 MMACs = 0.006% MACs, 555.09 MFLOPS = 0.006% FLOPs, in_features=1280, out_features=896, bias=False)
                (up_proj): Linear(1.15 M = 0.034% Params, 277.54 MMACs = 0.006% MACs, 555.09 MFLOPS = 0.006% FLOPs, in_features=1280, out_features=896, bias=False)
                (down_proj): Linear(1.15 M = 0.034% Params, 277.54 MMACs = 0.006% MACs, 555.09 MFLOPS = 0.006% FLOPs, in_features=896, out_features=1280, bias=False)
                (act_fn): SiLU(0 = 0% Params, 0 MACs = 0% MACs, 216.83 KFLOPS = 0% FLOPs)
              )
              (62): DeepseekV2MLP(
                3.44 M = 0.1021% Params, 1.51 GMACs = 0.0328% MACs, 3.01 GFLOPS = 0.0324% FLOPs
                (gate_proj): Linear(1.15 M = 0.034% Params, 502.33 MMACs = 0.0109% MACs, 1 GFLOPS = 0.0108% FLOPs, in_features=1280, out_features=896, bias=False)
                (up_proj): Linear(1.15 M = 0.034% Params, 502.33 MMACs = 0.0109% MACs, 1 GFLOPS = 0.0108% FLOPs, in_features=1280, out_features=896, bias=False)
                (down_proj): Linear(1.15 M = 0.034% Params, 502.33 MMACs = 0.0109% MACs, 1 GFLOPS = 0.0108% FLOPs, in_features=896, out_features=1280, bias=False)
                (act_fn): SiLU(0 = 0% Params, 0 MACs = 0% MACs, 392.45 KFLOPS = 0% FLOPs)
              )
              (63): DeepseekV2MLP(
                3.44 M = 0.1021% Params, 801.67 MMACs = 0.0175% MACs, 1.6 GFLOPS = 0.0172% FLOPs
                (gate_proj): Linear(1.15 M = 0.034% Params, 267.22 MMACs = 0.0058% MACs, 534.45 MFLOPS = 0.0057% FLOPs, in_features=1280, out_features=896, bias=False)
                (up_proj): Linear(1.15 M = 0.034% Params, 267.22 MMACs = 0.0058% MACs, 534.45 MFLOPS = 0.0057% FLOPs, in_features=1280, out_features=896, bias=False)
                (down_proj): Linear(1.15 M = 0.034% Params, 267.22 MMACs = 0.0058% MACs, 534.45 MFLOPS = 0.0057% FLOPs, in_features=896, out_features=1280, bias=False)
                (act_fn): SiLU(0 = 0% Params, 0 MACs = 0% MACs, 208.77 KFLOPS = 0% FLOPs)
              )
            )
            (gate): MoEGate(81.92 K = 0.0024% Params, 232.57 MMACs = 0.0051% MACs, 465.16 MFLOPS = 0.005% FLOPs)
            (shared_experts): DeepseekV2MLP(
              6.88 M = 0.2042% Params, 19.54 GMACs = 0.4254% MACs, 39.08 GFLOPS = 0.4199% FLOPs
              (gate_proj): Linear(2.29 M = 0.0681% Params, 6.51 GMACs = 0.1418% MACs, 13.02 GFLOPS = 0.1399% FLOPs, in_features=1280, out_features=1792, bias=False)
              (up_proj): Linear(2.29 M = 0.0681% Params, 6.51 GMACs = 0.1418% MACs, 13.02 GFLOPS = 0.1399% FLOPs, in_features=1280, out_features=1792, bias=False)
              (down_proj): Linear(2.29 M = 0.0681% Params, 6.51 GMACs = 0.1418% MACs, 13.02 GFLOPS = 0.1399% FLOPs, in_features=1792, out_features=1280, bias=False)
              (act_fn): SiLU(0 = 0% Params, 0 MACs = 0% MACs, 5.09 MFLOPS = 0.0001% FLOPs)
            )
          )
          (input_layernorm): DeepseekV2RMSNorm(1.28 K = 0% Params, 0 MACs = 0% MACs, 4.66 GFLOPS = 0.05% FLOPs)
          (post_attention_layernorm): DeepseekV2RMSNorm(1.28 K = 0% Params, 0 MACs = 0% MACs, 4.66 GFLOPS = 0.05% FLOPs)
        )
      )
      (norm): DeepseekV2RMSNorm(1.28 K = 0% Params, 0 MACs = 0% MACs, 4.66 GFLOPS = 0.05% FLOPs)
    )
    (lm_head): Linear(165.48 M = 4.9096% Params, 469.79 GMACs = 10.2302% MACs, 939.59 GFLOPS = 10.0945% FLOPs, in_features=1280, out_features=129280, bias=False)
  )
)
---------------------------------------------------------------------------------------------------

Memory usage:	8.6156 GBytes